CNN+RNN/best_model_net1.pth (torch, 137202 bytes, 17 tensors)

up1.rnn.weight_ih_l0 f4 [192, 64]
0	0xbd840e7d	-0.06448076
1	0x3d38e528	0.045140415
2	0xbdfd3802	-0.12364198
3	0xbd741129	-0.059586678
4	0xbdf574f8	-0.11985201
5	0xbdff53a4	-0.12467125
6	0xbbcaa07a	-0.006183681
7	0x3def60fe	0.11688422
8	0xbd254fb9	-0.040359233
9	0x3dc04327	0.09387808
10	0xbd9d969b	-0.07694741
11	0x3bd50fba	0.006502119
12	0x3cd6b229	0.026208
13	0xbdf17277	-0.117894106
14	0x3d34e4fc	0.04416369
15	0x3c848c58	0.016180202
16	0xbd415f90	-0.047210276
17	0x3e4678d9	0.19382037
18	0xbc17536b	-0.009236197
19	0x3d989d41	0.07451869
20	0xbd7214a2	-0.05910171
21	0x3db8a7ac	0.09016356
22	0x3d4ad9d9	0.049524162
23	0xbdd3b921	-0.10338045
24	0x3c5ffc1f	0.01367095
25	0xbda38e68	-0.07986146
26	0x3dbabb8b	0.09117802
27	0x3e06c7a2	0.13162091
28	0x3d8d8094	0.0690929
29	0x3c3867d7	0.011255226
30	0x3da8f786	0.08250336
31	0xbddd1603	-0.10795214
32	0x3d905a51	0.070484765
33	0xbdca865e	-0.0988891
34	0xbd1c074b	-0.038092893
35	0x3b4629e7	0.0030237378
36	0x3c6fe8f6	0.014642945
37	0xbdd1c5bb	-0.10242792
38	0xbd71169c	-0.058859453
39	0xbb0f90dd	-0.0021906414
40	0xbe04178c	-0.12899607
41	0xbd9154de	-0.07096265
42	0x3e20d2d4	0.15705425
43	0x3c946b01	0.01811743
44	0x3dafa0b2	0.08575572
45	0xbd533a7a	-0.05156944
46	0x3c3b1ab7	0.0114199435
47	0xbdf24daa	-0.118312195
48	0x3da09841	0.0784154
49	0x3e00965f	0.12557362
50	0xbda2b103	-0.079439186
51	0xb90090d6	-0.00012260987
52	0xbd86abd3	-0.065757416
53	0x3e716c67	0.23576508
54	0xbd54c1a2	-0.051942475
55	0x3d1189b6	0.035531722
56	0x3d883ed8	0.066526115
57	0xbe0aade5	-0.13542898
58	0xbda41a2a	-0.08012803
59	0x3dcbb27b	0.09946152
60	0x3e39b356	0.18134817
61	0xbd83347b	-0.06406494
62	0xbd37f260	-0.04490888
63	0x3d8bddce	0.06829415
64	0x3b6d8df1	0.0036247934
65	0x3d64d86c	0.05587046
66	0xbe4c4559	-0.19948329
67	0x3d4e70b4	0.05040045
68	0xbd64c91f	-0.055855867
69	0xbe2c730f	-0.16840766
70	0x3b8a7279	0.004225072
71	0xbcafd2f8	-0.021462902
72	0x3d3a0df5	0.045423467
73	0x3dea911d	0.114534594
74	0x3dcc5ddd	0.099788405
75	0x3e164a88	0.14676869
76	0xbd3d91ec	-0.04628174
77	0xbe2f6898	-0.17129743
78	0x3de32309	0.11090667
79	0x3e2e3ecc	0.17016143
80	0xbcd85d16	-0.026411574
81	0x3c5e224f	0.0135579845
82	0x3da99def	0.082820766
83	0xbcc9c9a0	-0.024632275
84	0xbe28a6dc	-0.16469902
85	0x3d538ed8	0.0516499
86	0x3d027e33	0.031858634
87	0x3d45cdfc	0.048292145
88	0xbd600655	-0.05469354
89	0xbd92d2f0	-0.071691394
90	0x3c5451c5	0.0129589485
91	0x3df25bf9	0.11833949
92	0xbca0bd5c	-0.019621544
93	0xbd9ed10d	-0.07754717
94	0xbc7f7c64	-0.015593622
95	0xbd3a0c3e	-0.04542183
96	0x3d90fe0a	0.07079704
97	0x3e21a82b	0.15786807
98	0x3d89f840	0.06736803
99	0x3dac8ba1	0.084250696
100	0x3e5fa11c	0.21838802
101	0xbe3da16c	-0.18518609
102	0xbdc0f387	-0.09421449
103	0xbd28350d	-0.04106622
104	0xbd01e447	-0.031711843
105	0xbc09e8be	-0.0084173065
106	0xbd5f20c7	-0.05447462
107	0x3bfb10f6	0.007661934
108	0xbba6ab35	-0.0050863274
109	0xbe322563	-0.17397074
110	0xbe2e5fbf	-0.17028712
111	0xbda31ee6	-0.07964878
112	0xbd1cd0b8	-0.038284987
113	0x3dd11be7	0.102104
114	0xbe11dcd2	-0.14244393
115	0xbd34147b	-0.043964844
116	0xbd02eead	-0.0319659
117	0x3dd36739	0.103224225
118	0xbcc6c6bb	-0.024264684
119	0x3dfba757	0.12287777
120	0xbcd47b80	-0.025937796
121	0x3c0c8089	0.008575567
122	0x3d837a1d	0.06419776
123	0x3df4919a	0.11941834
124	0x3e3b9d26	0.18321666
125	0xbc02f08c	-0.007991921
126	0x3db05f50	0.086119294
127	0x3e006392	0.12537983
128	0x3dbdf6c5	0.09275583
129	0x3d3d23af	0.04617661
130	0xbcce9f77	-0.025222523
131	0x3c8ca5a2	0.017168824
132	0xbb380a0d	-0.0028082163
133	0xbd3aa68c	-0.045568988
134	0x3da60ac4	0.08107522
135	0xbdcab3e3	-0.09897592
136	0x3d6f8c09	0.058483157
137	0xbcc98a09	-0.024601953
138	0x3ddc2a62	0.107502714
139	0x3cfa28c5	0.030537019
140	0xbdae4903	-0.0851002
141	0xbd26d7d6	-0.04073318
142	0xbdc75070	-0.09732139
143	0x3dbf7e64	0.09350279
144	0x3cb7f224	0.022454329
145	0x3e3a3d63	0.1818748
146	0x3e03f3f3	0.12886028
147	0x3e27691a	0.16348687
148	0xbdb5122d	-0.088413574
149	0xbda24b69	-0.079245396
150	0xbd7880ec	-0.060669824
151	0xbe174603	-0.14772801
152	0xbdefc98b	-0.11708363
153	0xbd03f6ea	-0.032217897
154	0x3bfba87d	0.0076799975
155	0x3dfdcc26	0.12392454
156	0xbbd96099	-0.00663383
157	0x3b6628d4	0.003511955
158	0x3dda4ce5	0.10659198
159	0xbd47f221	-0.048814896
160	0xbdea6c18	-0.114463985
161	0x3dbd728e	0.09250365
162	0xbdb42303	-0.087957405
163	0x3e616bc0	0.2201376
164	0xbdb6292b	-0.08894571
165	0x3d62efb8	0.055404395
166	0xbdb068fe	-0.08613776
167	0xbd988ed8	-0.0744912
168	0xbd9d2505	-0.076730765
169	0x3cdc8270	0.026917666
170	0xbd651f93	-0.055938315
171	0xbd16b8ff	-0.03679752
172	0x3d861800	0.065475464
173	0xbe14316e	-0.14471981
174	0xbe116b4a	-0.14201084
175	0xbe257049	-0.16156115
176	0xbded08da	-0.11573954
177	0xbb4d30e8	-0.0031309668
178	0xbd9e0b88	-0.07717043
179	0xbdcdfa90	-0.10057557
180	0x3d1e1d9f	0.038602468
181	0x3c947dfa	0.018126477
182	0xbddcbea5	-0.1077855
183	0x3cf2f3a4	0.029657193
184	0x3e235b8d	0.15952893
185	0x3d795a09	0.06087688
186	0x3d29e193	0.04147489
187	0xbd3cd524	-0.046101704
188	0x3e1941b9	0.14966477
189	0x3c41d3e8	0.011830308
190	0xbdc23243	-0.09482243
191	0x3d2ce6eb	0.042212408
192	0x3a9f5225	0.0012155218
193	0x3e22acd5	0.15886243
194	0xbdf15e9b	-0.11785623
195	0xbb6e38d9	-0.0036349802
196	0x3db0a56b	0.08625301
197	0xbe016a92	-0.1263831
198	0x3e02d974	0.12778264
199	0xbd4b5e97	-0.049650755
200	0xbca566f3	-0.020190692
201	0xbdbf5256	-0.09341876
202	0x3dda5db2	0.10662402
203	0xbd5da400	-0.05411148
204	0xbd265f8d	-0.040618468
205	0xbd77ee6b	-0.060530107
206	0xbc95ec6b	-0.01830121
207	0x3cf37a8e	0.029721525
208	0x3dd83485	0.10556892
209	0x3e0f1386	0.13972291
210	0x3d0599ed	0.0326175
211	0xba862e42	-0.0010237175
212	0x3dc4d976	0.0961179
213	0x3b9d7ab3	0.0048058867
214	0x3d2e78f5	0.042595822
215	0x3c2c062e	0.01049952
216	0x3e211553	0.15730791
217	0xbc86fded	-0.016478503
218	0xbc533baf	-0.012892648
219	0xbdd63b13	-0.10460486
220	0x3d5e28d1	0.054238144
221	0x3d799cbc	0.06094049
222	0x3dceab08	0.10091215
223	0xbd519147	-0.051163938
224	0x3c2c2b16	0.010508319
225	0x3dfff69f	0.12498211
226	0xbca66452	-0.020311508
227	0x3dd8395d	0.10557816
228	0x3d849974	0.06474581
229	0x3d318f4e	0.043349557
230	0xbe4963e5	-0.19667013
231	0x3d6561b6	0.056001388
232	0x3d5bd96d	0.05367415
233	0x3d895e1b	0.06707402
234	0xbd082dd4	-0.03324683
235	0xbe1705d3	-0.14748316
236	0xbd359608	-0.044332534
237	0x3be57885	0.0070028924
238	0x3da3ece0	0.08004165
239	0xbd26b434	-0.0406992
240	0xbc590285	-0.01324523
241	0x3da44de9	0.08022673
242	0xbdb3c18d	-0.08777151
243	0x3d9765c4	0.07392457
244	0xbb6f1d4d	-0.003648597
245	0x3e0e87c6	0.13918981
246	0xbdc59ecb	-0.09649428
247	0xbddb02cf	-0.10693895
248	0x3d204c8d	0.039135505
249	0xbda562d7	-0.08075493
250	0x3dafc29f	0.08582043
251	0x3ddb27ee	0.10700975
252	0x3e0926f1	0.13393761
253	0xbcdf7900	-0.027279377
254	0x3e17fa70	0.14841628
255	0x3e0ac30e	0.1355097

up1.rnn.weight_hh_l0 f4 [192, 64]
0	0xbd94f114	-0.072725445
1	0x3df36fe8	0.11886579
2	0x3b0b5964	0.0021262998
3	0x3ab3d4a1	0.0013719985
4	0x3aab8487	0.0013085761
5	0x3da89e07	0.08233266
6	0xbddb95f1	-0.107219584
7	0xbc991c07	-0.018690122
8	0x3da54434	0.08069649
9	0xbd7a1b84	-0.061061397
10	0xbc4fa0e3	-0.012672636
11	0x3c410907	0.011781937
12	0xbcd7696e	-0.02629539
13	0xb9825e4e	-0.00024865795
14	0xbc0ddaaa	-0.008658091
15	0xbbdf71c0	-0.00681898
16	0xbd7d0748	-0.061774522
17	0x3db658dd	0.08903668
18	0x3d034e7c	0.03205727
19	0x3c91fab3	0.017819738
20	0xbc39ab7f	-0.011332392
21	0x3bca48ae	0.006173215
22	0xbe000fbf	-0.12506007
23	0x3dbeca7a	0.09315963
24	0xbdd8c2e8	-0.105840504
25	0x3db33dbd	0.0875201
26	0xbd4c776e	-0.049918585
27	0x3cc4abdc	0.02400773
28	0x3a55ef52	0.00081609667
29	0xbcdd505a	-0.027015854
30	0xbdbac75a	-0.091200545
31	0xbd349281	-0.04408503
32	0xbd6bbedd	-0.05755507
33	0x3d9a550c	0.07535753
34	0x3d9da1a4	0.07696846
35	0x3d8c1773	0.0684041
36	0xbd71110c	-0.058854148
37	0x3cbf3354	0.023339905
38	0x3d9f247b	0.0777063
39	0xbdb835f5	-0.089946665
40	0xbdaed989	-0.08537585
41	0xbc8b3612	-0.016993556
42	0xbcf42044	-0.029800542
43	0x3cafa607	0.021441473
44	0x3d9fc7c1	0.07801772
45	0x3d32957a	0.043599583
46	0x3de3bca9	0.111199684
47	0xbce36480	-0.027757883
48	0x3cb765fe	0.0223875
49	0x3cc7776b	0.024348935
50	0x3d9b6ec3	0.075894855
51	0x3d439c4b	0.047756474
52	0x3d6b26c3	0.057410013
53	0xbd2cc84f	-0.042183217
54	0xbc8e733d	-0.017388934
55	0x3c12f756	0.008970102
56	0xbdbede20	-0.09319711
57	0x3cb5e3fe	0.022203442
58	0x3cadee27	0.021231724
59	0xbddee6dd	-0.108838774
60	0x3de3211e	0.11090301
61	0xbc9d58e0	-0.019207418
62	0xbdd9409a	-0.10608025
63	0xbd6b25e2	-0.057409175
64	0x3dad4036	0.08459513
65	0x3b3d8887	0.0028920488
66	0x3dce76e5	0.10081271
67	0x3d1a0cb7	0.037609782
68	0x3e050e7f	0.12993811
69	0xbcb8a028	-0.022537306
70	0xbdbae66e	-0.09125982
71	0x3de073a7	0.10959559
72	0x3d2941e6	0.04132261
73	0xbdacfa1c	-0.08446142
74	0x3dd23165	0.102633275
75	0xbd3eea16	-0.04660996
76	0x3d549849	0.051903043
77	0xbbe8248c	-0.007084435
78	0xbd25c8fa	-0.04047487
79	0x3bd33d3a	0.0064465078
80	0xbd05afee	-0.032638483
81	0x3da1e250	0.07904494
82	0xbd57b586	-0.05266335
83	0x3d98a57d	0.074534394
84	0xbcc6f4df	-0.024286686
85	0xbd7fc2c9	-0.06244162
86	0xbd9fa39d	-0.07794879
87	0xbd0719b0	-0.032983482
88	0x3c068b48	0.008211918
89	0xbd9b69af	-0.07588517
90	0x3c9532d2	0.01821271
91	0xbd269cb5	-0.04067679
92	0xbde2b032	-0.11068763
93	0x3dcd771f	0.10032486
94	0x3cfcc3f5	0.030855158
95	0xbd805244	-0.06265691
96	0x3cfe2829	0.03102501
97	0x3b63ffa1	0.0034789818
98	0xbc70f429	-0.01470665
99	0x3df5be6f	0.11999213
100	0xbc2bf63b	-0.010495718
101	0x3dd1c76a	0.10243113
102	0xbd3fb8fe	-0.04680728
103	0xbd3ee093	-0.04660089
104	0xbc8a93bb	-0.016916147
105	0xbdd0f083	-0.10202124
106	0xbd814603	-0.06312182
107	0x3c409d18	0.011756204
108	0xbc9417e2	-0.018077794
109	0xbd9db991	-0.077014096
110	0xbd8c6a94	-0.06856266
111	0xbdc3f77f	-0.095686905
112	0x3d4993cb	0.049213212
113	0xbbfee9e2	-0.007779346
114	0x3cea030f	0.028565912
115	0xbd3feabe	-0.046854727
116	0x3d3f0d3f	0.04664349
117	0x3d90e658	0.070751846
118	0xbd3f85af	-0.04675835
119	0xbd593e32	-0.05303783
120	0x3dcc0ed6	0.09963767
121	0xbdbc1612	-0.09183897
122	0x3d447e25	0.047971863
123	0xbab84c27	-0.0014060781
124	0x3da6de51	0.08147872
125	0xbd0e1b7b	-0.034694176
126	0xbcb84aa0	-0.022496521
127	0xbd5c401b	-0.053772073
128	0xbc9a44b8	-0.018831596
129	0xbd3e1a89	-0.046412025
130	0xbd463b96	-0.04839667
131	0xbda8db0c	-0.08244905
132	0xbd2be3cc	-0.04196529
133	0xbd14398a	-0.036187686
134	0x3c3a3984	0.011366252
135	0x3d90a790	0.0706321
136	0x3d2299f8	0.039697617
137	0xbb4ba244	-0.003107206
138	0x3dd00058	0.101563156
139	0xbde5f878	-0.11229032
140	0x3d5b9832	0.05361194
141	0xbd426fbe	-0.047469847
142	0xbdefc4e0	-0.11707473
143	0x3dbfc795	0.09364239
144	0xbd7d67b0	-0.061866462
145	0x3dacb958	0.08433789
146	0xbde98c70	-0.114037395
147	0xbd02be22	-0.031919606
148	0x3d928fce	0.07156335
149	0xbd1804c0	-0.037113905
150	0xbca9596e	-0.020672526
151	0xbd42efa2	-0.047591813
152	0x3df79e22	0.12090708
153	0xbe11dc73	-0.14244251
154	0x3d9bed16	0.0761358
155	0xbad6d538	-0.0016390448
156	0xbb94f846	-0.004546198
157	0xbd1a612a	-0.03769032
158	0x3de3adba	0.1111712
159	0xbd236eca	-0.03990058
160	0xbddb4e98	-0.1070835
161	0xbc98071d	-0.01855808
162	0x3d44002e	0.047851734
163	0xbcdfc786	-0.02731682
164	0x3d0aff96	0.033935152
165	0x3afa3f49	0.0019092347
166	0x3dbf073c	0.09327552
167	0x3dcfa268	0.101383984
168	0xbd0dc098	-0.0346075
169	0x3dde997e	0.1086912
170	0x3d09dfbc	0.033660635
171	0xbdb4d150	-0.08828986
172	0xbd289c8e	-0.041164927
173	0x3d0c62ad	0.034273792
174	0xbcb8adce	-0.022543814
175	0x3defc7fd	0.117080666
176	0x3cf34379	0.02969526
177	0xbc812129	-0.015762882
178	0x3e080216	0.13282046
179	0xbdd94366	-0.10608558
180	0xbd415b43	-0.047206175
181	0x3d7f7f81	0.062377457
182	0x3cce0a35	0.025151351
183	0xbdb5e3c6	-0.08881335
184	0xbd5077c9	-0.050895486
185	0x3d155d4e	0.036465935
186	0xbd3c9616	-0.04604157
187	0xbd1049ef	-0.03522676
188	0x3d9dd8e4	0.07707384
189	0x3d4d60dd	0.050141204
190	0x3dd2471c	0.10267469
191	0x3ddd3c81	0.10802556
192	0xbd60a659	-0.05484614
193	0x3da57aa0	0.080800295
194	0x3cc58f9c	0.02411633
195	0x3cdfc46d	0.027315343
196	0x3db9d0b3	0.09073009
197	0x3d116ac3	0.035502207
198	0xbdb482d9	-0.0881402
199	0x3ccd1298	0.02503328
200	0xbcb178ce	-0.02166405
201	0x3cffd497	0.0312293
202	0xbd3018cc	-0.0429924
203	0xbd671800	-0.056419373
204	0xbc49be6f	-0.012313469
205	0x3d794d48	0.060864717
206	0x3d07c78e	0.033149295
207	0xbd520045	-0.05126979
208	0xbdaaf8db	-0.08348247
209	0xbd566761	-0.052344684
210	0x3c85259a	0.016253281
211	0x3ddd7d7c	0.1081495
212	0x3d92a4ed	0.07160363
213	0x3c517a6b	0.012785534
214	0x3d54852a	0.051884808
215	0xbd998da6	-0.074977204
216	0xbc885792	-0.01664332
217	0xbd52ae05	-0.05143549
218	0x3dc0f894	0.094224125
219	0x3d4b5182	0.04963828
220	0xbc873129	-0.016502934
221	0x3d6bb7ac	0.05754821
222	0xbddf6065	-0.10907058
223	0x3d9a6cf6	0.07540314
224	0xbb279bed	-0.0025575117
225	0xbc8538ad	-0.016262377
226	0x3cb86bf5	0.022512415
227	0x3c12ce74	0.008960355
228	0xbca3bb1a	-0.019986678
229	0xbcd307a9	-0.025760489
230	0x3d8e554d	0.069498636
231	0x3d2176a9	0.039419804
232	0xbdf320a5	-0.11871461
233	0x3e18eb43	0.14933495
234	0x3dcf8cb9	0.101342626
235	0x3c6e1aec	0.014532786
236	0x3cc8b421	0.024499955
237	0x3ca0bb7e	0.019620653
238	0xbd159dde	-0.036527507
239	0xbbd38f90	-0.006456323
240	0x3daa46b9	0.083142705
241	0xbc5e74ee	-0.013577683
242	0xbdb662dc	-0.08905575
243	0xbd6d31e9	-0.057908926
244	0xbd31dee0	-0.04342544
245	0xbd29e11d	-0.04147445
246	0xbd7c79ec	-0.06163971
247	0xbdedf48a	-0.11618908
248	0x3d118395	0.035525877
249	0xbd3e5143	-0.046464216
250	0x3d758708	0.05994323
251	0x3c8324a1	0.016008677
252	0x3cf60427	0.030031277
253	0x3ce30bcb	0.027715584
254	0xbd86a2ec	-0.06574044
255	0x3b25f664	0.0025323862

up1.rnn.bias_ih_l0 f4 [192]
0	0x3d0a47bf	0.03375983
1	0xbe0122da	-0.12610951
2	0x3d27678b	0.04087023
3	0x3ddfe4fe	0.10932349
4	0x3c6e1f3b	0.014533813
5	0x3dadf019	0.084930606
6	0x3df2d2a4	0.11856583
7	0xbb71d50b	-0.0036900665
8	0x3ae6170b	0.0017554475
9	0xbc72801e	-0.014801053
10	0xbdae5114	-0.08511558
11	0x3bb5c4b2	0.0055471295
12	0xbdd2e388	-0.102973044
13	0xbd2800d5	-0.04101642
14	0xbd49fb5a	-0.049311973
15	0x3c96492c	0.018345438
16	0x3b968c8e	0.004594392
17	0xbd8521a1	-0.06500555
18	0x3dbb341f	0.09140801
19	0x3e00ad8f	0.12566207
20	0xbd204820	-0.039131284
21	0x3dd0c06d	0.10192952
22	0x3dc7e79e	0.09760974
23	0x3d257271	0.040392343
24	0x3d1eb8c8	0.03875044
25	0x3df96055	0.12176577
26	0x3d61521d	0.05500995
27	0xbd92883a	-0.071548894
28	0xbce2c6e1	-0.027682723
29	0x3daf5b90	0.08562386
30	0x3d6df230	0.058092296
31	0xbd927a80	-0.07152271
32	0x3dbcc12e	0.092165336
33	0x3d5979bb	0.053094607
34	0xbdadc3b0	-0.0848459
35	0x3dc282c6	0.09497599
36	0x3d2d4fbf	0.04231238
37	0xbdc7ba19	-0.09752292
38	0x3d3abe99	0.045591924
39	0x3d6c6918	0.057717413
40	0x3d57d0f0	0.052689493
41	0x3da05365	0.07828406
42	0xbde1a07a	-0.110169366
43	0xbddb8b13	-0.10719886
44	0x3b11e1f5	0.0022259925
45	0x3dc38028	0.09545928
46	0xbcf5aa35	-0.029988388
47	0xbdd6c17a	-0.104861215
48	0xbc9e6602	-0.01933575
49	0x3da20330	0.07910764
50	0x3d99cf22	0.075102106
51	0xbd0aa307	-0.03384688
52	0xbdd57e5d	-0.104244925
53	0xbcc1dc8b	-0.023664733
54	0x3d5866e9	0.052832518
55	0xbc43f5e3	-0.011960479
56	0x3c83f88e	0.016109731
57	0xbdbdbd80	-0.0926466
58	0xbd89f787	-0.06736665
59	0xbd359375	-0.04433008
60	0xbc0a519f	-0.008442312
61	0xbc208c47	-0.00979907
62	0xbcae5ece	-0.02128544
63	0xbdf020a0	-0.11724973
64	0x3d9b28f8	0.075761735
65	0xbdb33de6	-0.087520406
66	0xbe4b2d1d	-0.19841428
67	0xbde399ae	-0.111132964
68	0xbddf6da6	-0.10909586
69	0xbe22f851	-0.15915038
70	0x3caa24e2	0.02076954
71	0x3d3509e5	0.04419889
72	0xbca1e81b	-0.019763997
73	0x3d50c6a6	0.050970696
74	0xbce83237	-0.028344257
75	0xbe225352	-0.15852097
76	0x3c503ead	0.012710256
77	0xbddbeb1d	-0.10738204
78	0xbe0ed513	-0.13948469
79	0xbb6e8dee	-0.0036400515
80	0x3cf6ec50	0.03014198
81	0xbcf35b29	-0.029706554
82	0xbe083697	-0.13302074
83	0xbdd6e812	-0.10493483
84	0x3d884d28	0.066553414
85	0xbd8ff923	-0.07029941
86	0xbe21b12b	-0.1579024
87	0xbcdd3605	-0.027003298
88	0xbdc5cc71	-0.09658135
89	0xbda632cf	-0.0811516
90	0xbe299a41	-0.1656275
91	0xbdb909ea	-0.09035094
92	0x3d8234cb	0.06357726
93	0xbe4663c2	-0.19373992
94	0xbc8e8181	-0.017395737
95	0xbcf6bdfc	-0.030119888
96	0x3cd37542	0.025812749
97	0xbe19ab5a	-0.15006772
98	0xbc8601f2	-0.01635835
99	0xbdf94f00	-0.12173271
100	0x3d95b9e5	0.07310847
101	0x3d0c0b35	0.034190375
102	0x3d502daa	0.0508248
103	0xbe2184b8	-0.15773284
104	0x3c37a9b3	0.011209893
105	0x3d500a26	0.05079093
106	0xbe034d37	-0.12822424
107	0xbdad49a9	-0.08461315
108	0xbc8b870c	-0.017032169
109	0xbe2feeee	-0.17180988
110	0xbe461f10	-0.19347787
111	0xbe52a15e	-0.20569369
112	0x3d85d0e5	0.06533984
113	0x3d3f5616	0.046712957
114	0xbde6522a	-0.1124614
115	0xbc90e9ff	-0.017689703
116	0x3bffb9dd	0.007804139
117	0xbcaedadd	-0.021344597
118	0xbddaa3b0	-0.10675752
119	0xbe19cbd5	-0.15019162
120	0xbd7bc7e5	-0.06146993
121	0xb9baff4e	-0.000356669
122	0xbe17951c	-0.14802974
123	0xbcf6d30e	-0.030129936
124	0xbe1ddedf	-0.1541705
125	0xbe212c32	-0.15739515
126	0xbd1b9556	-0.037984215
127	0xbd2c4f8a	-0.04206804
128	0x3c436ed1	0.011928276
129	0xbd933670	-0.071881175
130	0x3ddb1ed2	0.10699238
131	0x3d74a631	0.059728805
132	0x3d7bc9e6	0.061471842
133	0xbde73d67	-0.112910084
134	0x3d767248	0.06016758
135	0x3dcaf6d2	0.099103585
136	0x3d360433	0.0444376
137	0xbce03faf	-0.027374117
138	0x3d4d88ab	0.050179165
139	0xbdb6624a	-0.08905466
140	0xbd35741b	-0.04430018
141	0xbde4725b	-0.11154624
142	0xbce3f189	-0.027825134
143	0x3d3db2d3	0.04631312
144	0x3d6e9511	0.05824763
145	0x3d3d76db	0.046255928
146	0xbdd2dfce	-0.102965936
147	0x3baf89ae	0.005356989
148	0xbddae4c7	-0.10688167
149	0x3da5d127	0.08096533
150	0x3dc202b7	0.09473174
151	0x3c09f100	0.008419275
152	0xbd7708e0	-0.0603112
153	0x3dc108ac	0.09425482
154	0x3c7dcdc6	0.015490955
155	0xbdc1a4a0	-0.09455228
156	0xbdb88bf6	-0.090110704
157	0xbdbdeb20	-0.09273362
158	0xbd8c7994	-0.06859127
159	0xbdeee174	-0.116640955
160	0xbb8ea106	-0.0043526916
161	0x3dd68ec5	0.1047645
162	0xbd30b12c	-0.043137714
163	0x3d820320	0.06348252
164	0x3cf5fb76	0.030027132
165	0xbd238727	-0.039923813
166	0x3d7e5d0b	0.06210045
167	0xbd5a381a	-0.05327616
168	0xbda0fc72	-0.0786065
169	0x3cb92db6	0.022604804
170	0x3d8361d9	0.06415147
171	0x3d955e67	0.072933964
172	0xba53571d	-0.0008061992
173	0xbdca1e96	-0.09869115
174	0x3d9f6a17	0.07783907
175	0x3b4f817e	0.0031662877
176	0x3e0f2f7a	0.13982955
177	0xbd6adc18	-0.057338804
178	0x3d83d689	0.06437404
179	0x3c68d431	0.014210747
180	0xbd4c433c	-0.049868807
181	0xbddc32d8	-0.10751885
182	0x3d87e81c	0.06636068
183	0x3c9c4431	0.019075485
184	0xbdcf2242	-0.10113956
185	0xbdbd9b49	-0.09258134
186	0x3d6e13b4	0.05812426
187	0x3d5ed07e	0.054398052
188	0x3ddfa78b	0.10920628
189	0xbdc84539	-0.09778828
190	0x3b909df8	0.0044133626
191	0x3d42d12a	0.047562756

up1.rnn.bias_hh_l0 f4 [192]
0	0xbdbbad96	-0.09163968
1	0xbcf511e2	-0.029915754
2	0x3da416e1	0.08012176
3	0x3d79fd0b	0.061032336
4	0xb9f50b64	-0.00046738528
5	0x3deddf37	0.116148405
6	0x3dcd624c	0.10028514
7	0xbc87195e	-0.016491588
8	0xbd139d43	-0.03603865
9	0xbdb0c656	-0.086315796
10	0xbceb49ba	-0.028721679
11	0x3da90c44	0.082542926
12	0xbd9d4797	-0.0767967
13	0x3d9f6066	0.077820584
14	0xbce58190	-0.028015882
15	0x3cf08325	0.02935941
16	0xbdc07d96	-0.093989536
17	0x3dacdbc5	0.08440355
18	0xbdaf6a65	-0.08565215
19	0x3ca391ae	0.019966926
20	0x3ce37349	0.027764933
21	0x3d686cce	0.05674439
22	0x3cbddf9e	0.023177918
23	0xbc0e8a18	-0.008699916
24	0x3cdb33b1	0.026758047
25	0xbc97afb1	-0.018516393
26	0xbc37908c	-0.011203896
27	0xbcb48e0b	-0.022040388
28	0x3de13517	0.10996454
29	0xbdb4ce70	-0.08828437
30	0x3d01d5ea	0.031698145
31	0xbd68afc7	-0.05680826
32	0xbdbe7274	-0.09299174
33	0xbe0fc019	-0.14038123
34	0xbd4c09d3	-0.049814057
35	0xbc669cf8	-0.01407551
36	0x3bb4dd57	0.00551955
37	0x3cdafe72	0.026732657
38	0x3dba406c	0.09094319
39	0x3d2b61a0	0.04184115
40	0xbdefb748	-0.1170488
41	0xbd954570	-0.07288635
42	0xbdd1e29e	-0.10248302
43	0xbdd47789	-0.10374362
44	0x3db11086	0.0864573
45	0xbd5c206c	-0.053741857
46	0xbcb77885	-0.022396335
47	0xbc3cc13b	-0.011520679
48	0xbdaca29b	-0.08429452
49	0xbd5e571d	-0.054282296
50	0x3cb3bc6f	0.021940438
51	0xbd277b3b	-0.040889006
52	0xbdee55ab	-0.116374336
53	0x3de6c88e	0.112687215
54	0xbd6b93f7	-0.057514157
55	0xbdd389c6	-0.103290126
56	0xbd92d557	-0.071695976
57	0xbd0e9aa7	-0.034815457
58	0xbd0713dd	-0.032977927
59	0x3a5b0dc0	0.0008356236
60	0x3b696253	0.0035611584
61	0xbdd0ce02	-0.10195543
62	0xbdf7b80b	-0.1209565
63	0x3cd65d25	0.026167462
64	0xbe086807	-0.13320933
65	0xbdc4ceb8	-0.09609741
66	0xbdde499d	-0.10853884
67	0xbdbee0bb	-0.09320208
68	0xbdf3f154	-0.11911264
69	0xbd094683	-0.03351451
70	0xbde097e3	-0.1096647
71	0x3c9bec0e	0.019033458
72	0xbe3513b2	-0.17683294
73	0x3ccdbce1	0.025114479
74	0xbdc3773b	-0.09544226
75	0xbdffdd08	-0.1249333
76	0xbd25172d	-0.040305305
77	0xbc9cfe72	-0.019164298
78	0xbe4cf950	-0.2001698
79	0xbdb15a0d	-0.08659754
80	0xbded21e8	-0.11578733
81	0xbdaccbbb	-0.08437296
82	0xbe36f8a3	-0.17868285
83	0xbd86ae9b	-0.06576272
84	0x3d4b92a5	0.049700398
85	0x3d188eb0	0.037245452
86	0xbd9561d7	-0.07294052
87	0xbd0943b1	-0.03351182
88	0x3cf18c08	0.029485717
89	0xbbfdc332	-0.0077442164
90	0xbd4a7f8a	-0.049438037
91	0x3b9cc65a	0.0047843875
92	0xbe080952	-0.13284805
93	0x3b647a38	0.0034862887
94	0xbdce3b5a	-0.10069914
95	0xbe0a8783	-0.13528256
96	0x3d0cc2ca	0.034365453
97	0xbe30b01d	-0.17254682
98	0xbca571db	-0.020195892
99	0xbda6b56e	-0.08140074
100	0xbd9942b9	-0.074834295
101	0xbcdcbea7	-0.026946379
102	0xbd97154f	-0.07377111
103	0xbe1adc76	-0.15123162
104	0x3bda4349	0.006660853
105	0x3c4c630f	0.012474789
106	0xbdbb88ae	-0.09156929
107	0xbdbc5026	-0.091949746
108	0xbca19706	-0.019725334
109	0xbe45c710	-0.19314218
110	0x3c9f6421	0.019456925
111	0xbe22d35b	-0.15900938
112	0x3d9a6e0f	0.07540523
113	0xbe3b2104	-0.18274313
114	0xbe640fdd	-0.22271676
115	0xbd99bb2f	-0.075064056
116	0x3c387bb0	0.011259958
117	0xbd912f65	-0.07089118
118	0x3d820a2a	0.06349595
119	0x3ca1cc58	0.019750759
120	0xbd3a9dc1	-0.045560602
121	0xbe29ba57	-0.1657499
122	0xbdcf0181	-0.10107709
123	0xbdbcbd06	-0.09215741
124	0xbd2fb613	-0.04289825
125	0x3d7be7af	0.061500248
126	0xbe2ac0e3	-0.16675143
127	0xbc48ad5c	-0.012248363
128	0xbca6c4f4	-0.020357586
129	0xba8db6f8	-0.0010811975
130	0xbd342178	-0.04397723
131	0xbdfc0609	-0.123058386
132	0x3dba40ec	0.09094414
133	0x3cae78b0	0.021297783
134	0x3dc42e08	0.09579092
135	0xbde20bf6	-0.110374376
136	0x3d93033d	0.07178352
137	0xbd17fde7	-0.037107375
138	0x3cee5528	0.02909334
139	0x3c7d2105	0.015449767
140	0xbddfbf70	-0.10925186
141	0xbd886e74	-0.06661692
142	0x3dd034cd	0.10166321
143	0xbcf7920f	-0.030221013
144	0x3d06bd29	0.03289524
145	0x3de0efa0	0.10983205
146	0xbca4115f	-0.020027814
147	0x3db11a2d	0.08647571
148	0x3bef80e1	0.0073090647
149	0xbc1fb059	-0.009746634
150	0x3dc2cad1	0.095113404
151	0x3e009041	0.12555028
152	0x3d97478a	0.07386692
153	0xbdda07bd	-0.10646007
154	0x3dd2fa7c	0.10301682
155	0xbc968a02	-0.018376354
156	0xbcc744c7	-0.024324788
157	0xbd5e9505	-0.054341335
158	0x3d8efb6f	0.06981551
159	0xbddbf684	-0.107403785
160	0xbdef0410	-0.11670697
161	0xbd9ccaa5	-0.07655839
162	0xbd4e0301	-0.050295833
163	0x3df974bd	0.12180469
164	0x3d292a9b	0.041300397
165	0xbd0dfeea	-0.034666933
166	0xbce8dc1f	-0.028425274
167	0xbd8e7c4a	-0.069573
168	0x3d543a90	0.051813662
169	0x3d593978	0.053033322
170	0x3de2a8b0	0.11067331
171	0xbdf9e729	-0.122022934
172	0xbc273d3f	-0.010207473
173	0x3ddcca83	0.107808135
174	0x3dcc9c9b	0.099908076
175	0x3d89512d	0.06704936
176	0xbc73e025	-0.014884983
177	0xbc7c72c1	-0.015408219
178	0x3def9c4a	0.11699732
179	0xbd651c73	-0.055935334
180	0xb91a8ef5	-0.0001473984
181	0xbdd7455e	-0.105112776
182	0x3d6e2cf1	0.05814833
183	0x3de3fbc0	0.11132002
184	0x3d2a005a	0.04150424
185	0x3d6877a7	0.056754734
186	0x3d2901d5	0.041261513
187	0xbdef665d	-0.11689446
188	0xbb075b4f	-0.002065379
189	0x3cefc655	0.029269377
190	0x3d037db0	0.032102287
191	0x3d86ea4d	0.06587658

up2.up_conv.0.weight f4 [64, 32, 3]
0	0xbd00c305	-0.031435985
1	0xbdacbf6d	-0.08434949
2	0xbc91a286	-0.017777693
3	0x3bc5741b	0.0060258037
4	0xbd7f0e51	-0.062269513
5	0x3ce3c1c2	0.027802352
6	0x3b8b0324	0.0042423178
7	0xbc697c88	-0.014250882
8	0xbbb69da3	-0.005572991
9	0xbd14b354	-0.036303833
10	0xbd9c65bf	-0.07636594
11	0x3cc93b74	0.024564482
12	0x3db9cbbd	0.09072063
13	0xbcff5422	-0.031168047
14	0xbde7abb8	-0.113120496
15	0x3d05404a	0.032532014
16	0xbdd814c7	-0.10550838
17	0x3cf3d2f2	0.029763673
18	0x3c566552	0.01308568
19	0x3d4a8ed0	0.049452603
20	0xbd8ab6c9	-0.06773145
21	0x3c8fc824	0.01755149
22	0xbc240193	-0.010010141
23	0x3c8e203d	0.017349357
24	0xbda3de7a	-0.080014184
25	0xbd6a87fb	-0.057258587
26	0x3c63a1c5	0.013893549
27	0x3d507d37	0.050900664
28	0xbd6c8265	-0.05774154
29	0x3d9a1e4d	0.07525311
30	0xbe05105d	-0.12994523
31	0x3d9c89fb	0.07643505
32	0xbb19620c	-0.0023404388
33	0x3d0fe830	0.03513354
34	0x3d685e73	0.0567307
35	0xbd1cf787	-0.038321998
36	0xbcb519db	-0.022107055
37	0xbd479610	-0.048727095
38	0xbb9c7ee9	-0.004775871
39	0xbd64ac9f	-0.055828687
40	0x3c5cbe62	0.013473125
41	0x3cfd2790	0.030902654
42	0x3d97cf36	0.07412569
43	0x3b496b99	0.00307343
44	0x3d2f43f2	0.042789407
45	0xbd77f435	-0.06053563
46	0x3d5e4a25	0.05426993
47	0xbbcc0c97	-0.0062270868
48	0xbd787663	-0.060659777
49	0x3d303d7e	0.043027394
50	0xbc1e6123	-0.009666714
51	0xbe0c0fcc	-0.13677901
52	0x3cd4ad1b	0.02596145
53	0x3cdd7161	0.027031602
54	0xbdcdd532	-0.100504294
55	0xbc9493b4	-0.018136837
56	0x3d26bc70	0.04070705
57	0xbad67951	-0.0016363059
58	0x3da6df2c	0.081480354
59	0xbdb925a8	-0.090403855
60	0x3c739803	0.014867785
61	0xbd8236bb	-0.06358095
62	0x3d67636d	0.056491304
63	0x3c8224d3	0.0158867
64	0x3dbcfc47	0.092278056
65	0x3db83b43	0.08995678
66	0xbb692c13	-0.0035579249
67	0x3d04069b	0.032232862
68	0x3d7de06e	0.06198161
69	0x3ce9003a	0.02844249
70	0x3d002891	0.031288687
71	0xbde3840c	-0.1110917
72	0xbd837b25	-0.06419972
73	0xbc927685	-0.01787878
74	0xbcd96dd0	-0.02654162
75	0xbd28a018	-0.041168302
76	0xbd8ff3db	-0.070289336
77	0xbcfc1359	-0.030770944
78	0x3d17aa30	0.037027538
79	0x3dc67d65	0.09691886
80	0x3d639729	0.05556408
81	0xbcc688af	-0.024235098
82	0xbd151322	-0.0363952
83	0x3d3474c2	0.04405666
84	0x3ce2ec80	0.027700663
85	0x3d29eb70	0.041484296
86	0xbdc993e7	-0.09842663
87	0x3b88f799	0.0041799066
88	0x3d7072c2	0.05870319
89	0x3d39dd6c	0.04537718
90	0x3db74bff	0.08950042
91	0xbdd85e8d	-0.10564909
92	0x3cc947c9	0.024570363
93	0x3d2439ff	0.040094372
94	0x3dbadd7a	0.091242746
95	0xbc7f54a5	-0.015584146
96	0xbd2dd953	-0.042443585
97	0xbd965361	-0.07340122
98	0x3db6af52	0.089201584
99	0xbcae5b5b	-0.021283796
100	0x3d8d0f9e	0.06887744
101	0xbd8dddc6	-0.069270656
102	0x3d9db3a7	0.077002816
103	0x3c8a011f	0.016846238
104	0xbd696fc3	-0.05699135
105	0x3d772ff6	0.060348473
106	0xbd993db1	-0.0748247
107	0x3dba2121	0.0908835
108	0x3d2f406f	0.042786058
109	0x3c1ac609	0.009446629
110	0x3dc0ee39	0.09420437
111	0xbd033702	-0.03203488
112	0x3d674345	0.056460638
113	0x3bd7dff3	0.006587976
114	0x3db05e20	0.08611703
115	0xbdceae3f	-0.100918286
116	0xbc85db76	-0.016339999
117	0x3d0d43c6	0.034488462
118	0x3da6e3c5	0.08148912
119	0xbd93e4ee	-0.07221399
120	0xbda7f33e	-0.08200692
121	0xbcad0bf4	-0.021123864
122	0x3d6cac01	0.057781223
123	0xbd437d5c	-0.047726974
124	0xbd3e0a78	-0.046396703
125	0xbdd85685	-0.10563377
126	0x3c9781c8	0.018494502
127	0xbcda0b2c	-0.026616655
128	0xbdc42559	-0.09577436
129	0x3d1d53b0	0.03840989
130	0x3d264096	0.040588938
131	0xbd4e9fa4	-0.050445214
132	0xbdc72fa8	-0.097258866
133	0x3dac8d49	0.084253855
134	0x3d6f66e0	0.05844772
135	0x3db6b514	0.08921257
136	0xbc64b806	-0.01395989
137	0x3d9b80a8	0.075928986
138	0x3c3b4dac	0.011432093
139	0x3d89a02d	0.06720004
140	0x3c98d12d	0.01865443
141	0xbdf82d70	-0.121180415
142	0xbba2a8e0	-0.004963979
143	0x3c54d870	0.012991056
144	0xbcc8bde5	-0.024504611
145	0x3d94dedd	0.0726907
146	0x3d5f7ccc	0.054562375
147	0xbdd3eaa6	-0.1034749
148	0x3bcc2ea8	0.006231148
149	0xbd108b91	-0.03528935
150	0xbdcc5cea	-0.099786595
151	0x3dbe772e	0.093000755
152	0x3dc890a4	0.09793213
153	0x3d6d093b	0.05787013
154	0xbc894b23	-0.01675946
155	0x3d2bcc5a	0.04194293
156	0xbde6e703	-0.11274531
157	0xbdddff11	-0.10839666
158	0xbbbc383f	-0.0057440097
159	0xbd66c898	-0.056343645
160	0x3b4d3610	0.0031312741
161	0xbdac5ebb	-0.08416506
162	0x3d5aae61	0.053388957
163	0xbcd2332b	-0.025659164
164	0xbd28096e	-0.041024618
165	0xbd58d9a7	-0.052941944
166	0xbd861a9b	-0.06548043
167	0xbd4784b1	-0.04871053
168	0x3c0391fe	0.008030413
169	0x3da3a74f	0.07990896
170	0x3bbd9b7e	0.0057863584
171	0xbd4f573a	-0.050620295
172	0x3d267312	0.040637083
173	0xbd322a82	-0.04349757
174	0x3db4f11a	0.08835049
175	0xbd979f3c	-0.074034184
176	0xbdcb1b93	-0.09917369
177	0x3d6aa1bc	0.05728315
178	0xbdb90abf	-0.09035253
179	0xbda8a2f1	-0.082342036
180	0x3d1a5434	0.03767796
181	0xbd3f6e62	-0.04673613
182	0x3d070981	0.032968048
183	0x3dd18be3	0.102317594
184	0xbc0840f8	-0.008316271
185	0x3dadd8f1	0.08488644
186	0x3ce34943	0.027744895
187	0xbd4f90c3	-0.050675165
188	0x3d87dbe3	0.06633737
189	0x3d2ec592	0.042668886
190	0xbd3cb185	-0.046067733
191	0xbd782eb1	-0.060591403
192	0xbd29a8da	-0.041420795
193	0x3d2d12b1	0.042254154
194	0xbd47d87f	-0.04879045
195	0x3d53e2d3	0.05172999
196	0xbd277931	-0.04088706
197	0xbc706e7e	-0.014674781
198	0x3d2417dd	0.04006182
199	0xbd5cc093	-0.05389459
200	0x3cad8f5d	0.021186525
201	0x3d4a9002	0.049453743
202	0xbb52687c	-0.0032105735
203	0xbc29a6a3	-0.010354671
204	0x3dc9ed4c	0.09859714
205	0x3d57438c	0.052554652
206	0x3d8ee070	0.06976402
207	0xbd1e1c21	-0.038601045
208	0xbd6e1824	-0.05812849
209	0x3ca0ac25	0.019613335
210	0xbb6a77e1	-0.003577702
211	0xbd7e0fdd	-0.062026847
212	0x3c00f75a	0.007871473
213	0xbd43b04f	-0.047775563
214	0x3d628fb6	0.055312835
215	0x3d65798c	0.05602412
216	0xbd9a1a4a	-0.075245455
217	0x3cf14c69	0.02945538
218	0x3da7149b	0.08158227
219	0xbc9e5864	-0.019329257
220	0xbd4da829	-0.0502092
221	0xbdc0b0f8	-0.09408754
222	0xbc310304	-0.010803942
223	0xbda02883	-0.07820227
224	0xbc9de7b7	-0.01927553
225	0xbc1004a9	-0.008790174
226	0x3d57de07	0.052701976
227	0xbcd58d83	-0.026068455
228	0xbcc15521	-0.023600163
229	0x3c259410	0.010106102
230	0xbd8dde09	-0.069271155
231	0xbd031815	-0.03200539
232	0xbb94c4f8	-0.004540082
233	0xbd71a83d	-0.058998335
234	0xbd812324	-0.06305531
235	0xbd610c3e	-0.054943316
236	0xbd218c15	-0.039440233
237	0x3d7a41cb	0.0610979
238	0xbc6e0fa4	-0.014530096
239	0x3de5d565	0.112223424
240	0xbda82ba8	-0.08211452
241	0x3dfcaded	0.12337861
242	0xbcc2285c	-0.023700885
243	0xbc3b77d8	-0.011442147
244	0x3c90764c	0.017634533
245	0xbb80870a	-0.003922348
246	0x3cc7a6dd	0.024371559
247	0x3ca587dc	0.020206384
248	0x3a2d3ed8	0.0006608791
249	0xbdc432ca	-0.0958
250	0xbc6561cb	-0.014000366
251	0x3c2b84f4	0.01046871
252	0x3d50f4f9	0.051014874
253	0x3d6a49b7	0.057199206
254	0xbd0b5dde	-0.034025066
255	0xbd9a1093	-0.075226925

up2.up_conv.0.bias f4 [32]
0	0x3d15a9fe	0.03653907
1	0x3c40021a	0.011719251
2	0xbc12b940	-0.0089553
3	0x3d9b3245	0.075779475
4	0xbced0c3a	-0.028936494
5	0xbcb010f4	-0.021492459
6	0xbd5ea091	-0.054352347
7	0x3d967709	0.07346923
8	0x3ce4d645	0.027934203
9	0xbba15660	-0.004923627
10	0x3d8cb7b2	0.068709746
11	0x3b976dbf	0.004621237
12	0xbd9aa872	-0.0755166
13	0xbd2b365b	-0.041799884
14	0x3d11681b	0.035499673
15	0xbd3baa93	-0.04581697
16	0x3d48daa5	0.04903664
17	0xbd8039d9	-0.062610336
18	0xbd1ee42b	-0.038791817
19	0x3b4e1ef5	0.0031451557
20	0xbd99cac4	-0.075093776
21	0x3d677c4a	0.056515016
22	0xbc1cff0d	-0.009582293
23	0x3d89aff5	0.06723014
24	0xbcd442d6	-0.025910776
25	0xbce847b8	-0.02835451
26	0xbd57cee3	-0.052687537
27	0xbb0bd27e	-0.002133518
28	0xbcf8bf91	-0.030364783
29	0xbdb3abf5	-0.087730326
30	0x3d3be328	0.04587093
31	0xbdb903dd	-0.0903394

up2.up_conv.1.weight f4 [32]
0	0x3f81a558	1.0128584
1	0x3f76a894	0.9635098
2	0x3f8171ce	1.0112855
3	0x3f800ced	1.0003945
4	0x3f80b33a	1.0054696
5	0x3f7e59b2	0.99355614
6	0x3f7eae71	0.99484926
7	0x3f7e0994	0.99233365
8	0x3f80f128	1.0073595
9	0x3f7f13ab	0.99639386
10	0x3f8269cb	1.0188535
11	0x3f80d99f	1.0066413
12	0x3f801e10	1.0009174
13	0x3f844570	1.0333691
14	0x3f809917	1.0046719
15	0x3f7f047c	0.9961622
16	0x3f7e0ae5	0.99235374
17	0x3f7ba9e2	0.98306096
18	0x3f76f66c	0.9646976
19	0x3f82f3aa	1.023061
20	0x3f807aea	1.003751
21	0x3f805b5c	1.0027881
22	0x3f7ffc66	0.99994504
23	0x3f801865	1.0007445
24	0x3f7eb971	0.9950171
25	0x3f7ef73c	0.99596
26	0x3f8079c6	1.0037162
27	0x3f7e4fa7	0.9934029
28	0x3f8184d9	1.0118667
29	0x3f7f5433	0.9973785
30	0x3f816dc2	1.011162
31	0x3f8232e3	1.0171779

up2.up_conv.1.bias f4 [32]
0	0x3c102a31	0.008799122
1	0x3c6c9cb1	0.014441655
2	0xbc2b13fa	-0.0104417745
3	0x3b8d612f	0.0043145637
4	0x3ca0458a	0.019564409
5	0x3c8ac60b	0.016940137
6	0x3c67a888	0.014139302
7	0x3b51d71d	0.0032019087
8	0x3c2dae6c	0.010600667
9	0xbc3e2596	-0.011605641
10	0x3cbf633c	0.023362748
11	0x3b6cab6f	0.0036112925
12	0xbc0bc342	-0.00853044
13	0x3cfecd38	0.031103715
14	0x3d1a0f08	0.03761199
15	0x3d178422	0.036991246
16	0x3c87ee2f	0.016593067
17	0xbc46cc90	-0.012133732
18	0xbcaa4cf3	-0.020788645
19	0x3c90ac63	0.017660325
20	0x3c62dc70	0.013846502
21	0x3cbd86b6	0.023135524
22	0x3b8815ed	0.0041530044
23	0x3b388b9d	0.0028159388
24	0x3bbf703e	0.0058422377
25	0xba8c7f9b	-0.0010719182
26	0x3cc3ab5f	0.023885427
27	0xbb9efa9b	-0.004851652
28	0xba9ea42e	-0.0012103373
29	0x3bbdaab5	0.005788172
30	0x3cc3ec2a	0.023916323
31	0x3b995002	0.004678727

up2.up_conv.1.running_mean f4 [32]
0	0x3e107261	0.14106132
1	0x3d46bb52	0.048518486
2	0xbc70fd3d	-0.014708814
3	0x3de686ed	0.11256204
4	0xbe9c4e95	-0.30528703
5	0xbec5a21d	-0.38600245
6	0xbca9d739	-0.020732509
7	0xbd77d92e	-0.060509853
8	0xbdad53b9	-0.084632345
9	0xbada15b7	-0.0016638552
10	0xbc2b4e81	-0.0104557285
11	0xbcfe9441	-0.031076552
12	0xbdd8fab2	-0.10594691
13	0x3ca232e3	0.019799655
14	0x3d53d603	0.05171777
15	0x3d7786a6	0.060431145
16	0x3e19efe7	0.15032922
17	0xbd12db7b	-0.035853844
18	0xbe2d7a71	-0.16941239
19	0x3dededc0	0.11617613
20	0x3d6003df	0.05469119
21	0x3db37431	0.08762396
22	0xbcd4c127	-0.025971008
23	0x3df42412	0.11920942
24	0xbcd11225	-0.025521347
25	0xbe824c38	-0.25448775
26	0xbddddc77	-0.10833066
27	0xbcd0592b	-0.025433144
28	0x3c212936	0.009836486
29	0xbea1b636	-0.31584328
30	0xbc51ea4d	-0.012812209
31	0xbe2eb122	-0.17059758

up2.up_conv.1.running_var f4 [32]
0	0x3d449a5d	0.047998775
1	0x3c54dd7f	0.012992262
2	0x3cff983b	0.031200519
3	0x3e029dc8	0.12755501
4	0x3d0a7d59	0.033810947
5	0x3d10a983	0.03531791
6	0x3c377145	0.011196439
7	0x3d238629	0.039922867
8	0x3d497473	0.04918332
9	0x3d019daa	0.0316445
10	0x3d10e65f	0.03537595
11	0x3d026b64	0.031840697
12	0x3db3928f	0.08768188
13	0x3d594f46	0.053054117
14	0x3d7e4b21	0.062083367
15	0x3bdb772f	0.0066975574
16	0x3dcfb51f	0.10141968
17	0x3d917873	0.07103052
18	0x3dd69e3e	0.10479401
19	0x3d02284f	0.031776723
20	0x3cbc205b	0.022964647
21	0x3d84fcf3	0.06493559
22	0x3d682521	0.056676034
23	0x3db23857	0.08702152
24	0x3c905520	0.017618716
25	0x3d27ef80	0.04099989
26	0x3d9b6e56	0.07589404
27	0x3d1bc400	0.038028717
28	0x3d56fe91	0.052488867
29	0x3e021b30	0.12705684
30	0x3cf3ba9c	0.029752068
31	0x3d5cb32c	0.05388181

up3.up_conv.0.weight f4 [32, 16, 3]
0	0x3deb999e	0.115039095
1	0xbe049d6a	-0.12950674
2	0x3e161376	0.14655861
3	0xbe1fc581	-0.15602686
4	0xbdc2ad1e	-0.09505676
5	0xbd170300	-0.036868095
6	0x3dc1c235	0.0946087
7	0x3daef4ea	0.085428074
8	0x3d2ab6f7	0.041678395
9	0x3deac06f	0.11462485
10	0xbd4c1f12	-0.04983432
11	0x3c871be1	0.016492786
12	0x3df2e58d	0.118601896
13	0x3d53944f	0.05165511
14	0x3dd64548	0.10462433
15	0xbe1b9245	-0.15192516
16	0x3e0e91ec	0.13922852
17	0x3c812181	0.015763046
18	0xbd163439	-0.036670897
19	0x3b6db6e1	0.0036272334
20	0x3df1caf3	0.118062876
21	0xbc858bc1	-0.016301991
22	0xbdccf499	-0.10007591
23	0xbccb3c0d	-0.024808908
24	0xbdf2eb1d	-0.118612505
25	0xbe22d3a5	-0.15901048
26	0x3d89a1c3	0.06720307
27	0xbe0b7ff5	-0.1362303
28	0x3d0b38c2	0.033989675
29	0x3dba115d	0.09085343
30	0x3d82650d	0.0636693
31	0x3ae344e0	0.0017339252
32	0xbda606ef	-0.08106791
33	0x3e0f584d	0.13998528
34	0xbe0d8021	-0.13818409
35	0xbd3d064e	-0.04614859
36	0x3df7353f	0.12070703
37	0x3d552114	0.0520335
38	0x3decb769	0.1155842
39	0xbde1dc2e	-0.11028324
40	0x3e0720bf	0.13196085
41	0xbdf4555b	-0.11930343
42	0x3c6acf8d	0.0143317105
43	0xbdc94105	-0.098268546
44	0xbd633efd	-0.055479992
45	0x3d931568	0.07181817
46	0x3e188bfe	0.14897153
47	0x3c97181a	0.01844411
48	0xbc1cd9ef	-0.009573444
49	0x3d7493fa	0.059711434
50	0xbe2400c0	-0.16015911
51	0xbe029d7f	-0.12755392
52	0xbd4c43da	-0.049869396
53	0x3da25ace	0.07927476
54	0xbd23d562	-0.03999842
55	0x3d67ec1d	0.05662166
56	0xbdd7f4f6	-0.105447695
57	0xbddafad5	-0.10692374
58	0x3e033684	0.12813765
59	0xbd030ec5	-0.031996507
60	0xbdb1efbc	-0.08688304
61	0x3d87e833	0.06636085
62	0xbd48fc86	-0.04906895
63	0xbe09913c	-0.13434309
64	0x3dbc044f	0.09180509
65	0x3d88e167	0.06683617
66	0xbd92d037	-0.0716862
67	0x3deb5411	0.11490644
68	0xbd201f28	-0.039092213
69	0x3dc3c03a	0.09558149
70	0x3dda2a0e	0.106525525
71	0x3e2ad732	0.16683653
72	0xbd870e4d	-0.065945245
73	0x3d1b5698	0.03792438
74	0x3d7e9c27	0.062160637
75	0x3dd05268	0.10171968
76	0xbd4cfb27	-0.050044205
77	0xbd995f05	-0.07488827
78	0xbc91aa33	-0.017781353
79	0xbcc4ab3e	-0.024007436
80	0xbd8f0263	-0.06982877
81	0x3ce2267f	0.027606247
82	0x3c782c2e	0.015147252
83	0xbd0f2997	-0.034951773
84	0x3dfe9b44	0.12431958
85	0x3d70ad9e	0.058759324
86	0x3d172c40	0.036907434
87	0x3d97253f	0.07380151
88	0x3bde629d	0.006786658
89	0xbd0ba907	-0.034096744
90	0x3c8d8255	0.017274061
91	0xbd0ecfb3	-0.034866046
92	0x3dd7a84a	0.105301455
93	0x3d9f43f7	0.07776635
94	0xbd77e1a3	-0.06051792
95	0x3cd35043	0.025795108
96	0xbc474e81	-0.012164713
97	0xbdb63df5	-0.08898536
98	0xbdc1f87d	-0.094712235
99	0xbe0c1674	-0.1368044
100	0xbd8c3e84	-0.068478614
101	0xbc5bb6ba	-0.013410265
102	0x3d4bf779	0.049796555
103	0xbc6db9a1	-0.014509589
104	0x3cd0cda8	0.02548869
105	0xbd83858c	-0.064219564
106	0xbc5d9252	-0.013523655
107	0xbdb561dd	-0.088565566
108	0xbba5a7c3	-0.005055399
109	0x3dca28ae	0.0987104
110	0xbdcb9ad6	-0.09941642
111	0xbccf2315	-0.025285283
112	0xbe1e828a	-0.15479484
113	0x3dba06cd	0.090833284
114	0xbd607ad6	-0.054804645
115	0xbdafee6b	-0.085903965
116	0xbd7d8be0	-0.061900973
117	0xbd9d7d29	-0.07689888
118	0x3d1195d6	0.035543285
119	0xbdbbb87b	-0.09166046
120	0xbc1e5d46	-0.009665793
121	0x3de41440	0.11136675
122	0x3d5535a7	0.05205312
123	0xbbc48559	-0.0059973416
124	0xbd307cd6	-0.043087803
125	0x3deafcd4	0.114740044
126	0x3d7e03b6	0.062015258
127	0x3de2a839	0.11067242
128	0xbd8b8832	-0.068130866
129	0xbd7835b2	-0.060598083
130	0xbd521aef	-0.051295217
131	0x3d92234e	0.0713564
132	0x3b150601	0.0022739174
133	0xbc6924e1	-0.014229984
134	0x3dc0102c	0.093780845
135	0xbd69c8c1	-0.05707622
136	0xbd5ec1c7	-0.05438402
137	0x3dd4848f	0.10376846
138	0x3ddbaf16	0.10726754
139	0xbd3ddc96	-0.046352945
140	0x3d8fcc0a	0.07021339
141	0x3c8101b8	0.01574789
142	0x3dd02f2e	0.10165249
143	0x3d794b38	0.06086275
144	0xbe03bdaa	-0.1286532
145	0x3dfed559	0.124430366
146	0x3d8fccc0	0.07021475
147	0x3d821b02	0.063528076
148	0x3da46bf9	0.08028407
149	0x3d6d0987	0.057870414
150	0xbe1f7b33	-0.1557434
151	0xbda4c4c8	-0.080453455
152	0x3dded30c	0.10880098
153	0xbdb8f5bd	-0.09031246
154	0xbdb5aed7	-0.08871239
155	0xbdbcda4c	-0.09221324
156	0x3db4ec41	0.08834124
157	0xbd968dc1	-0.07351256
158	0x3d40dd04	0.047085777
159	0x3d99abd9	0.075034805
160	0xbdeed7ee	-0.11662279
161	0xbddef050	-0.1088568
162	0x3a493c41	0.000767652
163	0xbded5620	-0.11588693
164	0xbccbfc9f	-0.024900733
165	0xbda886b0	-0.082288146
166	0x3dc3e0e6	0.0956438
167	0x3cbebe26	0.02328403
168	0x3dd6c203	0.104862235
169	0xbe214da4	-0.15752274
170	0x3d3ee869	0.046608362
171	0xbdbef765	-0.093245305
172	0xbddb1c10	-0.10698712
173	0x3d6383a3	0.05554546
174	0xbd38f030	-0.045150936
175	0x3d0a2e1a	0.033735372
176	0xbc8acc12	-0.016943011
177	0xbd72560a	-0.059164084
178	0xbe2e084a	-0.1699535
179	0xbd9adf04	-0.07562068
180	0xbd3dffcc	-0.046386525
181	0x3d085a44	0.03328921
182	0xbc17d93c	-0.009268101
183	0xbc1bbbc9	-0.009505221
184	0x3defb285	0.11703972
185	0x3e0279fa	0.12741843
186	0x3dc40d54	0.09572855
187	0x3da9b042	0.08285572
188	0xbdafd729	-0.085859604
189	0xbb3af91d	-0.002852983
190	0x3d05b306	0.032641433
191	0xbdf19fce	-0.117980585
192	0x3c40bcbf	0.011763751
193	0x3d399bfc	0.045314774
194	0xbdf9ea7f	-0.1220293
195	0x3d33e49b	0.043919187
196	0xbdc836d0	-0.0977608
197	0x3da33255	0.079685844
198	0x3e26746d	0.1625535
199	0x36e8d448	6.9388516e-06
200	0xbe18e550	-0.14931226
201	0x3ce0635a	0.027391125
202	0x3d8754c7	0.06607967
203	0xbe1a069d	-0.15041585
204	0xbdc86aad	-0.09785972
205	0x3d3f39cd	0.046685982
206	0xbd485221	-0.04890645
207	0x3d73ed94	0.059552744
208	0xbd150936	-0.036385737
209	0xbdabc20a	-0.083866194
210	0xbdb6dc37	-0.089287214
211	0xbdb722f2	-0.08942212
212	0x3dffdb42	0.12492992
213	0x3e0628b5	0.13101466
214	0xbd4eb66e	-0.050466947
215	0x3d801b1a	0.06255169
216	0x3cb8a03f	0.022537349
217	0x3def00f9	0.116701074
218	0x3c35d83d	0.0110989185
219	0x3de27fbc	0.1105952
220	0xbe0041da	-0.1252512
221	0x3d2723d2	0.040805645
222	0x3dc6fad4	0.097158104
223	0x3e30aa7e	0.17252538
224	0x3dfbf76d	0.12303052
225	0xbd9f6dda	-0.077846244
226	0x3e19c344	0.15015894
227	0xbce34401	-0.027742388
228	0xbc54a04d	-0.012977672
229	0x3d8ac279	0.06775374
230	0x3d68876d	0.056769777
231	0x3daaec54	0.08345857
232	0xbdb25615	-0.08707825
233	0x3dc04cdd	0.093896605
234	0x3d342284	0.04397823
235	0xbcf3ce26	-0.029761385
236	0x3db124c4	0.086495906
237	0xbd6f6f0f	-0.058455523
238	0x3d7fe0f0	0.062470376
239	0xbc888efc	-0.016669743
240	0x3d91f107	0.071260504
241	0x3c1a8248	0.0094304755
242	0x3b6a7ab0	0.0035778694
243	0xbdae952b	-0.08524545
244	0x3d2bbeae	0.041929893
245	0x3e0fab8f	0.14030288
246	0xbe02c2e5	-0.12769659
247	0x3d56a246	0.05240085
248	0xbe1c94c8	-0.1529113
249	0x3dc6f498	0.09714621
250	0xbe2ba7a7	-0.16763173
251	0xbda61262	-0.08108975
252	0xbc9f98f3	-0.019482112
253	0xbccdad42	-0.02510703
254	0x3d9b65ce	0.07587777
255	0x3da164d1	0.07880557

up3.up_conv.0.bias f4 [16]
0	0x3de5d132	0.112215415
1	0xbc3506ad	-0.011048955
2	0xbd29bbeb	-0.04143898
3	0x3b4a1116	0.0030832938
4	0xbdcfaee4	-0.101407796
5	0xbd0bd595	-0.034139235
6	0x3c864e83	0.01639486
7	0x3d9d9235	0.076939024
8	0xbe36facc	-0.17869109
9	0x3cb52abf	0.02211511
10	0xbe3846bf	-0.17995737
11	0xbd0150c6	-0.031571172
12	0xbd4becc6	-0.04978635
13	0xbe045919	-0.12924613
14	0x3c17f6c7	0.009275145
15	0xbda16ab5	-0.07881681

up3.up_conv.1.weight f4 [16]
0	0x3f885bc5	1.0653006
1	0x3f8aa546	1.0831687
2	0x3f7ee5c0	0.9956932
3	0x3f85a13a	1.0439827
4	0x3f88d326	1.0689437
5	0x3f89a15f	1.0752372
6	0x3f895dff	1.073181
7	0x3f88a44d	1.0675141
8	0x3f89a66c	1.0753913
9	0x3f88b000	1.0678711
10	0x3f894de1	1.0726892
11	0x3f88544b	1.0650724
12	0x3f7d7cf7	0.99018806
13	0x3f896984	1.0735326
14	0x3f826ae9	1.0188876
15	0x3f7fa7cc	0.9986541

up3.up_conv.1.bias f4 [16]
0	0x3d83565c	0.06412956
1	0x3da52e7b	0.08065506
2	0xbd4d9332	-0.050189205
3	0x3d484b89	0.04890016
4	0x3d79d85a	0.060997345
5	0x3d972061	0.07379223
6	0x3d8820de	0.06646894
7	0x3d9fa7aa	0.07795651
8	0x3d911c43	0.070854686
9	0x3d902016	0.0703737
10	0x3d994243	0.074833415
11	0x3d88803a	0.06665082
12	0xbd3e3c82	-0.046444423
13	0x3d87c4cc	0.06629333
14	0x3c8b5848	0.01700987
15	0xbc8c0c75	-0.017095784

up3.up_conv.1.running_mean f4 [16]
0	0x3e31c4a2	0.17360166
1	0xbe272aa6	-0.16324863
2	0xbe509a35	-0.20371325
3	0x3db47bcb	0.08812674
4	0x3da995b8	0.0828051
5	0xbeb41a7d	-0.3517646
6	0xbe3d6344	-0.18494898
7	0x3e8e2628	0.27763486
8	0xbe8c86db	-0.27446637
9	0xbdbf3501	-0.093362816
10	0x3d08b0fc	0.03337191
11	0x3cf4812d	0.029846752
12	0x3da06e99	0.07833595
13	0xbe037335	-0.12836917
14	0x3e351142	0.17682365
15	0x3c286809	0.01027871

up3.up_conv.1.running_var f4 [16]
0	0x3e011dca	0.1260902
1	0x3e4c96f6	0.19979462
2	0x3cd02723	0.025409287
3	0x3dc4f495	0.09616963
4	0x3dbeacf3	0.09310331
5	0x3de08128	0.109621346
6	0x3e1daab8	0.15397155
7	0x3da1bbcc	0.078971475
8	0x3e8135ad	0.25236264
9	0x3e8d4cae	0.27597564
10	0x3dcea86f	0.1009072
11	0x3e29ca40	0.16581059
12	0x3dababdc	0.08382389
13	0x3e1cea53	0.15323763
14	0x3e1b87bb	0.15188496
15	0x3db7ee5a	0.08981009

out.outconv.0.weight f4 [1, 16, 3]
0	0x3d96348c	0.07334241
1	0x3e2486fc	0.16067117
2	0x3e2837ff	0.16427611
3	0x3c335529	0.010945597
4	0x3d3002b2	0.04297132
5	0x3e255343	0.16145043
6	0xbd879532	-0.066202536
7	0xbdc91ff0	-0.09820545
8	0x3c5db732	0.013532447
9	0x3e0c0c50	0.13676572
10	0xbdabae33	-0.08382835
11	0x3d9252c6	0.07144694
12	0x3dcfbb53	0.10143151
13	0xbd0f57d3	-0.034995865
14	0x3dba3829	0.09092743
15	0x3e484c3f	0.19560336
16	0x3c5cc51e	0.013474731
17	0x3d238d76	0.03992983
18	0x3d32bfa0	0.04363978
19	0x3e27756e	0.1635339
20	0x3dc9bf91	0.098509915
21	0xbd8aad4c	-0.06771335
22	0x3e35769f	0.17721032
23	0x3d4f943c	0.050678477
24	0x3e2c7c35	0.16844256
25	0xbd5bc2fa	-0.05365274
26	0x3e1eb2b1	0.15497853
27	0x3e239eb0	0.15978503
28	0xbd082ab9	-0.03324387
29	0x3e505f78	0.20348918
30	0x3e331677	0.17489038
31	0x3d6c1c4c	0.057644174
32	0xbc2aecbb	-0.0104324175
33	0x3e514500	0.20436478
34	0x3dd902e5	0.10596255
35	0x3d25bc72	0.04046292
36	0xbd04db6a	-0.032435812
37	0xbd5a8c70	-0.053356588
38	0x3d50f85c	0.051018104
39	0x3e2ae7e3	0.1669002
40	0x3de67a16	0.11253755
41	0x3d81e176	0.063418314
42	0x3df05de9	0.11736662
43	0xbdb8291a	-0.089922145
44	0x3d76d8e6	0.060265444
45	0x3aa951e6	0.0012918084
46	0x3df9138d	0.12161932
47	0xbd8ea0ff	-0.06964301
