CNN+RNN/best_model_net2.pth (torch, 137202 bytes, 17 tensors)

up1.rnn.weight_ih_l0 f4 [192, 64]
00000000: 4a42 943d 50ee 94bd 92a3 12be b9c0 8c3c
00000010: 000a fc3c 48e4 4ebc a092 d93d 1f2b ef3d
00000020: 7fab 0b3b 4049 0b3e d28c 0a3e 796a b5bc
00000030: 68cf 73bc b5de f2bd 368a 643e 79ab e53d
00000040: e575 0fbe 964d 303e a3e4 eb3d 5d38 fe3d
00000050: bc30 98bd b43e d03d a3f4 c33d f14f 2ebe
00000060: 818d 85bd 439d cebd 758e ba3d 713d 1b3e
00000070: 7347 e83d 9617 173e a676 70bc a0fd babd
00000080: 4bf1 dcbc c31b a23d 7c25 1a3d 7cdb 033e
00000090: 630b 933d 82cc 1ebe 318f b43d cd86 1c3e
000000a0: 07c7 86bc bf04 683c d926 543e bf9f 5e3d
000000b0: b2f9 183e 3aa9 5fbd 8bc4 a7bd 3891 b83d
000000c0: 2b15 b73c 269d 2f3e 628d 80bd 68c9 ad3c
000000d0: 0da1 27bd 9ac8 1e3e bc4c 85bb aa76 1e3e
000000e0: e14c 0e3d 5d8f c7bd 6f89 213e 9878 1e3e
000000f0: 2a06 21bc a386 aabd 335b 2c3e feb0 783c
00000100: 6800 3ebd 5529 313d 5de1 26be ec24 6e3d
00000110: c79a 90bd 8e24 fa3b dfcb f63d 869c 043e
00000120: 17ef bbbd 1c4d 013e 83b4 a1bd 9ac5 a5bd
00000130: 8f41 24bd c10c 2dbe 66b5 28bd a5c4 683d
00000140: 33a6 39be 0d8e ec3d b3c3 003e 4305 263e
00000150: 3c9f b2bd 6732 9dbd 92ea 0c3e 135c ccbd
00000160: c715 443e 7966 8a3d 9783 1b3c dcb6 da3d
00000170: 7973 80bd 3458 0e3d 3545 1d3e cc84 38bd
00000180: 5857 adbd 5245 173e abfe 3a3d 8f7b de3d
00000190: a3ae 083e 1ce6 b2bd 6c6c 4fbe d814 113e
000001a0: 22f2 cfbd b531 08be 26a4 7ebd e421 2c3d
000001b0: 4f3b 013e 880d c9bd 5025 adbd 47c0 a5bd
000001c0: fc98 69bd ea1b 113e 5e7c 27be daaa f83d
000001d0: a793 51bc a83f eb3d 0513 30be cc87 003e
000001e0: 5e5d 4a3e 9bf9 10be 5c05 2e3d 2d7d 9f3c
000001f0: 966d db3d dba6 143b 163b 3f3d ae94 783d
00000200: 10e7 e9bb 46d1 373e 1ff6 903d 1436 483e
00000210: efec bcbd a3fe 3fbc 819a e63d 7c02 2d3e
00000220: c55c acbd a17e 4fbb 2360 703d 1731 9e3c
00000230: 80bd cb3c e44e fdbd 8951 0bbd 71cf 143d
00000240: bc89 b3bd aafc 843d 6baa 093e 55e6 213d
00000250: bf89 05be faa0 b73d fbde 373e d711 b03d
00000260: 7c96 923d 445d 3a3d 7728 083e a22d 0ebd
00000270: 4c5d 003e 1151 c1bc 32c6 213d b195 d7bc
00000280: 5864 97bd 6925 0d3d 7049 8a3b e0d1 40bd
00000290: 36ad 47bd fc92 0dbd 30b9 9e3c 32d4 ad3d
000002a0: 40c3 99bd 88f9 8abd 03c1 d93d 48f9 0dbd
000002b0: 3464 18bd 5366 acbd 77a1 2ebe 6778 38bd
000002c0: ca63 24be bd4b 623d 28dd d3bd 3bc1 37bd
000002d0: 0adb 213d 71d2 7c3d 9b0d 0e3c fa20 043d
000002e0: 00c7 c8bc c32e 6c3d b0fb 8f3d 0909 043e
000002f0: 8ae5 693e 8eef 39be 1820 cc3b 123a 743d
00000300: c938 673d 3d4e b03d c30d 79bd 1c24 673c
00000310: 37f6 c9bd b5b0 b2bd 0aa3 98bd 7cc1 153e
00000320: a100 043d b80e bfbd e7fc 47bc a6ae eebc
00000330: 0508 0e3e b9c8 b43d 860f e53d 6acd a83d
00000340: 393a 41bc 1e77 313d 3161 30bd 407b 49bd
00000350: 14e2 c8bd 1cd5 3c3d dd84 f93d a9cb be3d
00000360: 0a7a f13b fa8e 413d b22c d639 f295 683d
00000370: 3aa4 b83d e8ef da3d 5088 c6bd f57f 93bc
00000380: 2330 d13d 5c0e 5fbc 87c2 b1bc ed2e b13c
00000390: e7a5 0bbe 4ca5 083e 9e10 cfbd fcd5 203d
000003a0: 7b3d febc 3a7a 93bd a762 db3d 29bd 63bc
000003b0: a395 1bbc 1617 c4bd d6e2 383c b6f3 69bc
000003c0: 6ab7 f3bb f687 be3d 7807 313d 1059 b83b
000003d0: 239e 133d c85e c5bc 3b09 babc b52a c73d
000003e0: f555 3bbd 3b38 073e 37f7 a53c 45be a4bc
000003f0: 09a6 b13d 11d7 823d 9e25 44bd 19d9 8e3d
0.07239206 -0.07272017 -0.1432021 0.017181741 0.030766487 -0.012627669 0.106236696 0.116781466
0.0021311936 0.13602161 0.13530281 -0.022145497 -0.0148809925 -0.11858884 0.22318348 0.112143464
-0.14009817 0.17217097 0.11518218 0.12413094 -0.0743117 0.1016821 0.09568145 -0.17022683
-0.0652113 -0.10088589 0.09109203 0.15160157 0.11341753 0.14755091 -0.0146767255 -0.091304064
-0.026970526 0.079154514 0.037633404 0.12876695 0.07179906 -0.15507701 0.08816374 0.15285797
-0.016452326 0.014161288 0.20717944 0.054351564 0.14939001 -0.054604746 -0.081917845 0.09012073
0.02234896 0.17149791 -0.06276967 0.021214202 -0.040925074 0.15506211 -0.0040679853 0.15474954
0.034741286 -0.09744141 0.15775083 0.1547569 -0.00982813 -0.08326461 0.16831665 0.015178917
-0.046387106 0.043252308 -0.16296907 0.05814068 -0.070607714 0.007633752 0.12050604 0.12950334
-0.09176462 0.12627071 -0.07895758 -0.0809433 -0.040101584 -0.16899396 -0.04118862 0.05682816
-0.18129806 0.115505315 0.12574653 0.16212945 -0.08721778 -0.07675629 0.13761356 -0.09978499
0.19148932 0.06757826 0.009491823 0.10679409 -0.06272025 0.034752086 0.15358432 -0.04504852
-0.08463925 0.14772537 0.045653027 0.10863411 0.13347869 -0.08735296 -0.20256203 0.14168108
-0.10153605 -0.13300212 -0.062168263 0.042024508 0.1262028 -0.09817034 -0.084543824 -0.080933146
-0.057030663 0.14170805 -0.16356036 0.12141962 -0.012791551 0.11486751 -0.17194755 0.12551802
0.1976218 -0.14157717 0.04248558 0.019468868 0.10714261 0.0022682461 0.046687208 0.060688667
-0.0071381405 0.17950925 0.07078194 0.19551879 -0.09224879 -0.011718425 0.11259938 0.16895479
-0.08416132 -0.003166117 0.058685433 0.019310517 0.024870634 -0.12368563 -0.034013305 0.036330644
-0.08766505 0.06493504 0.13443916 0.039526302 -0.13040827 0.08966251 0.17956154 0.08597153
0.07157609 0.0454991 0.13296686 -0.034711488 0.1253559 -0.023598226 0.039495654 -0.026316496
-0.07392186 0.034459505 0.00422018 -0.047075152 -0.04874917 -0.034564003 0.019375414 0.08487739
-0.07507944 -0.067858756 0.10632517 -0.03466156 -0.037204936 -0.08417954 -0.17053781 -0.0450367
-0.16053692 0.05524801 -0.103449166 -0.044862013 0.039515533 0.06172413 0.008670236 0.03225801
-0.024508953 0.057661783 0.070304275 0.12894072 0.22841468 -0.18157789 0.006229412 0.059625693
0.05645064 0.08608673 -0.06080414 0.01410773 -0.09861415 -0.087251104 -0.07452972 0.1462459
0.032227162 -0.09328979 -0.012206293 -0.029136013 0.13870247 0.08827347 0.111846015 0.082423046
-0.0117936665 0.04332649 -0.04306144 -0.049189806 -0.09808746 0.046101674 0.12183545 0.09316189
0.0073692845 0.047255494 0.0004085056 0.056783624 0.09015699 0.1069029 -0.09693968 -0.01800535
0.102142595 -0.013614263 -0.021699203 0.021628821 -0.13637505 0.13344306 -0.10110591 0.03926657
-0.031035176 -0.07201047 0.10712176 -0.01390008 -0.009496125 -0.09574716 0.011284551 -0.014279297
-0.007437636 0.09303276 0.043220013 0.0056258515 0.036039483 -0.024093047 -0.02270948 0.097249426
-0.045736272 0.13205044 0.020259483 -0.020110259 0.08674247 0.06388677 -0.047887437 0.06975002

up1.rnn.weight_hh_l0 f4 [192, 64]
00000000: cb5b b13d 5e8b 003c 351f 90bd 7c79 96bc
00000010: 13ba 9f3d ce7b 623d 12d2 e63d 843c b13c
00000020: 5ba9 ccbc 8584 03be 07c5 d13c da42 24bd
00000030: 1a62 433d cb89 81bd 8da8 50b7 e811 09be
00000040: 3f81 fe3d 3c58 413a 2a64 863d 3d87 aebc
00000050: 954c 003d 6de0 393d 0b22 f43c b993 a4bd
00000060: 1ce5 0d3e 331b b93d ab8f b23d 3b46 8ebd
00000070: cd0b 293d 236f 88bd 9756 1f3e 7e61 8d3c
00000080: 8b01 bc3d bb49 4c3d 3260 a83d 7a1a 08be
00000090: 0231 013e fa5b f33d 7f6c 4ebd 95b5 193d
000000a0: b96b e1bd fb1e d9bc d8da 443d 2881 f2bd
000000b0: ecf2 84bb f5d5 90bd 4657 4a3c 6b26 aebb
000000c0: 1f19 0fbe ae4b 0f3e cad6 173d ec42 9fbd
000000d0: 6d8f 123d f8c3 d93d f993 063d 1721 bdbc
000000e0: 501b 933d 472f 953a 19ff 593d 22bb 983d
000000f0: 7db1 85bd a81d 9abd 0804 bfbb b97e d6bc
00000100: 28f1 503d b4e4 63bc 7b56 053d 5cfe afbd
00000110: d031 f53c 571e d7bd 4ab0 b13c 171a c4bd
00000120: d0e5 f9bd feda 96bd cdad 8a3d 8478 25bd
00000130: 81fa 7fbd 0f37 50bd 22ea ccbb faca 0ebd
00000140: e0ba f3bd fc28 a03d 691c 83bd 0303 2ebd
00000150: 9639 28bc e677 883d b7f5 6a3d c906 8dbc
00000160: 1758 293d f1c6 073d 29e5 51bd d069 bf3d
00000170: 0b00 78bc bc59 073d c7a2 05be 945c d2bd
00000180: e7f3 083d 8bbb 813d 5d5d 05bd c1bd 0b3d
00000190: fa39 09bd 8b3a 883d 421f db3d 2e63 c5bd
000001a0: 3153 5b3b b30c 9e3d ae60 e43d 428c 743d
000001b0: 5a32 40bd 5492 203c 29af 153d dee8 8cbc
000001c0: 2649 943d 4c19 ccbd cde4 233d 5b82 3ebd
000001d0: 3d9b dabb 9262 033c 9526 ad3d c1dc 37bd
000001e0: 14ca b13d 890e 0c3d 9c6d 2fbd cf9f c6bd
000001f0: dce2 b33d 186b 45bd f832 3bbd 9aa4 e63d
00000200: eee1 fc3c b27b b7ba c475 dc3d 7c07 08bd
00000210: af02 88bd cf98 aebc 6f27 ccbc 4d20 843d
00000220: 95e9 3f3c 2aad 39bd 38b1 f53c 3d3f 753d
00000230: 9906 ca3c 48ce 2cbc d3a5 17bd c56b 7d3c
00000240: 01fa 94bd 6f8c e7b8 4c6f 14bd cfc4 14bc
00000250: 87e7 ca3c 8e87 a6bd 7eb7 6d3d 0fc9 9d3d
00000260: edac a93c cdd9 64bd 8c51 e5bc 78b9 08bd
00000270: 2ad1 cf3c 6d8a e63c 1226 3ebd f4ee 463c
00000280: b102 8d3d f64c 9e3d a809 073d fadd 29bc
00000290: 7fe7 82bd 3e72 dbba 91ec 8ebd fe40 01bc
000002a0: ab48 19bc 638f 8d3d 4a27 8f3d d97a 10bc
000002b0: 5e7b adbd 425e 993d 4f82 153d 21ef 4cbc
000002c0: 7e22 58bd 0a98 25bd 3683 b93d dc3f 78bd
000002d0: 0768 0abd 5ce7 afbd aa27 b03d 6371 a6bc
000002e0: bc6b 883d 047d 67bd aade 38bd eafe 0abd
000002f0: 3943 45bd 25f0 febc 2f2c 79bd 7088 8bbd
00000300: f301 06be 61a8 03bd 4cd2 013e 6d6a 403d
00000310: 2d69 9d3d 4159 24bd 9c85 cebd ab5e cdbc
00000320: 520e c13c e7fc c3bd bd3d 87bc e4d6 90bd
00000330: 22ab 053d dcfc 363d d448 f9bd de47 c43c
00000340: d0e3 36bd 4c7a a5bd 0131 753d f7ab 88bd
00000350: 34df 8cbd 6ee5 29bc 1769 653d d90d 093e
00000360: 2ad8 533d 1851 77bc 939e f1bd 44be b9bd
00000370: 1d77 023e 956d 8abd 65da 6c3d 2a01 b13d
00000380: bfe8 dbbd 893a ccbd 6950 bebb d699 7c3d
00000390: 0918 9ebd 645b 8fbd 676d d1bd fbd0 6cbd
000003a0: e09b f33d a9ab 903d e7ce 8ebc 4a40 64bd
000003b0: cc20 4bbc 0226 83bd 050b fc3d 1e6e 9dbd
000003c0: 621d 0ebd 991a 24bb 541d 04be 4dbc 203c
000003d0: 3c2d 8ebd 0f74 c1bd d5f8 a5bd 8b6e 2ebd
000003e0: ec2a bb3d 6f7d bb3d b2ff 29bc 100a 52bd
000003f0: ec08 b3bc 8051 c13d 7a7c 133e 4eae 8d3d
0.08660086 0.007845728 -0.07037202 -0.018368475 0.07799163 0.05529385 0.112705365 0.021635301
-0.024983099 -0.12843521 0.025606645 -0.040102817 0.04770098 -0.0632511 -1.243701e-05 -0.13385737
0.124269955 0.00073755137 0.065620735 -0.021304721 0.031323034 0.045380045 0.02980139 -0.08035988
0.1385693 0.09038391 0.08718809 -0.06946989 0.04127102 -0.06661823 0.15560375 0.017258402
0.09179982 0.049875002 0.08221473 -0.1329135 0.12616351 0.118827775 -0.05039644 0.037526686
-0.110068746 -0.02650403 0.04806027 -0.11841041 -0.004057279 -0.07072059 0.012349909 -0.0053146384
-0.13974427 0.13993713 0.037070073 -0.07776436 0.035781313 0.10633081 0.03285596 -0.023087068
0.07182944 0.0011381888 0.053221796 0.07457568 -0.06527994 -0.07525188 -0.005829338 -0.026183473
0.051011235 -0.013909508 0.032553177 -0.08593437 0.029930979 -0.10503834 0.021690506 -0.09575289
-0.122020364 -0.07365988 0.06771431 -0.040398136 -0.06249476 -0.050833758 -0.0062534967 -0.034861542
-0.11900878 0.07820317 -0.06401903 -0.04248334 -0.010267636 0.06663494 0.05736324 -0.01721515
0.041343775 0.03314871 -0.051243935 0.09346354 -0.015136729 0.03304456 -0.13050376 -0.10271564
0.03343573 0.06334599 -0.03255974 0.03411651 -0.033502556 0.06651791 0.10699321 -0.09638058
0.0033466334 0.07717266 0.11151253 0.059704073 -0.04692302 0.009800512 0.036544 -0.017200883
0.072405145 -0.099657625 0.040013123 -0.046511035 -0.006671338 0.008019106 0.084546246 -0.04488826
0.086811215 0.03419355 -0.04282914 -0.0969845 0.08783504 -0.048197836 -0.045702904 0.11261864
0.03086945 -0.0013998656 0.107646495 -0.033210263 -0.06641137 -0.0213131 -0.024921147 0.064514734
0.011713405 -0.045331158 0.029991731 0.05987476 0.02466135 -0.010547228 -0.037023377 0.015467589
-0.07274247 -0.00011041096 -0.036238953 -0.009080126 0.024768604 -0.08131324 0.05803632 0.077043645
0.02071234 -0.055871774 -0.027992986 -0.03338 0.025368292 0.028142178 -0.046423025 0.012141932
0.06885279 0.07729523 0.032968193 -0.010367865 -0.063918106 -0.0016742421 -0.06978715 -0.0078890305
-0.009355704 0.069121145 0.06989916 -0.008818352 -0.08470796 0.074886814 0.036501225 -0.012508185
-0.05276727 -0.0404282 0.090582296 -0.060607776 -0.033790614 -0.0858905 0.08601315 -0.020317739
0.06661174 -0.05651571 -0.045134224 -0.03393451 -0.04815981 -0.03112037 -0.060833152 -0.06813133
-0.13086681 -0.032143 0.12677878 0.046976496 0.07686076 -0.04012418 -0.10084078 -0.025069555
0.023566399 -0.09569722 -0.016508931 -0.07072237 0.032633908 0.04467474 -0.12172094 0.02396005
-0.044650853 -0.08079967 0.059861187 -0.06673425 -0.0687851 -0.010369642 0.056008425 0.13384189
0.051719822 -0.015095018 -0.11797824 -0.090694934 0.1274075 -0.06759182 0.057825465 0.086428
-0.10737752 -0.09972102 -0.0058079255 0.061670147 -0.07719428 -0.06999853 -0.10225945 -0.057816487
0.11894965 0.070639916 -0.017432643 -0.055725373 -0.012397956 -0.06403734 0.12306789 -0.07687019
-0.03469599 -0.0025040268 -0.12901813 0.009810519 -0.069422215 -0.094459645 -0.081041016 -0.04258589
0.09139046 0.09154784 -0.010375904 -0.051279128 -0.02185484 0.09439373 0.14402953 0.069180116

up1.rnn.bias_ih_l0 f4 [192]
00000000: f4a1 37be 6795 463d eb62 f53c 7a6c acbd
00000010: 12a5 0b3d d809 bcbd dd22 85bd f7e8 b0bc
00000020: 85da ed3d 9e4b b8bd 0c33 a7bd 0409 bfbd
00000030: cb2a 933d 1290 5cbc db30 9fbd eddb 5ebd
00000040: 30fc d03d 99c3 63bd 1dbf e4ba e923 8c3d
00000050: 0d37 8e3d 79e8 d83d e98d acbd dd81 56bd
00000060: de02 96bd 7d7c 65bb 30b9 743d 8071 58bd
00000070: a807 16be 4da3 0dbe 030c 97bc 43ba dd3d
00000080: ac29 ebbd 844e f8bd 3224 c8bd 4122 e5bc
00000090: 5546 d63c 2386 90bd f28b 9d3d 119a 8e3d
000000a0: 9d6f 943d 3ad4 e33d b269 b3bc 2fbe fcbd
000000b0: acdf cbbc 14a4 ba3d 0c5f 66bd 6ef7 1abd
000000c0: d323 8ebd b3b2 63bd 5a6f b53d 80dd 04be
000000d0: ef1b 473d 386d b3bd 46e4 71bd fff4 62bc
000000e0: 947b 4bbd 42b0 183c 436d c63d 87c2 06be
000000f0: 0f89 2a3c 4efb 0dbe f6a5 ee3d 3a30 ad3d
00000100: 014a ab3c 3ffb 53bc 5dd9 9cbd 5fd7 123d
00000110: 2bef 38bb 59d9 133d 6864 5abd ed41 5abe
00000120: ce45 3dbe 2555 45be ced9 de3b 8940 d1bb
00000130: ce78 b2bd 65e8 16be 59a4 9b3c f0e8 37be
00000140: 7f90 fabd d9bf 0cbd 7a76 3ebe 3d9b a03c
00000150: 5806 6dbd 87b6 82bb 3bfd 55bd d032 e0bd
00000160: 94a9 4c3c dd48 2dbe 0788 24be b2bc 49be
00000170: 77d1 eebc 7ba4 c9bc c1f0 673c bc70 febd
00000180: 6e3d 0fbe 8930 483d 0841 37be a144 5fbe
00000190: c734 37be e8ad f63c 1675 eebc c3f7 91ba
000001a0: bd16 18bd 1b05 bd3b 3e4d 323c 57c7 9dbc
000001b0: 1e03 1d3d b761 20be c00b 7b3c 4936 9b3c
000001c0: 926c 3dbe 6c2f 51bd d988 3dbd a474 223d
000001d0: d80d 453d 3c81 babd 7564 1bbe 0a9c 1bbe
000001e0: f43a 94bd 9c83 c6bd d74c 33bd 3182 0abe
000001f0: 3fc3 e2bc cf07 34bd 12f4 d8bd 2496 97bd
00000200: 33a2 fb3b 57ac 853c 071c fe3d 701a cc3d
00000210: 41fa f13d c433 163c f6e1 a03d 2f5f d03d
00000220: ad90 b13d c975 a6bb b252 f33c 293e c4bb
00000230: 4cf0 a4bd 6c42 e8bc 937c e7bd 38f0 543c
00000240: 4ced 07bd 908b b3bd 5cbb d53d e220 833c
00000250: 244d 283d 539c d6bb 8206 db3a adb0 ea3d
00000260: 2f67 023e bf65 ae3d fd57 923d e9f0 883d
00000270: 2c25 023d 0b10 f73d a714 8e3d 541d 90bd
00000280: 40f1 2d3c 3895 eabd a5f6 ffbd eeb0 e63d
00000290: 955c bbbd acc7 8d3d f8d4 6d39 717f fa3c
000002a0: 2ec4 9e3d b7a8 223d d5c5 c8bd bbc4 16bd
000002b0: f5ed d63d 9e4a 86bd c08f c03d bc6f f3bd
000002c0: 5933 debb d35a 163c b157 80bd a2d8 0dbc
000002d0: aaec 59bd b01c 06bd 9329 65bd 1016 9c3d
000002e0: ff20 583c a181 f3bd 783f f4bd fd73 de3d
000002f0: 3f60 25bd 7719 413d ce04 593d 5794 c03d
-0.17932874 0.048482325 0.029954394 -0.08419128 0.03409297 -0.09181565 -0.0650079 -0.021595461
0.11613945 -0.08998798 -0.08164033 -0.093278915 0.071858965 -0.013462083 -0.0777299 -0.054408956
0.10204351 -0.05560646 -0.0017451976 0.06842787 0.06944094 0.10591216 -0.08425505 -0.05236994
-0.073247656 -0.0035016828 0.05974692 -0.052842617 -0.14651358 -0.13831826 -0.018438345 0.10826542
-0.11482558 -0.12124351 -0.09772529 -0.027970435 0.026156584 -0.070568345 0.07692708 0.069629796
0.07247851 0.111244634 -0.021900985 -0.12340962 -0.024886928 0.09113327 -0.056242988 -0.037833624
-0.06940427 -0.055590343 0.08859129 -0.1297512 0.048610624 -0.08761066 -0.05905559 -0.013852357
-0.0496784 0.009319367 0.09688809 -0.13160144 0.010408654 -0.13865396 0.11652748 0.08456464
0.020909311 -0.01293832 -0.07658646 0.035849925 -0.0028218727 0.03609595 -0.05331841 -0.21314211
-0.1848366 -0.19270761 0.0068008667 -0.006385867 -0.08714448 -0.14737089 0.018999266 -0.17959952
-0.12234592 -0.034362648 -0.18599883 0.019605273 -0.057867378 -0.003989044 -0.052243453 -0.10947192
0.012491602 -0.16922326 -0.16067515 -0.19700888 -0.029152615 -0.024614563 0.014156521 -0.12423846
-0.13988277 0.04887441 -0.17895901 -0.21803524 -0.17891227 0.030112222 -0.029108565 -0.0011136461
-0.03713106 0.005768431 0.010882674 -0.019260092 0.03833305 -0.15662275 0.015322626 0.018946784
-0.18498448 -0.051070616 -0.046273086 0.03966202 0.048108906 -0.09106681 -0.1517504 -0.15196243
-0.07237807 -0.09693071 -0.043774452 -0.13526227 -0.027680991 -0.04395276 -0.10593428 -0.07401684
0.0076792478 0.01631753 0.124076895 0.0996598 0.1181531 0.009167615 0.07855599 0.10174405
0.08670173 -0.005079959 0.029702518 -0.0059888554 -0.080536455 -0.028351985 -0.113030575 0.012996726
-0.03318529 -0.08766854 0.104361266 0.01600689 0.041089192 -0.006549397 0.0016710314 0.114594795
0.12734674 0.085155 0.07145689 0.06686575 0.03177373 0.12063607 0.06937533 -0.07036844
0.0106166005 -0.114542425 -0.124982156 0.112642154 -0.09148518 0.0692285 0.00022681418 0.030578347
0.07752262 0.03971168 -0.098033585 -0.03680871 0.104946055 -0.06557201 0.09402418 -0.11886546
-0.0067810235 0.009176928 -0.06266726 -0.008657606 -0.053204216 -0.032742202 -0.05594785 0.076213956
0.013191461 -0.11889959 -0.11926168 0.10861967 -0.04037499 0.047143426 0.052983098 0.094032936

up1.rnn.bias_hh_l0 f4 [192]
00000000: 57e8 92bc c29e 4a3d f164 bfbd cea7 083d
00000010: e2c2 fdbd 460a dbbd 58c1 0e3d e8d1 c0bc
00000020: ea2a 51bd f9e2 ebbd 228f b0bb 2014 83bd
00000030: 1b65 c5bd 2724 ce3d 3be7 a43d 162c 643d
00000040: cb20 303d dbf3 153d cd67 6fbd 4373 f5bd
00000050: d5dc acbd afd7 923d e28e 13be be0e c1bd
00000060: d657 b2bd 8944 9b3d ca00 69bc 69fe afbd
00000070: 2247 ac3c 9792 e1bd 37ef ca3d 3fda cabd
00000080: daf5 aa3d e133 0cbe 066a f93c 24a7 e33c
00000090: 5e28 b5bd 1f1e dc3d 6e6d a4bd 938e 01be
000000a0: 3540 9c3d 9c45 c23d 01ce 40bd 326c a5bc
000000b0: 934c 15be 9f71 bbbc 4019 15be 6d6e 553c
000000c0: 7308 a0bd 6363 933d a6b0 b9bd e665 10bd
000000d0: ed09 90bb 3180 82bd 2764 413c b45a 9d3d
000000e0: fa7f 8abd 2211 3b3d a28e a2bd ff4c dc3c
000000f0: 4cf1 beb9 4f8a e4bd 92ee 79bd 0aca 773d
00000100: 7af8 f0bd ba9d ab3c fe63 8fbc b71d 533d
00000110: 0c6f 4a3d 7034 32be 566c 91bd 2c76 0abd
00000120: 18ee cfbd d416 4dbe 0b85 47be 6027 053d
00000130: 366a bdbd 5db6 ebbd 4789 f93c 4912 00be
00000140: 1bef e1bd 5b32 ee3c bce4 37be 496c aebd
00000150: 9957 d3bd 5d5a 32be d0e9 9cbd df89 14bd
00000160: 18e9 a5bd f30c 1bbe 56b6 2fbe c4c9 0fbe
00000170: ac31 15be ff34 fb3c 92ff 4bbe 6418 0dbe
00000180: 09c4 0cbe d29c 243d 7e33 96bd b2b1 8fbd
00000190: 2f8e ed3c 1a68 4b3d d56a 38be 636f afbd
000001a0: 00ed 3b3c a667 42bc 96b0 cebc 81bb f6bd
000001b0: 8a2a b8bd d577 c8bd 2b5e 3ebe 1527 32be
000001c0: a4d5 2cbe b8d5 c8bd 14cd 8c3d 983c 45be
000001d0: 6cde b4bd 430b 61be 51e7 2ebe c333 fa3c
000001e0: fdc4 bf3c 6210 02be dfe3 ae3d d8ef 88bd
000001f0: eeb2 e1bd a64d f0bd 2f0e 8cbd eb18 1fbe
00000200: 4df3 9ebd 3aae 05be 11a8 15bd 7c5a 993c
00000210: ef99 0e3e d163 89bd ef29 2f3d 0899 c93d
00000220: 85d9 683c bb58 f33c b66e 9a3d e2ff 003e
00000230: a654 d6bd 6bc1 dc3c be73 ce3d 03c8 df3d
00000240: 65d5 c6bc d1a8 77bd 4223 93bd 582e d7bd
00000250: e1fc fe3d 68eb f63d e2a7 6b3c 61bf 2e3d
00000260: 5955 d4bd e138 d13d b4c9 1abc c04d 0abd
00000270: 3dea 393d 9b7b 66bd d253 a6bd 937e 7d3c
00000280: 266c ba3d 05a3 93bd ec30 363d fd9b d5bd
00000290: 7e2e cb3c 88a8 ac3d 2c6d 77bd 9af6 f03b
000002a0: 4075 003e ae88 5f3c c29e c03d 488f 843d
000002b0: 0095 f43d f344 383d 604e c43c cb19 f7bb
000002c0: 3b9a f0bd 68b7 29bd d204 cdbd 3a35 c33c
000002d0: 6592 023d f6b8 0c3d 3e55 91bd bf63 c0bb
000002e0: 2679 e4bc cc6c 32bd 00d5 243c 6af9 cfbd
000002f0: 693d 6bbd e7ff ecbc 2d75 e93d 3a88 a23d
-0.017933054 0.04946781 -0.09345425 0.033363156 -0.123906866 -0.10695319 0.034852356 -0.023537591
-0.051066317 -0.11517901 -0.0053881565 -0.06400323 -0.09638425 0.10065489 0.08051916 0.055706106
0.043000024 0.03660951 -0.0584486 -0.11984875 -0.08440558 0.07170045 -0.14409974 -0.0942664
-0.087081596 0.075814314 -0.0142213795 -0.08593447 0.021030013 -0.11014288 0.09908908 -0.099049084
0.08347674 -0.13691665 0.030446064 0.02778966 -0.0884559 0.10747933 -0.080286846 -0.12652044
0.07629434 0.09485933 -0.04707146 -0.020193193 -0.14579992 -0.022881327 -0.14560413 0.013026816
-0.078141116 0.07196691 -0.09066896 -0.035253428 -0.0043957145 -0.06372107 0.011803663 0.07683316
-0.06762691 0.045670636 -0.07937361 0.026892183 -0.00036419404 -0.11159193 -0.061018534 0.060495414
-0.11766143 0.020949233 -0.017503735 0.05154201 0.04942231 -0.17402816 -0.071007416 -0.033804104
-0.10152835 -0.2002824 -0.19484346 0.032508254 -0.09248774 -0.115093924 0.030460967 -0.12506975
-0.11031934 0.029076746 -0.17958349 -0.085167475 -0.10319442 -0.17417283 -0.07661784 -0.036264297
-0.081011 -0.15141658 -0.171594 -0.14041811 -0.1456973 0.030664919 -0.19921711 -0.13778836
-0.13746656 0.040188618 -0.0733404 -0.070163146 0.028998462 0.049659826 -0.18009503 -0.08566167
0.011470079 -0.011865532 -0.025230687 -0.12047482 -0.08992489 -0.09788481 -0.1859061 -0.17397721
-0.16878372 -0.098063886 0.06875053 -0.19261396 -0.08831486 -0.21976952 -0.17080428 0.03054226
0.023409361 -0.12701562 0.08539557 -0.066863716 -0.11020456 -0.1173356 -0.06838643 -0.15536849
-0.0776125 -0.13054743 -0.036537234 0.018719904 0.13925909 -0.067084916 0.0427646 0.098436415
0.014212017 0.029705396 0.07540648 0.12597612 -0.10465364 0.026947698 0.1008067 0.10926821
-0.024271676 -0.06046373 -0.07184459 -0.10506886 0.124505766 0.12056619 0.014383288 0.042662982
-0.10367841 0.10215927 -0.009447504 -0.033765554 0.045389403 -0.056270223 -0.08121456 0.015472072
0.09102659 -0.07208828 0.04448025 -0.10430143 0.024802443 0.08430582 -0.06040685 0.007353616
0.12544727 0.013643427 0.09405281 0.06472641 0.11942482 0.04498763 0.023963153 -0.0075409166
-0.11748167 -0.041434675 -0.10010685 0.023829091 0.031877894 0.03435608 -0.07096337 -0.0058712657
-0.0278898 -0.043560788 0.010060549 -0.10154994 -0.057431612 -0.028930617 0.11399303 0.079361394

up2.up_conv.0.weight f4 [64, 32, 3]
00000000: edbe c33d 59ab 64bd 5e58 603d 2f9c 853c
00000010: 7259 b9bc a550 983c 6885 133d 8b25 85bd
00000020: 96d7 953d 4fc8 44bd 63f9 173d 95d8 ac3d
00000030: 8d27 153d 1dc3 b0bc 31db 153d a54f 8cbc
00000040: afe5 94bd 7441 c83d f95d 6d3d 8af8 183d
00000050: 753a 393d ef40 45bc fe38 91bd 2cce 333b
00000060: 9cbe 43bd 76b8 f5bb 964f 9739 0b35 133c
00000070: ec7b dabc 1a3a bfbc e4dd 8e3d 959f ce3c
00000080: cbad 4c3d 4a3f 023d 5c3a ad3d db01 35bd
00000090: 24f7 8a3d 09ea 9bbc 668c 8ebb b923 fa3c
000000a0: 8dcf a13d c823 ac3d 7a85 783d eb63 90bc
000000b0: 0922 243d 867d ccbd 8713 993d 0959 8e3c
000000c0: 835f b03c ab7c 253c 9a2b 7cbd 1b07 e0bd
000000d0: b92f 8cbd 88ec 10bd 31df 663d 228b 1d3b
000000e0: 5be0 cebc 4a25 a4bd 0989 503c a79a eabd
000000f0: 1b62 f33c 00cf 7dbd 448b 9c3c 6e03 6ebc
00000100: 835d 833b 5097 dfbb 5eb9 c9bd 41ee e3bc
00000110: 8870 c83d f72b ac3d f009 9ebd 1f37 e43c
00000120: 92bb 10bc fae2 2e3d dc21 0bbd 1bac 75bd
00000130: 3d83 933d b05d 14bd 4051 bb3d f277 11bd
00000140: 57f9 803d 5e0d b53d 978b 883d 0d68 8cbd
00000150: 8cbf 38bd 2bc1 dd3b 5ed6 80bd 09ca ebbd
00000160: be34 08bd d33e d33c 998a b23d 7251 97bd
00000170: c919 a13d 655c 6b3d 4a74 89bd b6b1 2dbd
00000180: 391e 953d f965 b23d 29c0 afbd b500 863d
00000190: 7e58 e23d b135 483d 36e5 a73c ba37 c3bd
000001a0: acf6 c33b 2f29 04bc 6b45 9abc 09e5 df3c
000001b0: 8ef3 563d 7445 c9bd 381b f5bc 4d78 5a3d
000001c0: e068 f1bd d11b d93d 7785 99bd 1cd1 b6bd
000001d0: 03fd 82bc 0b5a 35bd 814f 773c aa11 023c
000001e0: cd98 50bd 3f87 9bbd 6694 063d 1f8e 94bb
000001f0: 7674 09bd c9bc ab3d 2b88 c13b 70bf 243d
00000200: 15b1 bc3a 2ff6 a03d 2613 60bc 8354 4bba
00000210: 7470 1bbb c67d 503c d31a e53b 102e 88bd
00000220: 2089 abbc 0781 e63c 27a5 813d cb75 a3bd
00000230: 4763 b7bd e265 c33d 96ce 8fbd f77c 63bd
00000240: 9f71 ac3d 2f98 f5bd 7a18 343d b094 d2bd
00000250: cdcb 82bd 6705 143d 780f 053d 0f2e 8a3d
00000260: e1c3 83bd e595 59bd 13eb 26bd 64ed 17bc
00000270: 9f6a 6abd 9640 0e3c fcac d33c 9d8d 5bbb
00000280: d89a f6bc cd93 30bd 3e9f d0bd ea84 c8bd
00000290: 8ee2 c9bd 2422 063e 491f a0bd db1d 8b3d
000002a0: 1b48 d33d 70c8 83bd 6986 c0bd 2c69 f83b
000002b0: 81eb 9f3c 18ab dbbb a85f c33d c27c a7bb
000002c0: 3efe 3dbd d3be a3bd 7e9c a5bc d96a a63d
000002d0: feb7 9dbd 2630 e53b 20af 983c b59c b73d
000002e0: ab97 633d de60 fa3c 1777 f2bd 3c9b 943a
000002f0: 216e 83bd 7f03 f83c e8e0 52bd fae1 2dbc
00000300: 9396 5fbd a61a 7ebb be2f 53bd a09e c23d
00000310: 1348 94bd 755a 8fbd 8673 2e3d 6fb3 923d
00000320: b8eb 683d 9414 053d 34bc 5b3d 8676 383c
00000330: 7128 8f3d 334c adbd 8c19 f13c c25d 083d
00000340: 45fd 703c 8848 e9bd f0f9 8d3d faac 9cbb
00000350: 3b68 763d ba33 20bd 2acd 88bd 5c47 38bc
00000360: b563 d4bd b266 8a3c a428 04bd a662 e43c
00000370: ee35 b1bd 7499 f5bc 2bd3 d33b 46fa 99bc
00000380: 55f3 b5bc 39a4 8a3d 95e6 823c bbfe 6dbd
00000390: 986d 09bc 9a67 663d 51db f43b 6ca1 bcbc
000003a0: 652f ce3c 243e c53d 27e1 843c 39f7 49bd
000003b0: 0791 3bbd efbf de3a 36fd 27bd f0be 753d
000003c0: cbf2 c4bd e8fe 593c a471 91bd 1aab a03d
000003d0: 0283 9e3c 61a9 a13c 19ca 0bbd 5b2f fabc
000003e0: 6c25 4cbd 56bc 58bd 5ba2 ccbd e906 bfbd
000003f0: 6e49 9d3d e8c3 f03c c7d4 7fbd cb59 683d
0.095579006 -0.055827472 0.054771774 0.016309826 -0.022625659 0.018593142 0.036015898 -0.065013014
0.073165104 -0.04804259 0.037103068 0.08439747 0.03641467 -0.021577412 0.03658599 -0.017127821
-0.07270371 0.09778109 0.057950947 0.0373464 0.045221765 -0.012039407 -0.070909485 0.002743612
-0.0477892 -0.007498796 0.0002886026 0.008984814 -0.026670419 -0.023343135 0.06975916 0.025222579
0.04997043 0.03179864 0.08458397 -0.044191223 0.067854196 -0.019032495 -0.004350233 0.030534612
0.07900915 0.08405262 0.06067417 -0.01762577 0.04007152 -0.09984879 0.07474428 0.01737644
0.021529919 0.010100524 -0.06156502 -0.10938855 -0.0684504 -0.035381824 0.056365196 0.0024039228
-0.025253465 -0.08014925 0.012727984 -0.11455279 0.029709866 -0.06196499 0.019109376 -0.014527185
0.00400895 -0.006823458 -0.09849809 -0.02782357 0.09787089 0.08406823 -0.07716739 0.027858315
-0.008833783 0.04269693 -0.033967838 -0.059978586 0.07202766 -0.03622216 0.091463566 -0.03551478
0.06297558 0.0884044 0.0666725 -0.068557836 -0.04510455 0.006767412 -0.06290887 -0.115131445
-0.033253424 0.025786793 0.08717842 -0.07388581 0.07866246 0.05746116 -0.067116335 -0.042405806
0.07281155 0.08710856 -0.085815735 0.065431036 0.11052035 0.04887933 0.020495038 -0.095321134
0.0059803333 -0.00806646 -0.01883193 0.027330892 0.052478366 -0.098277 -0.029920205 0.053337384
-0.117875814 0.10601009 -0.074961595 -0.08926603 -0.015989786 -0.044275325 0.015094639 0.007938782
-0.050926972 -0.075941555 0.032856368 -0.0045335437 -0.03355833 0.08385617 0.005906125 0.04022163
0.0014396036 0.07859456 -0.01367644 -0.00077564287 -0.002371815 0.012725299 0.006991723 -0.06649411
-0.02093941 0.028137697 0.063303284 -0.079814516 -0.089544825 0.09540917 -0.07021825 -0.055539098
0.08420109 -0.11991917 0.043968655 -0.10282266 -0.06386528 0.036137965 0.032485455 0.06747066
-0.06433845 -0.053121466 -0.040751528 -0.009272907 -0.057230588 0.008682391 0.025839321 -0.0033501156
-0.030103132 -0.043109704 -0.10186623 -0.09790976 -0.09857665 0.13098961 -0.07818467 0.06792804
0.103164874 -0.06434715 -0.09400637 0.007580897 0.019521477 -0.0067037456 0.09539729 -0.005111308
-0.046385042 -0.07995381 -0.020216223 0.08125848 -0.07701109 0.006994265 0.018638194 0.08965436
0.055564564 0.030563768 -0.11839121 0.0011337767 -0.0641749 0.030275105 -0.05148402 -0.010612959
-0.05458696 -0.0038773208 -0.051559202 0.095029116 -0.072403096 -0.06999675 0.04259064 0.071631305
0.056865424 0.032490328 0.05364628 0.011258727 0.069901355 -0.084617995 0.029431127 0.03329254
0.014708822 -0.11390787 0.069324374 -0.0047813626 0.060157996 -0.03911183 -0.06679757 -0.011247482
-0.1037058 0.016894672 -0.03226532 0.02787907 -0.086528644 -0.029980399 0.006464382 -0.018796097
-0.022210756 0.06769604 0.01597909 -0.058104258 -0.008387946 0.056251146 0.0074724336 -0.02302619
0.025169084 0.09630993 0.016220642 -0.049308036 -0.045792606 0.0016994457 -0.041012965 0.059996545
-0.096166216 0.013305403 -0.07101753 0.07845135 0.019349579 0.019734086 -0.034128282 -0.030540159
-0.049840376 -0.052913986 -0.09991904 -0.0932749 0.07680021 0.02939029 -0.06245878 0.05672626

up2.up_conv.0.bias f4 [32]
00000000: cad0 c5bc 5543 97bd 71dd 84bd 65ef 1cbd
00000010: e014 8abd 0323 253d 4dfc f23c c10e e5bc
00000020: e630 a8bd 0749 7abd dc4b 32bd 2440 cb3d
00000030: 251c 123d 5e09 0abd 53c6 c13d 8cd3 bdbd
00000040: 3161 9ebd ad36 82bc 0582 f63b 5524 8a39
00000050: c65a bf3c 2198 e8bd 482b fa3d 8359 943d
00000060: 7450 88bd 275b 06bd 1876 7ebc fff9 b53c
00000070: 7980 96bd 6ddc ce3d fd16 ae3d a501 69bc
-0.02414741 -0.073858894 -0.06487549 -0.038314242 -0.06742263 0.040316593 0.029661322 -0.027961137
-0.08212452 -0.0611048 -0.043529376 0.09924343 0.035671372 -0.03370034 0.094616555 -0.09268865
-0.077333815 -0.015895212 0.0075228238 0.0002634848 0.023358714 -0.11357141 0.122152865 0.072436355
-0.0665597 -0.032801773 -0.015531085 0.022213934 -0.07348723 0.10100637 0.085004784 -0.0142215835

up2.up_conv.1.weight f4 [32]
00000000: ca95 803f afad 853f 5e1a 863f 8462 773f
00000010: 2867 7e3f 4889 853f e430 723f f0d1 813f
00000020: dcba 7d3f 7a8e 7e3f 7757 7b3f 7ec4 763f
00000030: 29ff 743f a5d5 7c3f db0d 7d3f 107c 7b3f
00000040: 8f33 813f c62d 7c3f b184 813f 1d01 7f3f
00000050: c040 7d3f 7f61 813f 5332 833f 4f60 7f3f
00000060: 0ead 7f3f cd93 853f fd14 813f 35fe 7e3f
00000070: 86ac 833f 875e 753f 9cb0 7f3f 2713 7b3f
1.0045712 1.0443629 1.0476797 0.966347 0.99376154 1.043252 0.9460585 1.0142193
0.9911325 0.9943615 0.98180336 0.96393573 0.95701844 0.98763496 0.98849267 0.9823618
1.009386 0.98507345 1.0118619 0.99611074 0.98926926 1.0107878 1.0249733 0.9975633
0.99873435 1.043573 1.008453 0.9960664 1.0287025 0.9584736 0.9987886 0.980761

up2.up_conv.1.bias f4 [32]
00000000: 75d0 17bc 703a 563d 885f 383d 8458 b4bc
00000010: 4daf cfbc 3af0 253d 61d7 3ebd 3095 eb3c
00000020: 7b84 fcbb 8120 bfbc 319c 49bc 8e7c 27bd
00000030: 929e d0bc 851e 1dbc 18af f7bb f5da 3ebc
00000040: 64af f03c 272a 143c 6055 f03c 9c1d 8b3c
00000050: 2f87 babc f001 ea3b 1297 a2bd d2a2 7c3c
00000060: f3d2 263d b684 443d 2ce9 623c 79de 96b9
00000070: 0e27 dd3c c71d a8bc 0479 e9bb 723b dfbb
-0.009266009 0.052301824 0.04501298 -0.022014864 -0.025352145 0.0405123 -0.04659212 0.028757662
-0.0077062226 -0.023330929 -0.012305305 -0.04089027 -0.025466237 -0.009589796 -0.0075587146 -0.011648883
0.029380508 0.009043253 0.029337585 0.016981892 -0.022769539 0.0071413442 -0.079389706 0.015419679
0.04072852 0.047978126 0.013849538 -0.00028775985 0.026996162 -0.020522011 -0.007125022 -0.0068125064

up2.up_conv.1.running_mean f4 [32]
00000000: 6879 e8bc 5a14 86be 89a5 88be 2525 4c3e
00000010: 82d9 47be 9585 57be 8e35 15be 2b19 d43d
00000020: 53bb a4be 291d 76be 8278 9cbd 7c7f d9ba
00000030: 0f45 0ebd 8b22 a2be 1874 adbb ede5 de3c
00000040: 8d4d 49be 2bf9 45be 7bd5 ee3c e610 853d
00000050: f6c6 22be 7804 e0be 15d3 703c 00cc 003e
00000060: af1b b7be 3dab 4abe 0294 63bd 0e4a 13be
00000070: c8b6 14be aa70 1fbe 5420 8f3d 9266 a8be
-0.028378204 -0.26187402 -0.26688793 0.19936045 -0.19516566 -0.21047051 -0.1457121 0.10356363
-0.32174167 -0.24034561 -0.076401725 -0.001659378 -0.03473383 -0.3166698 -0.0052933805 0.027209247
-0.1965849 -0.19333331 0.02915453 0.06497364 -0.1589621 -0.4375341 0.014698763 0.1257782
-0.35763308 -0.19791885 -0.055561073 -0.14383718 -0.1452285 -0.15570322 0.06988588 -0.32890755

up2.up_conv.1.running_var f4 [32]
00000000: 0d44 6f3d 0beb 843c eb6d f33d 45b7 203d
00000010: d755 c73d 9cf7 4e3e 2939 c23c 31c3 503e
00000020: 26ad 283d a4b1 063d bfbd d23d c201 4f3d
00000030: 587c f33d b69b 1d3e b266 523d 009d f93d
00000040: d1d9 7d3e becc 723d 0e6e 463e b5df f53d
00000050: 3930 213e 1612 aa3e a2f2 f73c 285a c53d
00000060: 2dca 5f3d 86b2 de3d 19d2 763d 0ad4 fd3d
00000070: af85 8c3d f15f 4a3d e886 293d 12e3 273d
0.058414508 0.016225358 0.118861996 0.03923728 0.097331695 0.20211643 0.023708897 0.2038696
0.041180752 0.032884255 0.102900974 0.050538786 0.11888951 0.1539143 0.05136747 0.121881485
0.24790122 0.05927729 0.1937792 0.12005559 0.15741052 0.33216923 0.030267064 0.096363366
0.05463617 0.108738944 0.06025896 0.12393959 0.068614356 0.049407903 0.041388422 0.040988036

up3.up_conv.0.weight f4 [32, 16, 3]
00000000: 5b4e e93c 4340 2abe d215 a73c 7e6b cebd
00000010: 1779 d83b d80b 1bbe bba6 323d aa1a 973d
00000020: 438c 9dbd 1145 bcbd 86eb 4bbc 3978 1f3d
00000030: 3ccd ba3d d23c cf3d ec14 debd 8c35 ab3d
00000040: f33e 84bd fc25 d23d 7e14 2c3d 3e15 f43d
00000050: 3bf0 8bbd bc0f 7b3d 1112 84bd 695d 093e
00000060: 48bb f23d 6c89 dabd eaeb 0dbd d16e 0dbe
00000070: 4a5b ad3d 6af8 5dbc dd8f 4c3d 32a3 c7bc
00000080: 88a5 e7bc d0a9 2d3c 61e2 51bc fa0a 1d3d
00000090: 0ea2 1fbe a67b 273d 2cf1 1ebe 078a ffbd
000000a0: f3f9 cc3d c966 023e 27e7 003e 4625 0b3d
000000b0: f930 eb3d 1959 01bd bb08 7ebd 4e4a 88bd
000000c0: e8b3 013e 17b5 233e ca1c ec3d c4b7 a43d
000000d0: a2bb 42bd 981e e4bd c318 a6bd a0ea 263d
000000e0: 05e1 4a3d 1a6d a7bc 9b15 d4bd 9374 8a3d
000000f0: df1f b7bd 3a7a 61bc ac2f 8dbc 714f 013d
00000100: 311b 7b3d 8e51 b5bd aa42 06be 265a f73d
00000110: d3c2 443d 2565 9abc 311b 373e 3645 29be
00000120: e42f b93d 7d44 043c 4eb1 863b 9220 b23c
00000130: f99a 213d d2b6 a1bd 78f1 a3bd 32b7 b63d
00000140: 7ab4 ebbc 2ea8 d73c a16c 0b3e 921e bd3c
00000150: bcb6 f43d a06a a53d f143 54bd 3bcb 02be
00000160: e564 22bd 97df 09be 797b 7fbb e85d 00bd
00000170: cc5f 9f3d d868 83bd 6cb5 4d3d 4323 d43d
00000180: 4653 9cbc c6c0 4cbd 6525 d93d d1a3 8cbd
00000190: c6a0 833c 4a2c 453d 45e4 063e 082c 2abd
000001a0: e77a 093e ffa7 aabd ae0c 103e 918f 59bd
000001b0: 9ee5 9fbd 9d51 d43d fd91 903d 11a3 dcbd
000001c0: 7ecc 88bc 9b7e a73d e62d d8bd 8876 01bd
000001d0: defd 13bd a703 093d aa79 0abe 8a51 733d
000001e0: dbf8 a4bc bfd4 a9bd 33b6 283d fd81 afbd
000001f0: ef30 32be 0135 063e 8257 67bd d8f2 acbd
00000200: 3a64 803c 22f8 843d a706 0a3e 0852 39be
00000210: b2da b3bd 3dcc 18be 99fc 83bd 441a 1cbd
00000220: 7f7a 7a3c 56a7 a4bd 37af 613c 8545 c9bd
00000230: 2b04 2cbc 6041 bd3d b7f8 b1bc c0c7 e1bd
00000240: 7d58 15be a645 673c 905a c63d edf5 313d
00000250: 5719 2d3d bf27 e9bd d163 f33d 8f63 0b3e
00000260: fcba 30bd 2d22 783d 087b 2b3e be53 5a3d
00000270: 0e9b 843d e7b9 c23d a4c0 41be 9be0 453c
00000280: 729c b5bd 1468 ac3d 0d06 0bbe ecc3 d93d
00000290: 33a0 a03d ed6c ad3b 11cb e7bc 68ec 56bd
000002a0: 7a1b 3bbd f671 4c3d 7559 3cbd f3c4 713c
000002b0: 5d6b 013e beff 44bd e70c ce3d 23f5 7e3d
000002c0: 8776 943d 78ef bc3c 9b98 2cbd 55b7 cebd
000002d0: d92d 893d 1ff5 08be 1268 213e fca0 ef3c
000002e0: 5d3d f33d e57b 0cbe ca72 a4bd 9c58 bf3d
000002f0: 844b a93d bb52 9bbd a250 8fbd 856d 2fbd
00000300: 973e 8fbd 104f 3bbe d0e4 25bd d284 503d
00000310: a7fe 6dbd 107b b5bd 7d1f 4c3c 427e 03be
00000320: 622e 913d 46ec 8bbd e2c3 c0ba 4809 033c
00000330: 46c5 183e bd93 803d 8147 9f3d 2aac 8dbc
00000340: 2805 dabd 5b5e 5f3d e9b5 afbd e346 87bd
00000350: 9215 43be cb07 06bd baae f3bc 1271 e7bd
00000360: 24d6 85bc 71d8 203d 38d6 c03d 9367 5f3d
00000370: cc05 39bd 8393 cdbb c5e9 df3d 567f 893d
00000380: 1fab 273e 37e3 d4ba 4ed7 553d 4b91 b2bc
00000390: 2a47 e43d 8735 0bbd 183c 04be c384 04be
000003a0: e22f e1bd ddfa 5a3b 0f3f 313d d7c6 25be
000003b0: bc9d 543c 9a6c 973c 8087 253e c62e 91bd
000003c0: 4836 fa3d 54fc 1bbe b023 ad3d 52ef 28bd
000003d0: 9f3f 02be 2114 193e 9d47 03be f49d cd3a
000003e0: e11d d4bd b224 09be b39a fb3d 1765 583d
000003f0: 2902 b63d 3c8a fa3d f810 b4bd 7446 afbd
0.028479746 -0.16626076 0.020396147 -0.10079096 0.006606232 -0.15141237 0.043616038 0.07378133
-0.076927684 -0.09192861 -0.01244629 0.038933013 0.091211766 0.101190224 -0.10843834 0.08359823
-0.06457319 0.10261151 0.04201173 0.11918114 -0.0683293 0.061294302 -0.064487584 0.1341454
0.11852127 -0.106707424 -0.034648813 -0.13811804 0.08464678 -0.013547996 0.049941886 -0.02436981
-0.028277174 0.0105995685 -0.012810321 0.038340546 -0.15589163 0.040889405 -0.15521687 -0.124774985
0.100086115 0.12734522 0.12588178 0.033971094 0.1148395 -0.03157911 -0.062020045 -0.066547975
0.12666285 0.15987049 0.115289286 0.08042863 -0.04754222 -0.11138648 -0.08110192 0.0407511
0.049531 -0.020437766 -0.103556834 0.06760516 -0.08941626 -0.013762051 -0.017234646 0.0315699
0.06130523 -0.08853446 -0.13111368 0.12077741 0.04803736 -0.018847058 0.17881466 -0.16530308
0.090423375 0.0080729695 0.004110492 0.021744046 0.039454434 -0.07896198 -0.08005041 0.089216605
-0.028772581 0.026325312 0.13615657 0.023085866 0.11948916 0.08076978 -0.051822606 -0.12772839
-0.039647 -0.13464199 -0.0038983508 -0.031339556 0.07781944 -0.06416482 0.050221846 0.10358288
-0.019082677 -0.04998853 0.106028356 -0.06867183 0.016067874 0.04813794 0.13173015 -0.041545898
0.1342579 -0.08332824 0.14067337 -0.05311543 -0.07807468 0.10367129 0.07059095 -0.1077329
-0.016699072 0.08178445 -0.105556294 -0.03160718 -0.03613078 0.03345075 -0.13522974 0.059403934
-0.020138195 -0.08292531 0.041189384 -0.08569715 -0.17401479 0.13106157 -0.05647994 -0.08444756
0.015672792 0.0649264 0.134791 -0.18097699 -0.08781947 -0.1492166 -0.064446636 -0.038110986
0.015287994 -0.08039729 0.013774685 -0.09827713 -0.010499041 0.09240985 -0.021725042 -0.110244274
-0.14584537 0.014115727 0.09685242 0.043447424 0.042260494 -0.11384534 0.11884273 0.13612197
-0.043147072 0.060579468 0.16746151 0.05330252 0.06474887 0.09508114 -0.18921143 0.012077476
-0.0886773 0.08418289 -0.13576527 0.10633072 0.078430556 0.005292526 -0.028295072 -0.05247155
-0.0456805 0.04991337 -0.04598375 0.014756429 0.12638612 -0.048095457 0.10061055 0.0622455
0.0724917 0.023063406 -0.042137723 -0.100935616 0.06698198 -0.13374756 0.15762356 0.029251568
0.118769385 -0.13719137 -0.08029707 0.09343073 0.082663566 -0.07584139 -0.06997801 -0.042829055
-0.0699436 -0.18291879 -0.040501416 0.050907917 -0.058104184 -0.08861363 0.012458679 -0.12841132
0.07088925 -0.06832175 -0.0014706815 0.007997818 0.14919004 0.06278179 0.0777731 -0.017294008
-0.10645515 0.054533344 -0.085796185 -0.066053174 -0.19051197 -0.032722276 -0.029746402 -0.11300863
-0.016337462 0.039268915 0.09415859 0.054542135 -0.045171544 -0.0062736883 0.1093326 0.067137405
0.16373871 -0.0016242032 0.052207284 -0.021797797 0.11146386 -0.033986595 -0.12913549 -0.1294127
-0.10995461 0.0033413686 0.043273028 -0.16189133 0.01297706 0.018484402 0.1616497 -0.070889995
0.122173846 -0.15232974 0.084540725 -0.04124386 -0.12719582 0.14949085 -0.12820287 0.0015687332
-0.103572614 -0.13392904 0.12285366 0.05283078 0.08887131 0.12233397 -0.08792299 -0.0855836

up3.up_conv.0.bias f4 [16]
00000000: 29a6 1bbe 9509 0dbe 7b05 51bd 9754 3bbd
00000010: e999 d5bd bf91 dabd f085 8b3d f827 a9bd
00000020: 47d7 203d 1938 a2bd 106c 41be d3b2 a13d
00000030: 1bad a1bc bc5b ef3d 662e e53d d0bd 3abe
-0.15200104 -0.13773187 -0.051030617 -0.045734968 -0.10429747 -0.1067233 0.06812656 -0.082595766
0.039267804 -0.07920856 -0.18888879 0.07895436 -0.019735863 0.11687419 0.111904904 -0.1823647

up3.up_conv.1.weight f4 [16]
00000000: 7228 8b3f 01b1 8b3f 5694 733f 407f 8b3f
00000010: 9a9a 783f 20a0 763f a0d4 843f 7ab8 803f
00000020: bf55 843f 9f87 8c3f 7b09 8b3f a856 8a3f
00000030: 1ee8 753f 6eec 733f cee2 873f 055c 8b3f
1.0871718 1.0913392 0.9514822 1.0898209 0.97110903 0.9633808 1.0377388 1.0056298
1.0338668 1.0978888 1.0862268 1.0807695 0.9605731 0.9528264 1.061609 1.0887457

up3.up_conv.1.bias f4 [16]
00000000: 4844 bc3d 4c1c ba3d cf48 61bd ba16 bc3d
00000010: 8800 3fbd c973 7ebd 7d65 0a3d 70e6 4cbc
00000020: eaef 393c d843 c93d 2ccc b23d a1a9 aa3d
00000030: 2709 4cbd 4559 39bd 78df 1f3d ed27 b43d
0.09192711 0.090874285 -0.055001076 0.09184022 -0.046631366 -0.06212214 0.033788193 -0.012506112
0.011348704 0.09827393 0.08730349 0.083331354 -0.049813416 -0.04525115 0.039031476 0.08796678

up3.up_conv.1.running_mean f4 [16]
00000000: 7228 3d3e a177 67be 935b 893d dc69 09bd
00000010: b401 07bd a75c b2be db35 0ebe 5106 24be
00000020: 5782 143d 22db a7bd 41ea 68be 68a6 ee3b
00000030: d985 03be 17fd 333e 4373 223f 7ac3 ddbe
0.1847246 -0.22604229 0.067069195 -0.03354822 -0.03296061 -0.34836313 -0.13887732 -0.16018035
0.036257114 -0.08196093 -0.22745611 0.0072830208 -0.12844028 0.17577015 0.63457125 -0.433132

up3.up_conv.1.running_var f4 [16]
00000000: 4b5a 933e 7da2 023f d498 243e 4588 503e
00000010: 4cd9 1b3e 2d8c ef3d 5513 9f3e f5c2 253e
00000020: 9543 2f3e 8ca5 fc3e bdfe 2b3e bf85 833e
00000030: 926b 033e 655a 263e 7e62 ab3e 4dcc 623e
0.28779826 0.5102919 0.16073924 0.20364483 0.15219611 0.11696658 0.31069437 0.16187651
0.17115624 0.49345052 0.16796394 0.25687978 0.12834004 0.1624542 0.3347358 0.22148247

out.outconv.0.weight f4 [1, 16, 3]
00000000: c721 4bbd 8987 64be 30fe bebd 2b76 17be
00000010: 861d a83c aa00 3abe 6cd0 793d 10e0 ac3d
00000020: 32b6 b23d b04f 3bbe f2fa 213c 280f 0cbe
00000030: f2a0 ae3d 2321 c33c a800 d9bd 9671 8a3d
00000040: a8fe ce3c 9023 1cbd ddbc dbbc 3302 14be
00000050: ca0c 993c 6328 4cbe fca9 813d 93a5 543d
00000060: 7027 29be b248 a93c b2a6 753c d9c2 f8bd
00000070: 7340 a4bd 22ce 8ebd b5d8 c7bc 500f 04be
00000080: 8dd9 29be 854b 56be 75fb a2bc a94b 4cbe
00000090: 3b05 d1bd 41cc 6b3d c068 353d 55e1 b8bc
000000a0: 8b5a 663d 16e7 8c3d d7bf 99bd 1059 a33c
000000b0: 0438 01be 0ba2 543c 3832 35be c103 46be
-0.04959276 -0.22317328 -0.09325826 -0.14791171 0.02052189 -0.18164316 0.060989782 0.08441174
0.08726157 -0.18292117 0.00988649 -0.13677657 0.08526792 0.023819512 -0.10595828 0.06759946
0.025267914 -0.038119853 -0.026823455 -0.14453964 0.018682856 -0.19937281 0.0633125 0.051915716
-0.1651895 0.020664547 0.014993357 -0.12146539 -0.08020105 -0.069729105 -0.024395326 -0.12896466
-0.16586895 -0.20927246 -0.019895295 -0.19950737 -0.10206076 0.05756784 0.04428935 -0.022568384
0.056238692 0.06880014 -0.07507294 0.01993993 -0.12619025 0.012978087 -0.17694938 -0.1933737
