CNN+RNN/best_model_net0.pth (torch, 140451 bytes, 22 tensors)

inc.conv.0.weight f4 [16, 1, 3]
0.2226295 -0.18063547 0.041712977 -0.49420708 0.49058017 -0.11044911 0.13332531 -0.39507592
0.27256325 0.30126256 0.28606495 0.080193914 0.39425322 0.4684817 0.22412713 -0.29854518
0.57781 -0.29490083 -0.04546615 0.49567664 0.0020134537 -0.37834355 -0.6290706 -0.2008731
0.17037755 0.32097715 0.051201537 -0.14859936 0.46072596 -0.47537744 -0.549722 0.06474769
0.03844814 0.38951364 -0.45368257 -0.0681733 -0.37385535 0.3185094 0.080419384 0.06648082
0.45990056 -0.091852926 0.52840817 0.034105577 -0.050025113 -0.054990448 0.35879222 -0.20843802
00000000: fdf8 633e 81f8 38be 3adb 2a3d b608 fdbe
00000010: 532d fb3e 2533 e2bd 6e86 083e 6447 cabe
00000020: 698d 8b3e 163f 9a3e 1b77 923e b53c a43d
00000030: 8fdb c93e d5dc ef3e 9581 653e eada 98be
00000040: 5beb 133f 3efd 96be b73a 3abd 54c9 fd3e
00000050: 26f4 033b 3fb6 c1be c50a 21bf aeb1 4dbe
00000060: 7477 2e3e 1e57 a43e b4b8 513d 6e2a 18be
00000070: 46e4 eb3e ac64 f3be 95ba 0cbf 709a 843d
00000080: cc7b 1d3d 556e c73e 1549 e8be 719e 8bbd
00000090: f869 bfbe aa13 a33e ebb2 a43d 1927 883d
000000a0: 1678 eb3e 631d bcbd c245 073f 4ab2 0b3d
000000b0: 22e7 4cbd aa3d 61bd 9db3 b73e c770 55be

inc.conv.0.bias f4 [16]
0.36118695 -0.35392892 -0.24932632 0.553442 0.05867442 -0.08787744 0.29695842 0.35168406
-0.20032917 -0.35949287 -0.1627124 0.49787426 -0.2883719 -0.3535551 0.4369985 -0.57105535
00000000: 7fed b83e 2c36 b5be 664f 7fbe 60ae 0d3f
00000010: 9754 703d 16f9 b3bd ef0a 983e ef0f b43e
00000020: 1723 4dbe 730f b8be 149e 26be 60e9 fe3e
00000030: 7ba5 93be 2d05 b5be 44be df3e af30 12bf

inc.conv.1.weight f4 [16]
1.1726013 0.9137718 1.2141904 0.94234943 0.99161905 0.940632 0.9683042 1.0812324
0.97183126 0.96875864 0.9863256 0.9668701 1.0508026 0.9811315 0.9828195 1.0393839
00000000: cd17 963f f3ec 693f 976a 9b3f d03d 713f
00000010: bfda 7d3f 42cd 703f c9e2 773f d365 8a3f
00000020: efc9 783f 9100 783f d67f 7c3f cd84 773f
00000030: b380 863f 6f2b 7b3f 0f9a 7b3f 880a 853f

inc.conv.1.bias f4 [16]
0.076439805 0.10049987 0.37201735 -0.024686212 -0.010795086 0.18961704 0.060011696 0.002798299
0.0005530756 0.100900955 0.011942776 0.31891516 0.12619175 0.017371481 0.0065103504 -0.0337358
00000000: 798c 9c3d e0d2 cd3d 0f79 be3e bd3a cabc
00000010: dfdd 30bc f82a 423e d3ce 753d ab63 373b
00000020: 46fc 103a 29a5 ce3d a2ab 433c d948 a33e
00000030: 6938 013e a34e 8e3c c754 d53b 8d2e 0abd

inc.conv.1.running_mean f4 [16]
0.36304322 -0.356454 -0.24923564 0.56837654 0.083050594 -0.08806267 0.3070637 0.3245484
-0.18808915 -0.36299613 -0.17262346 0.4950184 -0.28775695 -0.3437922 0.44849324 -0.56897604
00000000: cde0 b93e 2481 b6be a137 7fbe 2081 113f
00000010: 6e16 aa3d 335a b4bd 7437 9d3e 352b a63e
00000020: 719a 40be a1da b9be 34c4 30be 0d73 fd3e
00000030: e154 93be 8805 b0be e8a0 e53e 6aa8 11bf

inc.conv.1.running_var f4 [16]
7.733346e-07 2.2950728e-06 5.6031473e-07 3.4739227e-05 9.184715e-05 1.056858e-06 1.6236352e-05 0.00011359165
2.2944016e-05 3.2621035e-06 1.662075e-05 2.5074744e-06 9.660591e-07 1.5007444e-05 2.141291e-05 1.0990766e-06
00000000: 2697 4f35 0d05 1a36 8968 1635 f6b4 1138
00000010: 109e c038 5dd9 8d35 4d33 8837 0d38 ee38
00000020: e677 c037 83ea 5a36 ca6c 8b37 1546 2836
00000030: 8aa9 8135 7bc8 7b37 e09f b337 fc83 9335

down1.maxpool_conv.1.conv.0.weight f4 [32, 16, 3]
0.04496419 -0.02540094 0.055264797 0.000852751 -0.09089578 -0.0124347685 0.1504085 0.23931293
0.030176995 0.09902117 0.041285615 -0.13293752 -0.07928177 -0.11883483 0.13135344 -0.07969548
-0.15017872 -0.023418756 0.008576963 -0.02568259 -0.08882565 0.13076235 0.121773794 -0.00472775
-0.033944037 0.03955613 -0.058136594 -0.054724507 -0.053102862 -0.015895355 -0.029105937 -0.058435746
-0.0012224158 0.00046364276 0.1401357 0.04951119 0.028371861 -0.03188918 0.0030252119 0.0654062
0.079625964 0.1016705 -0.03800684 -0.053582855 -0.020520387 -0.019205974 -0.03943159 0.04059303
0.10073042 -0.07489097 -0.21830042 0.011857765 0.10540224 -0.022812927 -0.03752808 0.03289597
-0.0975421 0.018577827 -0.22508465 0.100943886 0.07605688 -0.071015015 0.046556436 0.045888014
0.053254504 0.06170235 -0.0071939416 0.0153988805 0.12531108 -0.03922632 -0.15553877 -0.16167518
0.00010525084 0.02744621 -0.08420781 -0.12130747 -0.07077734 0.020718934 -0.01635171 -0.11853796
0.051586073 -0.05087149 -0.06743894 -0.06285188 -0.13065471 0.097028345 0.11347796 -0.00016705826
-0.15740024 0.023056211 0.1026077 -0.0067099985 0.027742762 0.078290805 -0.14939123 0.07009072
-0.082328364 -0.025901543 0.10134749 -0.03950689 0.006234192 -0.008685972 -0.30709928 0.11292894
-0.024532435 -0.06551098 -0.07811464 0.11869703 0.0077289203 -0.08625482 -0.13039264 0.109168515
-0.0032133488 0.05080518 -0.064568914 -0.11678602 -0.05134508 0.012205482 0.04058278 0.036401547
-0.017593991 0.13807261 0.005531876 0.16424103 -0.057509806 -0.013231678 -0.13535213 0.09272138
-0.08522045 0.07435335 -0.044458404 -0.07858946 0.013672985 0.15493162 0.053840507 0.0890131
0.057166416 0.070238024 0.09886321 -0.0585855 -0.053831235 0.06836965 0.18089712 -0.039071847
-0.03774662 -0.18980348 -0.04246594 0.10984681 0.14347588 -0.070094556 -0.10564134 -0.21801004
-0.09991835 -0.027641585 0.0948696 0.015201304 0.09917299 -0.10595715 0.049700238 0.061193198
0.10262025 0.062122043 -0.085180834 0.08279293 -0.016942339 -0.053413216 -0.02272739 0.0055426797
-0.08668875 0.14549774 -0.10772406 -0.0014286282 0.020616094 -0.06655536 -0.096116126 0.00481588
0.117935605 -0.08689408 -0.07159939 -0.03232359 -0.033042323 0.13999248 0.14862637 -0.015620873
0.16254403 -0.036733415 0.09010049 0.11616237 -0.14420849 0.1293387 -0.025681604 0.18835263
-0.031579044 -0.036039397 -0.06716969 0.024527911 0.03134747 -0.019850373 0.044340175 0.16182126
0.17612919 -0.052384462 -0.029652363 -0.018712986 -0.035627246 -0.087969236 0.0126064075 -0.037938923
-0.08055625 -0.12851351 0.021451212 0.06367578 -0.09663292 -0.05052957 0.09770204 0.08902456
0.10875964 0.07080115 -0.050269824 -0.060989223 -0.16605598 0.04113751 0.017389437 0.01749464
-0.10630978 0.044087145 0.088713 0.14282456 0.00891982 -0.050128266 -0.06793246 -0.13598281
-0.0763293 0.1010572 0.053685017 0.05915234 0.0030764462 0.06996441 0.08610023 0.04771207
-0.1187712 -0.041906055 -0.1869777 -0.0037956706 -0.06525677 0.0059087775 -0.06274553 -0.09202512
-0.07573766 0.122137934 -0.070184454 0.07560269 0.10761309 -0.10063776 -0.0059931474 -0.002146162
00000000: 5f2c 383d a215 d0bc 575d 623d 278b 5f3a
00000010: 9127 babd 33bb 4bbc b004 1a3e 730e 753e
00000020: bf35 f73c 9ccb ca3d 1b1b 293d c620 08be
00000030: 7b5e a2bd ad5f f3bd 8481 063e 6237 a3bd
00000040: 73c8 19be b1d8 bfbc 6486 0c3c 4c64 d2bc
00000050: 39ea b5bd 91e6 053e 8a64 f93d 3eeb 9abb
00000060: e708 0bbd 9c05 223d a320 6ebd ce26 60bd
00000070: 6382 59bd fa36 82bc 936f eebc 525a 6fbd
00000080: 7839 a0ba 1415 f339 bc7f 0f3e 3fcc 4a3d
00000090: 1b6c e83c 3b9e 02bd a242 463b b0f3 853d
000000a0: f012 a33d a038 d03d 0fad 1bbd b279 5bbd
000000b0: 5f1a a8bc d955 9dbc 0583 21bd e144 263d
000000c0: c04b ce3d 7060 99bd 258a 5fbe 1247 423c
000000d0: 21dd d73d 2de2 babc 0bb7 19bd edbd 063d
000000e0: 27c4 c7bd 8730 983c 977c 66be abbb ce3d
000000f0: b6c3 9b3d 5270 91bd f6b1 3e3d 12f5 3b3d
00000100: 6521 5a3d 9abb 7c3d 28bb ebbb 964b 7c3c
00000110: 8c51 003e c7ab 20bd 8e45 1fbe 2e8e 25be
00000120: 1dba dc38 e0d6 e03c 2575 acbd 0d70 f8bd
00000130: b6f3 90bd c1ba a93c 05f4 85bc 08c4 f2bd
00000140: eb4b 533d a05e 50bd 6d1d 8abd 7db8 80bd
00000150: 59ca 05be ccb6 c63d 2267 e83d 5c2c 2fb9
00000160: 872d 21be 61e0 bc3c fc23 d23d 8cdf dbbb
00000170: ca44 e33c ee56 a03d 04fa 18be b98b 8f3d
00000180: c69b a8bd 792f d4bc 468f cf3d fad1 21bd
00000190: 3148 cc3b 9b4f 0ebc 1e3c 9dbe 4a47 e73d
000001a0: 3ff8 c8bc 9f2a 86bd 92fa 9fbd 6e17 f33d
000001b0: e242 fd3b 5ea6 b0bd a685 05be be93 df3d
000001c0: 0c97 52bb 1819 503d b53c 84bd 822d efbd
000001d0: 384f 52bd 81f9 473c 213a 263d ca19 153d
000001e0: 4621 90bc e862 0d3e bd44 b53b cd2e 283e
000001f0: 678f 6bbd aec9 58bc c099 0abe b5e4 bd3d
00000200: 0f88 aebd 9246 983d 041a 36bd 83f3 a0bd
00000210: a804 603c 65a6 1e3e dd87 5c3d 804c b63d
00000220: 5527 6a3d f4d8 8f3d cb78 ca3d 59f7 6fbd
00000230: 247e 5cbd 6305 8c3d 183d 393e cd09 20bd
00000240: 339c 1abd d85b 42be c4f0 2dbd 5df7 e03d
00000250: 57eb 123e bc8d 8fbd 7d5a d8bd 063e 5fbe
00000260: fea1 ccbd 9b70 e2bc fe4a c23d e40e 793c
00000270: 351b cb3d 1000 d9bd 7a92 4b3d b8a5 7a3d
00000280: 912a d23d af73 7e3d 4a73 aebd 578f a93d
00000290: a9ca 8abc d1c7 5abd cb2e babc 5e9f b53b
000002a0: df89 b1bd 5cfd 143e 6f9e dcbd cf40 bbba
000002b0: 15e3 a83c 2d4e 88bd 88d8 c4bd 88ce 9d3b
000002c0: 3988 f13d 86f5 b1bd b3a2 92bd be65 04bd
000002d0: 6357 07bd 305a 0f3e 8331 183e b1ee 7fbc
000002e0: f171 263e c775 16bd 9b86 b83d 89e6 ed3d
000002f0: 64ab 13be 5d71 043e 3a62 d2bc 83df 403e
00000300: 0759 01bd 0c9e 13bd 4390 89bd c2ee c83c
00000310: 3466 003d 409d a2bc 0b9e 353d 79b4 253e
00000320: 365b 343e 1791 56bd 83e9 f2bc fa4b 99bc
00000330: e0ed 11bd 3729 b4bd 1b8b 4e3c d865 1bbd
00000340: adfa a4bd 0c99 03be 74ba af3c 7368 823d
00000350: 7be7 c5bd 18f8 4ebd 0218 c83d 8252 b63d
00000360: 60bd de3d 3100 913d bbe7 4dbd d6cf 79bd
00000370: 940a 2abe ce7f 283d 4b74 8e3c eb50 8f3c
00000380: f1b8 d9bd b994 343d 29af b53d 9a40 123e
00000390: 7024 123c 4c53 4dbd 2c20 8bbd 143f 0bbe
000003a0: 8952 9cbd 14f7 ce3d d2e4 5b3d b949 723d
000003b0: 349e 493b 8049 8f3d 5155 b03d bb6d 433d
000003c0: 513e f3bd afa5 2bbd 1577 3fbe c9c0 78bb
000003d0: 57a5 85bd 6b9e c13b ba80 80bd ab77 bcbd
000003e0: 591c 9bbd 7423 fa3d debc 8fbd 95d5 9a3d
000003f0: 4064 dc3d 2b1b cebd 2a62 c4bb a0a6 0cbb

down1.maxpool_conv.1.conv.0.bias f4 [32]
-0.17061259 -0.065045975 -0.0340176 0.025534505 -0.15370691 -0.021024691 0.03372463 0.08692558
-0.10827398 -0.15274826 -0.09850796 0.07784102 0.085287385 -0.084320955 0.05680205 0.0003869259
-0.07123184 -0.0038209553 0.06379681 -0.08916247 -0.06981064 0.0477451 -0.110477336 0.048443183
-0.13005677 0.027777335 -0.038934983 -0.008898664 -0.033703383 -0.09917218 0.14028862 0.107364506
00000000: 11b5 2ebe d336 85bd 0a56 0bbd bd2d d13c
00000010: 5865 1dbe f93b acbc d622 0a3d 0a06 b23d
00000020: c0be ddbd 0a6a 1cbe 8bbe c9bd 1d6b 9f3d
00000030: 27ab ae3d 77b0 acbd 44a9 683d 51dc ca39
00000040: 00e2 91bd fe68 7abb e7a7 823d d09a b6bd
00000050: e1f8 8ebd 5e90 433d f141 e2bd 5c6c 463d
00000060: 9a2d 05be 4b8d e33c 4a7a 1fbd b4cb 11bc
00000070: 8f0c 0abd c91a cbbd d2a7 0f3e ece1 db3d

down1.maxpool_conv.1.conv.1.weight f4 [32]
1.0613139 0.9521632 0.9117107 1.0136415 0.9909186 0.986922 1.0267986 0.9979987
0.9653263 1.0312161 0.9285917 0.9934568 0.9927304 1.0049562 1.0059947 0.89592034
0.95700276 0.93903315 1.0006233 1.084972 0.9590346 0.990837 1.0023935 1.0389521
1.0040251 1.026153 1.0064462 1.010427 0.9984882 0.9822531 0.9649267 0.98525333
00000000: 22d9 873f f8c0 733f df65 693f 01bf 813f
00000010: d7ac 7d3f eca6 7c3f 236e 833f d87c 7f3f
00000020: a01f 773f e4fe 833f 30b8 6d3f 2f53 7e3f
00000030: 9423 7e3f 68a2 803f 6fc4 803f 095b 653f
00000040: 22fe 743f 7a64 703f 6d14 803f 5de0 8a3f
00000050: 4b83 753f 7ea7 7d3f 6e4e 803f 62fc 843f
00000060: e583 803f fb58 833f 3bd3 803f ac55 813f
00000070: ec9c 7f3f f074 7b3f 7005 773f 9039 7c3f

down1.maxpool_conv.1.conv.1.bias f4 [32]
0.21537453 -0.0019093722 0.20532219 0.03624825 0.107353054 0.043591015 0.19858427 0.006494908
0.00043757673 0.1257261 0.06957604 0.049106155 0.07615188 0.012181654 0.047496885 0.14432496
0.10207945 0.13007475 0.20519966 0.101748094 0.072202116 0.14140198 0.1923423 0.079598315
0.044618834 0.044956956 0.019043606 0.021017926 0.12612212 0.06938499 -0.110161945 0.0065619405
00000000: 248b 5c3e e643 faba fb3f 523e 0c79 143d
00000010: ebdb db3d 7e8c 323d ad59 4b3e 3dd3 d43b
00000020: 8e6a e539 58be 003e e27d 8e3d 8923 493d
00000030: 84f5 9b3d 8f95 473c 188c 423d ecc9 133e
00000040: 080f d13d 5132 053e dc1f 523e 4e61 d03d
00000050: b4de 933d aecb 103e 61f5 443e 7104 a33d
00000060: 3dc2 363d c924 383d 5601 9c3c c92d ac3c
00000070: 2826 013e b819 8e3d 969c e1bd 8c05 d73b

down1.maxpool_conv.1.conv.1.running_mean f4 [32]
0.025155375 -0.38640812 -0.10252361 -0.053784534 0.007318235 -0.096621275 -0.10350951 0.22069126
0.08033355 -0.114563115 -0.12111356 0.105939075 0.01123574 -0.18908201 -0.32366964 0.15679893
-0.21385507 0.13894938 0.12769726 -0.020709027 -0.09295055 0.16037992 -0.26368123 0.062178675
-0.17026627 0.14175476 -0.115529664 -0.11453577 0.04560153 -0.2174284 -0.27750948 -0.25679198
00000000: a512 ce3c 49d7 c5be e6f7 d1bd 2c4d 5cbd
00000010: cecd ef3b 60e1 c5bd cbfc d3bd e4fc 613e
00000020: eb85 a43d 11a0 eabd 630a f8bd 96f6 d83d
00000030: 1c16 383c b79e 41be 07b8 a5be e68f 203e
00000040: d3fc 5abe bf48 0e3e 12c3 023e faa5 a9bc
00000050: dc5c bebd a23a 243e 3a01 87be 11af 7e3d
00000060: 485a 2ebe 2928 113e d19a ecbd bb91 eabd
00000070: abc8 3a3d 8da5 5ebe b915 8ebe 3d7a 83be

down1.maxpool_conv.1.conv.1.running_var f4 [32]
0.032953482 0.0983398 0.0142399985 0.049099095 0.019741265 0.06373528 0.039689086 0.106005274
0.105919 0.2068646 0.076460905 0.19925849 0.04264853 0.04092132 0.07269944 0.027131293
0.04080922 0.03618259 0.076475024 0.14329721 0.02806847 0.07483843 0.097477436 0.117192104
0.30799112 0.09792038 0.2889157 0.03070837 0.13271086 0.032708034 0.09057043 0.11544164
00000000: 3bfa 063d 6166 c93d e24e 693c 221c 493d
00000010: 6fb8 a13c a487 823d 0691 223d 4b19 d93d
00000020: 10ec d83d 50d4 533e 8997 9c3d 6b0a 4c3e
00000030: 3ab0 2e3d 1d9d 273d 72e3 943d 7242 de3c
00000040: 9227 273d 3234 143d f09e 9c3d 81bc 123e
00000050: d9ef e53c e444 993d 40a2 c73d 6a02 f03d
00000060: 03b1 9d3e 7b8a c83d c2ec 933e 1f90 fb3c
00000070: 5be5 073e dcf8 053d fd7c b93d ab6c ec3d

down2.maxpool_conv.1.conv.0.weight f4 [64, 32, 3]
-0.038355846 0.013875204 0.006410851 -0.07680724 0.103501394 -0.023385974 -0.032712374 0.03239303
0.0461189 -0.03497864 0.03021771 0.029676335 -0.10702894 0.11868566 -0.03904402 -0.032288145
-0.034516763 -0.0023510284 0.08340362 0.14368454 0.0126196565 0.04257683 -0.025242407 0.010938274
-0.058890887 -0.01034051 -0.07433407 -0.057196245 0.05280438 0.10660649 -0.046895035 -0.03343356
0.046012796 0.059984595 0.020204386 0.041908305 -0.1120735 0.0040772706 -0.0017516856 -0.06718485
0.0038326832 0.076059274 -0.040681124 -0.049416073 -0.059551913 0.076134615 -0.062304977 0.017115472
0.014193514 0.08794827 -0.055323776 0.030365087 -0.00058695266 -0.054897476 0.027429823 -0.12238398
0.014195397 0.013871 -0.050799448 -0.093126506 0.028633842 0.005929191 -0.0022509103 0.08205155
-0.06315088 0.015540891 -0.018403701 0.02851773 -0.05433823 -0.0022996971 0.025624646 -0.037561204
-0.083939075 0.006916456 -0.017307064 0.07435964 -0.09560831 0.069907695 -0.08369963 -0.043605316
-0.05621975 -0.012589107 0.05964978 0.025636347 -0.07852747 -0.020283865 0.0931675 0.02535549
0.12474192 -0.06966747 0.00016300337 -0.05616737 0.062400825 -0.08180066 0.09572827 -0.009024445
0.009252491 0.08407143 0.039464083 -0.10418595 -0.06472521 0.0006900197 0.010423203 0.024349915
-0.004691504 0.077687 0.087410174 -0.07075308 -0.08395425 0.0012847338 0.0024066232 -0.022257935
-0.08668054 -0.13303605 -0.03462014 0.014512491 -0.007848884 0.072622664 -0.053258922 0.036369286
0.09216151 0.11699117 -0.042329073 0.026768392 -0.03861587 -0.008690155 -0.06711416 0.06523809
0.055559658 0.013252443 0.08538114 0.04712708 -0.013524429 0.047327776 0.008105134 0.037230298
-0.018607493 0.0110392105 -0.10444625 -0.13204797 -0.00892439 -0.07867477 -0.119736455 -0.031586066
-0.002231315 -0.0070351786 0.056375932 0.012876089 -0.027472269 -0.015428968 -0.08263513 -0.05215468
0.008083131 -0.05580888 -0.025037326 0.04555036 -0.054802608 0.11538189 -0.016556004 -0.095500275
0.049413357 0.09349257 0.04127741 0.118709266 -0.1362733 -0.012230955 0.054708928 0.043471213
-0.052642256 -0.089473166 0.024755878 -0.11807534 0.105261885 -0.015937127 -0.08238879 0.059260126
0.08702795 0.05498966 0.047059957 0.07700037 0.007264279 -0.02124144 -0.095325276 0.020314485
-0.041285243 0.022235837 -0.056073952 -0.052418396 0.022698717 0.04037403 0.07951586 0.02828559
-0.06779508 0.102762334 -0.12982407 0.021006174 -0.018973053 0.0011973422 0.001350385 0.047725327
0.0006179746 0.0974563 -0.064773604 0.01867656 -0.029340066 0.1438531 -0.037461247 0.0017082838
-0.08786485 0.03273042 0.010591882 -0.054751355 0.044577 -0.0819727 0.05847881 -0.06901012
0.094409555 -0.035798863 -0.046846848 -0.05513182 -0.07685948 0.0024989543 -0.0036006337 0.04061915
0.06665101 -0.017718716 -0.01197142 0.054605663 0.0051503517 -0.057113737 0.069579825 0.064565524
-0.009358508 0.05879578 -0.04760357 0.045209307 0.032854963 0.012816974 0.059372865 -0.09170473
-0.02039776 -0.04809035 -0.06681191 0.0561456 -0.0030363698 0.04497464 -0.00794108 -0.0018725634
-0.018560387 0.047899816 -0.026950724 -0.07443583 -0.0037679514 -0.10539779 0.00097851 -0.07820664
00000000: 051b 1dbd d354 633c 1e12 d23b 1d4d 9dbd
00000010: 8af8 d33d f193 bfbc 69fd 05bd 8eae 043d
00000020: 2ce7 3c3d c345 0fbd 228b f73c c91b f33c
00000030: fd31 dbbd 7811 f33d 9fec 1fbd 9340 04bd
00000040: 7361 0dbd b613 1abb 84cf aa3d 0a22 133e
00000050: adc2 4e3c 0b65 2e3d 2ac9 cebc 7236 333c
00000060: 9237 71bd 3e6b 29bc 763c 98bd 9c46 6abd
00000070: 6849 583d 8154 da3d 0215 40bd a1f1 08bd
00000080: ea77 3c3d 68b2 753d ab83 a53c 0ba8 2b3d
00000090: cb86 e5bd a09a 853b d198 e5ba 3698 89bd
000000a0: c12d 7b3b f7c4 9b3d 40a1 26bd 8268 4abd
000000b0: b5ec 73bd 77ec 9b3d 8133 7fbd bf35 8c3c
000000c0: ea8b 683c 391e b43d 2f9b 62bd 34c0 f83c
000000d0: badd 19ba 2ddc 60bd 82b4 e03c 74a4 fabd
000000e0: cf93 683c 3143 633c 1513 50bd 1cb9 bebd
000000f0: 8591 ea3c a949 c23b 0284 13bb a50a a83d
00000100: 4055 81bd 399f 7e3c 5cc3 96bc 049e e93c
00000110: c491 5ebd 84b6 16bb c7ea d13c c7d9 19bd
00000120: 40e8 abbd 70a3 e23b 8bc7 8dbc de49 983d
00000130: 4ace c3bd c42b 8f3d b66a abbd 7d9b 32bd
00000140: ae46 66bd 8b42 4ebc 5453 743d 5103 d23c
00000150: 03d3 a0bd 592a a6bc 9ace be3d 51b6 cf3c
00000160: b178 ff3d d2ad 8ebd e2eb 2a39 c20f 66bd
00000170: 0298 7f3d 1b87 a7bd 2f0d c43d 44db 13bc
00000180: c397 173c a42d ac3d 17a5 213d 715f d5bd
00000190: a78e 84bd 70e2 343a 15c6 2a3c 7979 c73c
000001a0: 30bb 99bb 5d1a 9f3d 1b04 b33d fee6 90bd
000001b0: 35f0 abbd 8364 a83a 70b8 1d3b 4656 b6bc
000001c0: 9185 b1bd 9a3a 08be d9cd 0dbd cdc5 6d3c
000001d0: 9b98 00bc 31bb 943d 0726 5abd f6f7 143d
000001e0: 2cbf bc3d 1199 ef3d 4061 2dbd 6349 db3c
000001f0: ad2b 1ebd 2761 0ebc 2673 89bd 8c9b 853d
00000200: 8692 633d c620 593c 4fdc ae3d 5308 413d
00000210: 9195 5dbc c5da 413d 65cb 043c cc7e 183d
00000220: be6e 98bc cedd 343c eae7 d5bd 9537 07be
00000230: 9b37 12bc 3d20 a1bd 6338 f5bd 6460 01bd
00000240: 413b 12bb 5b87 e6bb 73ea 663d 3bf6 523c
00000250: 860d e1bc c8c9 7cbc 9b3c a9bd 25a0 55bd
00000260: 1c6f 043c da97 64bd 141b cdbc 0493 3a3d
00000270: b378 60bd 574d ec3d 75a0 87bc a695 c3bd
00000280: a965 4a3d 0879 bf3d 8012 293d d81d f33d
00000290: 3a8b 0bbe 5864 48bc 7816 603d df0e 323d
000002a0: 689f 57bd b53d b7bd d7cc ca3c 7cd1 f1bd
000002b0: 8b93 d73d 948e 82bc 74bb a8bd bfba 723d
000002c0: b63b b23d d63c 613d f1c1 403d 5fb2 9d3d
000002d0: 3009 ee3b 8702 aebc e639 c3bd 906a a63c
000002e0: b71a 29bd ee27 b63c cdad 65bd acb4 56bd
000002f0: a9f2 b93c 3d5f 253d 36d9 a23d 2eb7 e73c
00000300: 26d8 8abd 0f75 d23d 9af0 04be 2415 ac3c
00000310: 606d 9bbc 23f0 9c3a 67ff b03a a27b 433d
00000320: 93ff 213a 2b97 c73d 06a8 84bd 96ff 983c
00000330: 945a f0bc 3a4e 133e f770 19bd 7ee8 df3a
00000340: 7df2 b3bd 5510 063d 9389 2d3c f542 60bd
00000350: 5f96 363d 4ee1 a7bd 7a87 6f3d 2e55 8dbd
00000360: cc59 c13d d4a1 12bd 7be2 3fbd e7d1 61bd
00000370: 8168 9dbd 7fc5 233b 9cf8 6bbb 4460 263d
00000380: 5380 883d d726 91bc c623 44bc 30aa 5f3d
00000390: 48c4 a83b 18f0 69bd de7f 8e3d ee3a 843d
000003a0: 6d54 19bc d8d3 703d f6fb 42bd 652d 393d
000003b0: ed92 063d 49fe 513c f630 733d b1cf bbbd
000003c0: 3419 a7bc 63fa 44bd afd4 88bd eef8 653d
000003d0: d5fd 46bb 5437 383d 4e1b 02bc cd70 f5ba
000003e0: f40b 98bc 9932 443d c4c7 dcbc d071 98bd
000003f0: bcef 76bb ccda d7bd 5941 803a ce2a a0bd

down2.maxpool_conv.1.conv.0.bias f4 [64]
0.06813529 -0.010729224 -0.0025703567 0.07953917 -0.07160811 -0.099736065 0.064284004 0.03261142
0.072003715 -0.0015728709 0.0028756352 0.07341453 0.012182764 -0.030905284 -0.09443124 -0.06546542
0.028205128 -0.015423025 -0.03284754 0.088459216 -0.06528701 0.03878487 0.082024224 0.05844401
-0.083637446 -0.098895155 -0.0032298064 -0.070079885 -0.05640297 0.027938213 -0.11344849 -0.012383022
0.0588085 -0.10539411 -0.081181064 -0.0782006 -0.07673957 0.020330748 0.03496911 -0.0013235267
0.07588704 -0.0805404 -0.045815647 0.07899088 0.049274944 -0.003575792 0.034240413 0.05198858
-0.081264794 -0.06705874 -0.041274052 -0.100602284 -0.032266054 -0.01700883 -0.07575431 -0.024360232
-0.07094161 0.009040138 -0.093389794 0.058459017 0.036016446 0.010711065 -0.001382395 0.030949201
00000000: 848a 8b3d a1c9 2fbc 6e73 28bb 6fe5 a23d
00000010: 46a7 92bd 6c42 ccbd 55a7 833d 8d93 053d
00000020: af76 933d ca28 ceba 2775 3c3b 5b5a 963d
00000030: 379a 473c 142d fdbc 2a65 c1bd bc12 86bd
00000040: 710e e73c dbb0 7cbc 248b 06bd 1b2a b53d
00000050: 32b5 85bd e2dc 1e3d 51fc a73d fc62 6f3d
00000060: 1c4a abbd 8b89 cabd 29ab 53bb 0b86 8fbd
00000070: cd06 67bd aede e43c af57 e8bd 29e2 4abc
00000080: 2fe1 703d ded8 d7bd 4242 a6bd a327 a0bd
00000090: a329 9dbd ab8c a63c c53b 0f3d 307a adba
000000a0: aa6a 9b3d 5ef2 a4bd 30a9 3bbd f8c5 a13d
000000b0: 86d4 493d d657 6abb ad3f 0c3d faf1 543d
000000c0: 286e a6bd 1856 89bd fb0e 29bd 9208 cebd
000000d0: 6929 04bd 1a56 8bbc 1325 9bbd 1c8f c7bc
000000e0: d649 91bd 161d 143c 2643 bfbd b972 6f3d
000000f0: fb85 133d 767d 2f3c 7b31 b5ba 2e89 fd3c

down2.maxpool_conv.1.conv.1.weight f4 [64]
1.0068036 1.058743 0.9922268 1.0097461 0.9536023 1.0143498 1.0680213 0.9928386
1.0230396 0.99607927 1.023564 0.98640835 1.0313919 0.99339294 1.0429806 1.0284374
0.96530104 1.0017679 1.041492 0.987457 1.1127918 0.99175984 1.0318494 0.9723342
1.0808864 1.056749 1.0593779 1.0079283 1.0879434 1.0121003 1.0179331 1.033783
1.0502297 1.0500654 0.93417037 0.9735903 0.991322 0.9897631 1.0200443 1.0181249
1.0262814 1.0139644 1.0378498 1.012717 0.95901185 0.9987631 1.0100335 0.98580325
0.98399276 1.0231363 1.0359415 0.9829897 0.99078345 0.9814312 1.0137024 1.0217019
1.0114905 0.99365056 1.0392797 1.00835 1.016412 1.0136075 0.9912273 1.0076518
00000000: f1de 803f e484 873f 9302 7e3f 5c3f 813f
00000010: 481f 743f 37d6 813f ecb4 883f ac2a 7e3f
00000020: f6f2 823f 0dff 7e3f 2504 833f 4285 7c3f
00000030: a604 843f 004f 7e3f 6380 853f d6a3 833f
00000040: f81d 773f ee39 803f 9c4f 853f fbc9 7c3f
00000050: f66f 8e3f f9e3 7d3f a413 843f e5ea 783f
00000060: 7c5a 8a3f 8d43 873f b299 873f cb03 813f
00000070: bb41 8b3f 818c 813f a24b 823f 0053 843f
00000080: ed6d 863f 8b68 863f ca25 6f3f 373d 793f
00000090: 47c7 7d3f 1d61 7d3f d090 823f eb51 823f
000000a0: 305d 833f 96c9 813f 43d8 843f b6a0 813f
000000b0: cd81 753f f0ae 7f3f c748 813f 9a5d 7c3f
000000c0: f3e6 7b3f 21f6 823f bb99 843f 37a5 7b3f
000000d0: fca3 7d3f 133f 7b3f 00c1 813f 21c7 823f
000000e0: 8578 813f e25f 7e3f 1e07 853f 9d11 813f
000000f0: ca19 823f e4bd 813f 13c1 7d3f bcfa 803f

down2.maxpool_conv.1.conv.1.bias f4 [64]
0.036839552 0.057419933 0.07916126 0.026470538 0.06447753 -0.0029692359 0.010131403 0.013409135
0.03961082 0.0028410973 0.016528536 -0.009907031 0.03410965 0.15733542 0.04980948 0.048566543
0.21491349 0.020986011 0.022636313 -0.010614689 -0.039838195 0.023349699 0.0195763 0.006055715
0.088591486 0.031946473 -0.060310908 0.013704603 0.015435561 0.029898835 0.031535104 0.064474694
0.026985006 0.028012862 0.03569457 0.05272336 -0.010345057 0.025916496 0.0384562 0.021328354
0.03275075 0.013196882 0.011785343 0.013332225 0.10194242 -0.02188603 0.014762377 0.0038648683
-0.057968173 0.036547825 0.014278421 0.055217523 -0.019553853 0.0031531993 0.047211256 0.038070936
0.02760004 0.0004054754 0.08236127 0.011905579 0.021365894 0.020868426 0.02881317 0.13014975
00000000: 12e5 163d 2a31 6b3d 4c1f a23d bed8 d83c
00000010: cc0c 843d 8397 42bb 2ffe 253c fdb1 5b3c
00000020: f53e 223d b431 3a3b da66 873c 1a51 22bc
00000030: 8fb6 0b3d 891c 213e 0605 4c3d b6ed 463d
00000040: 4812 5c3e dbea ab3c ca6f b93c 3ce9 2dbc
00000050: 602d 23bd de47 bf3c 7a5e a03c 056f c63b
00000060: 746f b53d 4eda 023d 9208 77bd 4589 603c
00000070: 6fe5 7c3c 67ee f43c f42a 013d 4f0b 843d
00000080: a90f dd3c 3b7b e53c 7834 123d 73f4 573d
00000090: 507e 29bc d54e d43c 4084 1d3d cdb8 ae3c
000000a0: a725 063d bc37 583c 5017 413c 686f 5a3c
000000b0: 30c7 d03d 554a b3bc e6dd 713c bb49 7d3b
000000c0: 0970 6dbd 2cb3 153d 0af0 693c c52b 623d
000000d0: 672f a0bc e8a5 4e3b 9760 413d 45f0 1b3d
000000e0: 7b19 e23c fd95 d439 07ad a83d 9e0f 433c
000000f0: 8707 af3c 43f4 aa3c 9909 ec3c fa45 053e

down2.maxpool_conv.1.conv.1.running_mean f4 [64]
-0.009142376 -0.06948569 -0.054934267 -0.58555007 -0.053462714 0.8742078 -0.43664405 0.15532427
-0.21868114 -0.45025435 0.25503954 -0.49884924 -0.07672575 0.082986124 0.28425473 -0.08756991
0.2867765 0.0029344207 -0.33385038 -0.5792557 -0.23318549 -0.15129524 0.27559292 0.024354434
0.16475928 -0.29817712 -0.039821684 0.035544187 -0.43060127 -0.3660555 0.015620913 0.2785645
-0.028419545 -0.74729025 -0.004028505 0.04251131 -0.1914585 0.20774688 -0.16944417 -0.24616578
-0.2532281 -0.5530543 -0.49258363 0.17252864 0.0070461263 -0.080942936 -0.14520723 0.035889857
-0.33722192 -0.2568413 0.09033486 0.074494876 -0.07588187 -0.23039661 -0.063110195 0.21312676
0.39468378 0.18486975 -0.091843 0.08232715 -0.083860956 -0.31206155 0.40176386 0.017300677
00000000: e7c9 15bc 834e 8ebd c102 61bd 9ce6 15bf
00000010: b8fb 5abd 15cc 5f3f cf8f dfbe 530d 1f3e
00000020: f3ed 5fbe bd87 e6be 8b94 823e 2b69 ffbe
00000030: 6422 9dbd a1f4 a93d d689 913e da57 b3bd
00000040: 5fd4 923e 694f 403b 70ee aabe 1a4a 14bf
00000050: 2dc8 6ebe 24ed 1abe 841a 8d3e f382 c73c
00000060: a8b6 283e acaa 98be 101c 23bd c896 113d
00000070: c577 dcbe a06b bbbe dcee 7f3c 02a0 8e3e
00000080: 1bd0 e8bc 6a4e 3fbf 8d01 84bb 5720 2e3d
00000090: b20d 44be 99bb 543e c682 2dbe e212 7cbe
000000a0: 1da7 81be f794 0dbf ec33 fcbe 59ab 303e
000000b0: 31e3 e63b 69c5 a5bd 34b1 14be 3e01 133d
000000c0: 5aa8 acbe b480 83be 7c01 b93d c590 983d
000000d0: f467 9bbd 17ed 6bbe eb3f 81bd e73d 5a3e
000000e0: fe13 ca3e 7f4e 3d3e 2f18 bcbd 239b a83d
000000f0: 4bbf abbd 88c6 9fbe feb3 cd3e 26ba 8d3c

down2.maxpool_conv.1.conv.1.running_var f4 [64]
0.19651394 0.13882737 0.054336023 0.5813651 0.09178062 0.69922775 0.1263674 0.13629277
0.123477384 0.2412865 0.26182237 0.14988433 0.234632 0.11649159 0.53697366 0.094217196
0.07797556 0.110385925 0.13939546 0.21246575 0.28403434 0.20362149 0.13855465 0.09402634
0.22447371 0.25909624 0.16166326 0.50776947 0.12448211 0.43746868 0.10307301 0.116165355
0.12351294 0.064647555 0.13554616 0.09103341 0.5110948 0.21656 0.22586097 0.3316834
0.17523219 0.36550993 0.2192358 0.2479097 0.08886261 0.15316798 0.27278543 0.1951557
0.114480235 0.72949576 0.18515512 0.20503208 0.15694085 0.16373818 0.18444417 0.21314321
0.22458367 0.3576348 0.1792103 0.9418547 0.23706807 0.17523238 0.18254615 0.1477954
00000000: f33a 493e c328 0e3e 738f 5e3d 58d4 143f
00000010: 7af7 bb3d 9700 333f 7566 013e 5590 0b3e
00000020: b6e1 fc3d cf13 773e 950d 863e 477b 193e
00000030: 5f43 703e 2593 ee3d 1b77 093f f2f4 c03d
00000040: a7b1 9f3d 0412 e23d afbd 0e3e 9f90 593e
00000050: f36c 913e 2782 503e 45e1 0d3e e290 c03d
00000060: 70dc 653e 43a8 843e 0e8b 253e 2efd 013f
00000070: 7af0 fe3d e5fb df3e f117 d33d 1ae8 ed3d
00000080: 5af4 fc3d f065 843d 9dcc 0a3e b96f ba3d
00000090: 1cd7 023f e8c1 5d3e 1948 673e 68d2 a93e
000000a0: 1170 333e 1e24 bb3e 597f 603e 0adc 7d3e
000000b0: 9afd b53d 11d8 1c3e 88aa 8b3e e5d6 473e
000000c0: 9d74 ea3d 3cc0 3a3f 4e99 3d3e eef3 513e
000000d0: 1ab5 203e fbaa 273e efde 3c3e 3742 5a3e
000000e0: 43f9 653e e91b b73e e882 373e 641d 713f
000000f0: f9c1 723e 1e70 333e 61ed 3a3e ad57 173e

down3.rnn.weight_ih_l0 f4 [192, 64]
-0.02964355 0.018389467 -0.16652547 -0.10846716 -0.19981682 -0.11595273 -0.15291208 -0.00077714206
-0.039632298 -0.011147164 -0.00805699 -0.07458887 -0.13802111 -0.08576999 0.040730592 0.029395347
-0.12061503 0.008478379 0.03357917 0.064517215 0.08166037 0.13739146 -0.1939778 -0.059419595
0.04086121 -0.09515381 -0.041350093 0.103753336 -0.174229 0.09732406 0.044226903 -0.15846689
-0.021550614 0.015783655 0.121161155 0.019718397 -0.012056276 -0.1176094 0.005168512 0.04402742
-0.11691165 -0.006002794 0.04076257 -0.12484207 -0.0026219564 0.07160146 -0.12978458 -0.1196858
0.0061962046 -0.14498475 -0.045536302 0.1036297 -0.039837748 -0.030134158 -0.15792647 -0.11867148
-0.07102166 -0.03729968 0.059693873 -0.06849149 0.07249775 -0.09286775 -0.007749106 -0.11377956
0.0040880963 0.0029096156 0.0042123236 0.1229356 -0.14343621 0.08620535 0.026358843 0.085061416
-0.0023525178 -0.010352908 0.037366193 -0.09742732 0.077324465 -0.10676606 0.017018605 -0.12690395
0.046852298 -0.013092156 0.10810441 -0.10352553 -0.052248117 0.06941279 -0.09528778 -0.022673225
-0.06294299 -0.023779104 0.08696597 0.04711827 -0.07381685 -0.007796208 -0.041246325 -0.10887626
0.09702993 -0.08536085 -0.1332157 -0.011920872 0.0770647 0.022401739 -0.07798014 -0.0882752
0.11123489 0.09590433 0.042651277 -0.07784668 0.027805349 0.05289909 0.01601229 0.047033623
0.06307157 0.06363875 -0.03616487 -0.08134613 -0.11579383 0.034532536 0.030828552 0.059523284
0.021034159 -0.023756864 0.057271734 0.014301983 -0.06589427 -0.07112926 0.028489057 -0.14356446
-0.04738567 -0.119162604 -0.13049135 0.078435756 0.013296044 0.100788444 -0.040239826 0.11231226
-0.1146284 -0.0775436 0.010300919 0.043449894 -0.1419308 -0.160079 0.09618767 -0.070054874
0.13231239 -0.059768517 -0.10845855 -0.040819243 -0.15994021 0.10949057 -0.09179157 0.14753452
0.09242976 0.022747 0.06779114 -0.047541883 -0.2514555 -0.0935892 -0.008800598 0.021098072
-0.010438083 0.010655866 0.0056621777 -0.07960347 -0.05287577 0.03958343 0.048518997 0.11104548
-0.013044375 -0.094872944 0.031709358 -0.021046216 -0.03410168 0.0532042 -0.026727626 0.024192976
-0.0036271873 0.029707825 0.015545124 0.069130026 -0.06480262 -0.029383548 0.0063678743 -0.058910843
0.13339564 0.097552195 -0.10177093 0.090846494 -0.030754214 -0.089585796 -0.10482128 -0.06173585
0.1059161 -0.033241753 0.09307104 0.077620976 0.008955791 0.016968373 -0.05181918 0.05584976
0.11160374 -0.0949721 0.0040525068 -0.054843545 0.091215685 0.051970508 -0.12107675 -0.034571633
-0.14754069 -0.07369576 0.10794895 -0.03401377 0.13028397 -0.060006958 0.017630711 0.08726609
-0.13093774 -0.045276154 -0.11269407 -0.009602475 0.16396524 -0.022587584 -0.077996776 -0.055303898
-0.12321786 0.04423093 -0.040686615 -0.021654129 0.10112468 0.026316987 -0.07203889 0.12815648
-0.08757137 -0.065691695 0.00639297 0.030694641 -0.11544331 -0.096475504 0.042049758 -0.10908682
-0.0035158314 -0.06800494 -0.06503702 0.027414152 0.106869355 0.089580566 0.123240575 0.08040856
0.027458478 0.11655657 -0.059659284 0.116077565 0.065265276 0.044641346 -0.05707576 0.033403527
00000000: 08d7 f2bc 82a5 963c a785 2abe 0824 debd
00000010: c89c 4cbe a078 edbd fc94 1cbe 1fb9 4bba
00000020: 7a55 22bd 98a2 36bc 7701 04bc 0dc2 98bd
00000030: 6855 0dbe 2da8 afbd 1fd5 263d 83ce f03c
00000040: 0305 f7bd e6e8 0a3c 508a 093d 9a21 843d
00000050: 8d3d a73d 59b0 0c3e 1ea2 46be f661 73bd
00000060: 165e 273d 00e0 c2bd b75e 29bd a17c d43d
00000070: 1669 32be d651 c73d 4527 353d 2545 22be
00000080: ea8a b0bc b94c 813c 5723 f83d 7a88 a13c
00000090: b087 45bc 32dd f0bd 9f5c a93b 1956 343d
000000a0: 606f efbd 16b3 c4bb a7f6 263d 33ad ffbd
000000b0: 21d5 2bbb c9a3 923d 40e6 04be d41d f5bd
000000c0: 8809 cb3b e276 14be 4684 3abd cf3b d43d
000000d0: e82c 23bd e9db f6bc 7ab7 21be 080a f3bd
000000e0: ce73 91bd 8dc7 18bd 9081 743d 4445 8cbd
000000f0: b379 943d 7231 bebd 36ec fdbb 4205 e9bd
00000100: 70f5 853b 40af 3e3b 8807 8a3b a9c5 fb3d
00000110: f1e0 12be 6e8c b03d 80ee d73c ae34 ae3d
00000120: b32c 1abb 3e9f 29bc 4b0d 193d fa87 c7bd
00000130: 4a5c 9e3d 2aa8 dabd 9a6a 8b3c 1cf3 01be
00000140: 32e8 3f3d 7b80 56bc d865 dd3d 3105 d4bd
00000150: 1f02 56bd 4b28 8e3d 3d26 c3bd 33bd b9bc
00000160: 41e8 80bd 65cc c2bc 371b b23d 16ff 403d
00000170: 4a2d 97bd 5577 ffbb e8f1 28bd 84fa debd
00000180: a1b7 c63d abd1 aebd b269 08be c34f 43bc
00000190: 19d4 9d3d da83 b73c 0db4 9fbd a1c9 b4bd
000001a0: 1ecf e33d 7d69 c43d 1bb3 2e3d 156e 9fbd
000001b0: 0bc8 e33c b7ac 583d 352c 833c 54a6 403d
000001c0: ab2b 813d 0855 823d 9d21 14bd cd98 a6bd
000001d0: 5125 edbd fd71 0d3d 298c fc3c b0ce 733d
000001e0: d44f ac3c c19d c2bc c495 6a3d dd52 6a3c
000001f0: 93f3 86bd 38ac 91bd e261 e93c 9002 13be
00000200: 7a17 42bd 860b f4bd 869f 05be eda2 a03d
00000210: a7d7 593c 2c6a ce3d 84d2 24bd f803 e63d
00000220: 4bc2 eabd 2ecf 9ebd 30c5 283c 84f8 313d
00000230: 4f56 11be c0eb 23be 0bfe c43d ee78 8fbd
00000240: e67c 073e d5cf 74bd 841f debd 1432 27bd
00000250: 5ec7 23be 983c e03d 38fd bbbd 4a13 173e
00000260: d04b bd3d eb57 ba3c 15d6 8a3d 47bb 42bd
00000270: c6be 80be b2ab bfbd 6230 10bc ddd5 ac3c
00000280: 7e04 2bbc f195 2e3c ca89 b93b 2507 a3bd
00000290: 4394 58bd 3c22 223d dbbb 463d d06b e33d
000002a0: 13b8 55bc bf4c c2bd ace1 013d 1d69 acbc
000002b0: 34ae 0bbd a6ec 593d e5f3 dabc 5930 c63c
000002c0: 1bb6 6dbb d35d f33c fab0 7e3c 0b94 8d3d
000002d0: 3cb7 84bd c4b5 f0bc 9aa9 d03b 7f4c 71bd
000002e0: de98 083e 72c9 c73d 476d d0bd ba0d ba3d
000002f0: 43f0 fbbc c278 b7bd 8aac d6bd bbde 7cbd
00000300: 8aea d83d 8128 08bd 089c be3d bff7 9e3d
00000310: 4fbb 123c 4201 8b3c 5940 54bd b8c2 643d
00000320: 8090 e43d bb80 c2bd e4ca 843b a0a3 60bd
00000330: 4acf ba3d 07df 543d 16f7 f7bd fc9a 0dbd
00000340: e814 17be cded 96bd 5714 dd3d 0652 0bbd
00000350: 2969 053e dbc9 75bd 486e 903c 90b8 b23d
00000360: 8b14 06be 7d73 39bd 26cc e6bd b353 1dbc
00000370: 81e6 273e 9909 b9bc c6bc 9fbd 5786 62bd
00000380: a559 fcbd 7e2b 353d 02a7 26bd 0064 b1bc
00000390: 751a cf3d b996 d73c 2089 93bd 743b 033e
000003a0: 9e58 b3bd 5e89 86bd 1f7c d13b 5473 fb3c
000003b0: 8b6d ecbd f394 c5bd 5e3c 2c3d e968 dfbd
000003c0: dd69 66bb 2d46 8bbd 2132 85bd a593 e03c
000003d0: 52de da3d 0476 b73d 8e65 fc3d 3ead a43d
000003e0: 9af0 e03c 36b5 ee3d 4b5d 74bd 13ba ed3d
000003f0: cda9 853d d8d9 363d 46c8 69bd 23d2 083d

down3.rnn.weight_hh_l0 f4 [192, 64]
0.09502178 0.07822908 0.018249972 -0.09176788 0.06132951 -0.09508735 0.0116236415 -0.06701958
0.06721265 -0.05955358 -0.03632015 0.042268805 -0.015323526 0.13373597 0.12432989 0.080106646
-0.09715425 -0.18132246 0.115269385 -0.0699758 0.039518394 -0.060410134 -0.059403617 -0.17978624
0.026467118 -0.0997014 -0.12719561 -0.100774154 -0.081912495 0.16460341 0.054328725 -0.073059045
0.094003186 -0.09454454 0.024227686 -0.016768074 -0.061237637 0.124630585 -0.0015457749 0.120074674
-0.04794617 0.0026024308 -0.07583213 -0.011716174 -0.054897875 -0.043336265 -0.25486064 -0.09713233
-0.007109975 0.03354636 -0.09980741 0.045999415 0.060037512 -0.092578925 0.075402535 -0.09273268
0.065735295 0.026554616 -0.012508607 0.15922582 -0.01226949 0.039120816 -0.08796457 0.027892143
0.07475673 -0.10878514 -0.03328454 -0.0302388 -0.007829636 -0.03660189 -0.042766556 0.07179387
-0.05377044 0.096894085 0.03874902 -0.008730107 -0.08962316 -0.04979711 0.10581764 -0.09019501
-0.14841802 0.007182032 0.10320023 0.10288561 -0.1494334 0.08065361 -0.09113452 0.09834512
0.10435274 -0.09526839 -0.05768997 0.11234181 -0.10197675 0.06528392 0.10194666 -0.12287266
-0.033479895 0.012156738 -0.008689984 -0.017013796 -0.044771977 0.06540492 -0.10318985 0.06999509
0.05968745 0.10984385 0.12832586 0.055438217 -0.025023807 -0.091291405 -0.053069565 0.05622997
-0.07738408 -0.039905652 0.01623183 0.09217377 -0.058124367 0.121470585 0.017974775 -0.057963137
0.051785074 0.007587484 -0.077142216 -0.012395116 0.040490676 0.051515996 -0.102471955 0.04495394
-0.053617228 0.12669797 0.07047133 0.14129853 0.026516996 0.07249818 0.003950918 -0.025269894
-0.034285653 -0.043012153 0.005568436 -0.064887255 0.090358675 -0.09253979 -0.04183949 0.014811115
0.04908688 0.03998209 -0.12169502 0.09735213 0.034091543 -0.074045874 0.0002643467 0.0083260685
0.07167009 -0.122198805 0.019053617 0.07521284 0.1037182 0.11839165 -0.04039427 -0.074672386
-0.104829155 0.0908851 0.02909406 0.066292554 -0.06462467 0.059426304 -0.027391134 -0.012823693
-0.035612732 -0.05131907 0.045636225 -0.03441956 0.14841509 -0.102668926 0.03057804 0.08896619
0.033222828 0.13103166 0.020829588 -0.049643256 0.056858167 0.09202013 0.09918497 0.03447495
-0.0061003054 0.054690167 0.061923277 -0.023955842 0.10947467 -0.14862064 0.049808048 -0.04422518
0.003328653 0.10277645 -0.08788896 0.0914455 -0.023199024 0.13040209 0.013968932 0.11602802
0.05443601 -0.08058493 0.11672886 -0.03452776 0.04049089 -0.059875727 0.05631531 -0.019697813
-0.01897488 -0.045761537 0.0744685 0.062461797 0.032452457 -0.1200589 0.119712934 -0.056762233
-0.069506 0.109684385 -0.053649325 -0.09498723 0.018895041 0.113175064 -0.06273925 0.027345885
0.08642437 0.06339101 0.04158765 -0.058181416 0.04818102 -0.025153523 0.0016677538 0.060156927
-0.061299503 -0.13024803 0.031936914 0.02914114 0.051557377 -0.062032945 -0.054632947 0.06451062
-0.105906695 0.08693255 0.06419763 0.0056609316 -0.042862367 -0.09065918 0.074388966 -0.015050876
-0.0062845903 0.111285664 -0.070730135 0.00050095114 -0.036212977 -0.07329799 -0.10781642 -0.07480036
00000000: c79a c23d 9136 a03d f780 953c ccf0 bbbd
00000010: a734 7b3d 28bd c2bd 1671 3e3c 9041 89bd
00000020: c9a6 893d 74ee 73bd 70c4 14bd 0e22 2d3d
00000030: 870f 7bbc 15f2 083e aba0 fe3d f40e a43d
00000040: cff8 c6bd 98ac 39be 5b12 ec3d 794f 8fbd
00000050: 0ade 213d 9e70 77bd 3551 73bd e219 38be
00000060: 92d1 d83c 3f30 ccbd 913f 02be ae62 cebd
00000070: bdc1 a7bd cc8d 283e cc87 5e3d fb9f 95bd
00000080: be84 c03d 91a0 c1bd 2479 c63c 335d 89bc
00000090: 51d4 7abd 523e ff3d 999b caba b6e9 f53d
000000a0: 3463 44bd 8b8d 2a3b e04d 9bbd 32f5 3fbc
000000b0: 98dc 60bd 5e81 31bd 187d 82be 51ed c6bd
000000c0: cbfa e8bb e867 093d d467 ccbd e269 3c3d
000000d0: e5e9 753d 059a bdbd a56c 9a3d a2ea bdbd
000000e0: 3aa0 863d 1189 d93c e6f0 4cbc 180c 233e
000000f0: f905 49bc 263d 203d c526 b4bd 107e e43c
00000100: 0e1a 993d beca debd 5f55 08bd 5cb7 f7bc
00000110: e047 00bc ddeb 15bd fc2b 2fbd aa08 933d
00000120: 653e 5cbd 6870 c63d 4bb7 1e3d b908 0fbc
00000130: 598c b7bd 0ef8 4bbd ebb6 d83d 29b8 b8bd
00000140: e5fa 17be 4057 eb3b a45a d33d b1b5 d23d
00000150: 1205 19be b82d a53d bca4 babd 2b69 c93d
00000160: e4b6 d53d 131c c3bd 514c 6cbd 7613 e63d
00000170: 30d9 d0bd 93b3 853d 69c9 d03d a9a4 fbbd
00000180: 3722 09bd 0e2d 473c 6f60 0ebc 8460 8bbc
00000190: d262 37bd 04f3 853d 3355 d3bd 9659 8f3d
000001a0: d47a 743d d0f5 e03d db67 033e 2f13 633d
000001b0: bafe ccbc fdf6 babd 795f 59bd 6651 663d
000001c0: 8b7b 9ebd 1c74 23bd 9df8 843c 9ac5 bc3d
000001d0: d113 6ebd 92c5 f83d d63f 933c c16a 6dbd
000001e0: 961c 543d 6ea0 f83b bdfc 9dbd e214 4bbc
000001f0: 8dd9 253d 7002 533d d1dc d1bd 9f21 383d
00000200: bd9d 5bbd 1dbd 013e 4653 903d 90b0 103e
00000210: 2c3a d93c ed79 943d b476 813b cf02 cfbc
00000220: 1d6f 0cbd 832d 30bd 6d77 b63b 9ce3 84bd
00000230: f80d b93d 8085 bdbd e35f 2bbd 52aa 723c
00000240: 530f 493d 43c4 233d 3d3b f9bd 8e60 c73d
00000250: 93a3 0b3d 5da5 97bd 0398 8a39 106a 083c
00000260: c5c7 923d 5e43 fabd 5516 9c3c 3109 9a3d
00000270: 356a d43d 5277 f23d 7674 25bd d6ed 98bd
00000280: abb0 d6bd f821 ba3d ab56 ee3c 64c4 873d
00000290: f059 84bd ff68 733d 5f63 e0bc 781a 52bc
000002a0: a8de 11bd f233 52bd 0ded 3a3d 86fb 0cbd
000002b0: 20fa 173e 1644 d2bd cc7e fa3c e833 b63d
000002c0: a914 083d 2a2d 063e d0a2 aa3c ba56 4bbd
000002d0: 1ce4 683d 0d75 bc3d 7d21 cb3d 9b35 0d3d
000002e0: 12e5 c7bb cc02 603d 43a3 7d3d 0b3f c4bc
000002f0: 4134 e03d 0230 18be 8603 4c3d 7625 35bd
00000300: 8825 5a3b 767c d23d 21ff b3bd c747 bb3d
00000310: e10b bebc 2088 053e f3dd 643c 19a0 ed3d
00000320: 4bf8 5e3d b609 a5bd 8a0f ef3d fb6c 0dbd
00000330: c7d9 253d 4040 75bd e2aa 663d 4f5d a1bc
00000340: 3571 9bbc 7370 3bbd f182 983d f1d7 7f3d
00000350: deec 043d 71e1 f5bd 0e2c f53d 847f 68bd
00000360: 2959 8ebd 35a2 e03d 65bf 5bbd aa88 c2bd
00000370: c6c9 9a3c 54c8 e73d 707d 80bd 7a04 e03c
00000380: 43ff b03d 25d3 813d d057 2a3d a34f 6ebd
00000390: 7659 453d c30e cebc 8898 da3a 1c67 763d
000003a0: 3015 7bbd bd5f 05be 48d0 023d 66b9 ee3c
000003b0: d42d 533d 4216 7ebd ccc6 5fbd 251e 843d
000003c0: 9ce5 d8bd b109 b23d 0c7a 833d 567f b93b
000003d0: 7390 2fbd 85ab b9bd 3e59 983d f397 76bc
000003e0: f7ee cdbb bde9 e33d f6da 90bd 4352 033a
000003f0: 0f54 14bd 421d 96bd dbce dcbd ee30 99bd

down3.rnn.bias_ih_l0 f4 [192]
0.09330891 -0.0947212 0.10793724 0.03459455 0.1487439 -0.065717496 0.004802453 -0.027117005
0.035101485 -0.06515798 -0.008363563 0.08717215 0.060312793 -0.09743913 -0.074663766 -0.030181875
0.10420309 -0.02604856 0.07466562 0.058936235 0.066323176 0.018849745 0.11679251 -0.089455396
0.09683739 -0.018530427 -0.06211467 0.0043003424 0.13261466 -0.12534411 -0.078810774 -0.10159659
-0.076187104 0.09884549 0.027670858 -0.020667356 0.1333268 0.06971541 -0.030123316 0.041591413
-0.023351476 0.01109391 -0.021026498 0.030761765 -0.06955659 0.11175041 -0.0626033 0.03766836
-0.06868707 0.0011069964 -0.050933618 0.11104529 -0.06511366 -0.093612134 -0.010104556 0.037078395
0.023235042 -0.07477458 -0.040635187 0.083553314 -0.07610975 -0.12433318 -0.12553972 -0.09671514
0.060488928 -0.0063989577 -0.06945066 -0.031645708 0.07725568 -0.041571055 -0.1618546 -0.09016399
0.022778906 -0.03172635 -0.08916222 0.097258635 0.10241313 -0.124434546 -0.086453475 -0.04282455
0.012450837 -0.091044016 -0.13801809 -0.12997523 -0.004280591 -0.047754932 -0.04486745 -0.15189514
-0.14767414 -0.09907146 0.08198876 -0.108488046 0.052996248 -0.0021624705 0.009178646 -0.1066335
-0.1569105 -0.0902954 0.07665778 0.10114271 0.090312794 -0.0835197 0.028455928 -0.09466759
-0.0950516 -0.060385514 -0.02800905 0.00957437 -0.052972022 -0.058484025 0.039988793 0.08038884
-0.15198067 -0.09712366 -0.17772791 -0.14433874 -0.005285916 -0.13450712 0.04051238 0.020429468
0.059801087 -0.10341689 -0.012095581 0.08432827 0.022973599 -0.16447961 0.0056253863 -0.054593537
0.071172744 0.07733789 0.040561825 0.07381023 0.011664514 0.09126921 0.08780695 0.03836912
0.09447873 -0.06743478 -0.07693371 -0.06565687 0.1429953 -0.1330533 -0.014175058 -0.10578157
-0.051459443 0.117525846 0.057821456 -0.05097174 -0.06214574 -0.14839193 0.021619046 -0.038064588
0.018934984 0.13713 0.0088028535 -0.14392619 -0.050727673 -0.08667711 -0.0891657 0.030076085
-0.039304074 -0.048833787 0.09002708 -0.011981243 -0.0065157465 -0.10369348 -0.011594333 0.053836625
-0.047517095 0.10396963 0.0011699988 -0.08295858 -0.06853626 0.004434198 0.11356834 -0.039031688
0.054857384 0.0077639436 0.10893062 0.075942814 -0.065339305 0.03818353 0.099844016 0.090081856
-0.09941014 -0.06534915 0.021244632 -0.09283156 -0.07531326 0.12985307 -0.11738548 0.111146435
00000000: be18 bf3d 30fd c1bd 330e dd3d 04b3 0d3d
00000010: 5250 183e e596 86bd e55d 9d3b 7b24 debc
00000020: 93c6 0f3d 8c71 85bd 5307 09bc 5087 b23d
00000030: 8c0a 773d 2b8e c7bd 51e9 98bd fb3f f7bc
00000040: 6e68 d53d ca63 d5bc 4aea 983d 1f67 713d
00000050: 72d4 873d c86a 9a3c e930 ef3d 6434 b7bd
00000060: ae52 c63d 1fcd 97bc f46b 7ebd e3e9 8c3b
00000070: 23cc 073e 355a 00be 8b67 a1bd df11 d0bd
00000080: fc07 9cbd 816f ca3d ffad e23c 964e a9bc
00000090: d286 083e f4c6 8e3d 2cc5 f6bc c25b 2a3d
000000a0: 984b bfbc 3bc3 353c c33f acbc 1900 fc3c
000000b0: af73 8ebd 66dd e43d 2936 80bd 234a 1a3d
000000c0: ceab 8cbd a318 913a c59f 50bd b76b e33d
000000d0: 505a 85bd b8b7 bfbd 948d 25bc 84df 173d
000000e0: 6a57 be3c 6a23 99bd 1571 26bd 001e ab3d
000000f0: 6edf 9bbd 65a2 febd 7c8d 00be 9612 c6bd
00000100: 3dc3 773d 59ae d1bb 263c 8ebd ee9e 01bd
00000110: 3a38 9e3d 6946 2abd 36bd 25be e6a7 b8bd
00000120: d49a ba3c 7df3 01bd af9a b6bd 892f c73d
00000130: fabd d13d 8ad7 febd 850e b1bd cc68 2fbd
00000140: 98fe 4b3c 4975 babd 9d54 0dbe 3a18 05be
00000150: 3344 8cbb ad9a 43bd eec6 37bd 668a 1bbe
00000160: e437 17be fae5 cabd b9e9 a73d fb2e debd
00000170: 9812 593d 3cb8 0dbb 0862 163c aa62 dabd
00000180: 25ad 20be cbec b8bd c1fe 9c3d e923 cf3d
00000190: eaf5 b83d 600c abbd 681c e93c 15e1 c1bd
000001a0: 6aaa c2bd cd56 77bd 3c73 e5bc d2dd 1c3c
000001b0: 31f9 58bd f28c 6fbd 4acb 233d e7a2 a43d
000001c0: d2a0 1bbe c5e8 c6bd 4efe 35be 89cd 13be
000001d0: 7a35 adbb 3cbc 09be 4ff0 253d b35b a73c
000001e0: fcf1 743d 3ccc d3bd 8b2c 46bc 4db4 ac3d
000001f0: 2133 bc3c 586d 28be 2955 b83b 799d 5fbd
00000200: 04c3 913d 5463 9e3d 2824 263d d129 973d
00000210: 851c 3f3c 5aeb ba3d 21d4 b33d f028 1d3d
00000220: 107e c13d 3f1b 8abd 6c8f 9dbd 1c77 86bd
00000230: 5c6d 123e 203f 08be 813e 68bc 02a4 d8bd
00000240: 23c7 52bd 64b1 f03d 31d6 6c3d bec7 50bd
00000250: 888c 7ebd 0ef4 17be 6d1a b13c 9de9 1bbd
00000260: 8a1d 9b3c cf6b 0c3e d839 103c 6361 13be
00000270: d2c7 4fbd c583 b1bd 829c b6bd 1f62 f63c
00000280: 4ffd 20bd f005 48bd 1e60 b83d fa4c 44bc
00000290: 0b82 d5bb 3f5d d4bd 28f6 3dbc cb83 5c3d
000002a0: 49a1 42bd 08ee d43d a55a 993a 30e6 a9bd
000002b0: bd5c 8cbd c04c 913b 8596 e83d b1df 1fbd
000002c0: 23b2 603d ae68 fe3b 0417 df3d e887 9b3d
000002d0: 9dd0 85bd 5566 1c3d 057b cc3d d67c b83d
000002e0: 8b97 cbbd c6d5 85bd 3909 ae3c 791e bebd
000002f0: d73d 9abd 34f8 043e cc67 f0bd bea0 e33d

down3.rnn.bias_hh_l0 f4 [192]
-0.11123228 -0.05313995 0.003635576 -0.017880915 0.121439226 0.07205994 -0.06366164 -0.013936711
0.042281922 0.113480315 0.10348562 -0.0061832424 -0.09745454 0.018067732 0.0738323 0.010791478
0.11192849 -0.104318716 0.042154606 0.009654103 -0.0155086275 -0.07762216 0.11468177 0.1214986
0.09623355 -0.02360778 0.04752773 -0.05590011 -0.046192452 0.012435882 -0.12437396 0.051898185
0.00026806063 0.021976583 0.12779129 0.021943305 -0.0033417945 -0.0144591015 0.091686204 0.104366176
-0.047227766 0.009416255 0.011647365 0.1110216 -0.14435717 0.037389997 -0.13212259 0.098586395
-0.09203035 0.004596617 0.07694739 -0.100802384 -0.07088193 -0.10925403 -0.05104283 0.0074739354
-0.083544575 -0.096408725 0.09405266 -0.059346884 0.045093 -0.07038407 -0.096104495 -0.10793966
0.05461419 -0.06493126 -0.006840222 0.031999 -0.10944934 -0.12260294 -0.031221466 0.043969713
0.011573283 -0.078181684 -0.0076212543 0.04796035 -0.08682657 -0.03269202 -0.015603466 0.022673227
-0.112117924 -0.0842944 -0.018900143 -0.040752098 -0.0017284929 -0.010127518 -0.098253235 -0.029463723
-0.14526498 -0.07662536 -0.11463676 -0.09692801 0.06832871 -0.06751946 -0.14044799 -0.09186894
0.03713969 0.049632154 0.08771557 -0.047079466 -0.087214164 -0.103132635 -0.116645254 0.024187587
-0.05641738 -0.015207551 -0.022833453 0.0006553746 -0.10288745 0.0060782763 -0.18376805 0.008458373
-0.14970489 -0.08718472 -0.006089633 0.0031828114 0.0064869975 0.045548845 -0.04297535 0.011957832
0.04621671 -0.07388187 -0.14072438 -0.09819461 -0.01901985 0.031117447 -0.12609601 -0.13405389
-0.014928766 -0.005587722 0.12769158 0.052886803 0.12570438 0.039807703 -0.117059395 -0.030016381
-0.11624623 -0.111830294 0.039914172 -0.051091917 -0.016934106 -0.14267227 -0.08863159 0.11949046
0.15443832 -0.00095485704 -0.12759474 0.035426497 0.0046903123 0.037153013 0.055924326 0.020439802
-0.08101037 -0.077274345 0.017759547 0.009654708 -0.14667301 0.077685945 -0.025014155 -0.04418395
0.070624694 0.054673426 -0.0012324664 -0.05750848 0.021324819 -0.103947334 0.042539578 -0.0072359387
0.11198282 -0.03141101 -0.02095792 -0.012956609 0.066652454 -0.056576338 -0.016447777 -0.036425747
-0.071772695 -0.05521919 0.103063904 0.12052358 -0.002617121 -0.0934723 -0.0666728 -0.018405266
0.05286112 0.14330621 0.075510316 -0.15653606 -0.036653582 0.08302564 0.007051691 0.042329174
00000000: c0cd e3bd 47a9 59bd d842 6e3b ff7a 92bc
00000010: 21b5 f83d 2994 933d 0961 82bd cd56 64bc
00000020: cf2f 2d3d 5e68 e83d 45f0 d33d cc9c cabb
00000030: 3f96 c7bd c802 943c 6435 973d bdce 303c
00000040: c43a e53d 0da5 d5bd 4faa 2c3d 3e2c 1e3c
00000050: e617 7ebc 5ef8 9ebd 47de ea3d 42d4 f83d
00000060: 1816 c53d 1a65 c1bc 70ac 423d 84f7 64bd
00000070: 4c34 3dbd dfbf 4b3c c6b7 febd 3193 543d
00000080: 7d8a 8c39 3c08 b43c b8db 023e 72c2 b33c
00000090: 0202 5bbb dee5 6cbc fac5 bb3d efbd d53d
000000a0: e771 41bd a346 1a3c 97d4 3e3c 4b5f e33d
000000b0: 5ed2 13be 4126 193d 254b 07be aae7 c93d
000000c0: 687a bcbd 389f 963b 9896 9d3d 7b71 cebd
000000d0: 8c2a 91bd 94c0 dfbd 4912 51bd eae7 f43b
000000e0: 6b19 abbd f071 c5bd ae9e c03d b815 73bd
000000f0: 70b3 383d 8625 90bd 6fd2 c4bd 780f ddbd
00000100: 21b3 5f3d aefa 84bd f123 e0bb 6211 033d
00000110: fa26 e0bd 4017 fbbd 29c4 ffbc 9619 343d
00000120: de9d 3d3c b81d a0bd b7bb f9bb 1272 443d
00000130: 21d2 b1bd 11e8 05bd aea5 7fbc 34bd b93c
00000140: 159e e5bd 8ba2 acbd 79d4 9abc aceb 26bd
00000150: 998e e2ba e4ed 25bc fe38 c9bd e85d f1bc
00000160: 58c0 14be c2ed 9cbd adc6 eabd 3182 c6bd
00000170: ecef 8b3d a547 8abd 99d1 0fbe c825 bcbd
00000180: ca1f 183d 164b 4b3d 39a4 b33d 66d6 40bd
00000190: 579d b2bd 3437 d3bd b5e3 eebd 0c25 c63c
000001a0: e915 67bd 1829 79bc 390d bbbc 72cd 2b3a
000001b0: a8b6 d2bd 472c c73b b12d 3cbe fd94 0a3c
000001c0: 3d4c 19be e78d b2bd 8b8b c7bb b796 503b
000001d0: e190 d43b 6d91 3a3d ec06 30bd c8ea 433c
000001e0: bc4d 3d3d 614f 97bd 0d1a 10be 411a c9bd
000001f0: 84cf 9bbc 04ea fe3c 501f 01be 6c45 09be
00000200: c897 74bc 3619 b7bb 95c1 023e d59f 583d
00000210: a6b8 003e 670d 233d d6bc efbd eae4 f5bc
00000220: 8112 eebd 4807 e5bd 0b7d 233d c245 51bd
00000230: 65b9 8abc ae18 12be 7b84 b5bd 6ab7 f43d
00000240: 1425 1e3e 5f4f 7aba 32a8 02be 601b 113d
00000250: 31b1 993b c22d 183d e810 653d 5f71 a73c
00000260: c4e8 a5bd 0342 9ebd 787c 913c c82e 1e3c
00000270: 7331 16be cf19 9f3d 7cea ccbc 3bfa 34bd
00000280: aea3 903d 3ef1 5f3d b68a a1ba 038e 6bbd
00000290: 63b1 ae3c 57e2 d4bd fb3d 2e3d 741b edbb
000002a0: 4057 e53d d5a8 00bd f2af abbc f547 54bc
000002b0: 1581 883d 97bc 67bd 7dbd 86bc 2a33 15bd
000002c0: 90fd 92bd 842d 62bd 2b13 d33d 11d5 f63d
000002d0: 0184 2bbb 686e bfbd c08b 88bd a4c6 96bc
000002e0: e784 583d ddbe 123e 27a5 9a3d fd4a 20be
000002f0: 1122 16bd 5909 aa3d df11 e73b 5b61 2d3d
