CNN/best_model_net2.pth (torch, 36789 bytes, 13 tensors)

up1.up_conv.0.weight f4 [64, 32, 3]
0	0xbd561501	-0.052266125
1	0xbdf747d5	-0.12074248
2	0xbd3f0b63	-0.04664172
3	0x3d6c8303	0.05774213
4	0xbca4ebf7	-0.020132048
5	0xbd1043d3	-0.035220932
6	0xbc5e2a48	-0.013559885
7	0x3d96abb8	0.073569715
8	0x3d87aa63	0.066242956
9	0x3d434697	0.04767474
10	0xbd9045b9	-0.070445485
11	0xbdc7d0c2	-0.09756614
12	0xbd2b8b72	-0.041881032
13	0x3d8fbb80	0.07018185
14	0xbc6ed97a	-0.014578218
15	0xbdf59f1c	-0.11993238
16	0x3d793c02	0.060848244
17	0xbce898ca	-0.028393168
18	0xbdc734a5	-0.09726838
19	0xbde81b22	-0.113333
20	0x3b82f47b	0.0039964295
21	0xbd398918	-0.04529676
22	0x3dbeafe3	0.093108915
23	0x3da6bf2f	0.08141934
24	0xbd858565	-0.065195836
25	0xbdd24ebe	-0.10268925
26	0x3c556fb6	0.013027122
27	0x3d31616b	0.043305796
28	0xbd00a9a1	-0.03141177
29	0x3cabb880	0.020962
30	0x3d6a1550	0.05714923
31	0xbd8b0071	-0.067871936
32	0xbd77f87f	-0.06053972
33	0x3d1bd1ea	0.038041987
34	0x3c2baf15	0.0104787545
35	0xbd93199a	-0.071826175
36	0xbbd759e0	-0.006571993
37	0x3d872388	0.06598574
38	0xbd6f16ce	-0.058371358
39	0x3d0e8092	0.034790583
40	0x3c93d9a7	0.01804812
41	0xbd8d0851	-0.06886352
42	0x3aac9f4d	0.0013170034
43	0xbb996db4	-0.004682267
44	0xbcb1b105	-0.021690855
45	0x3c71ee7f	0.014766335
46	0x3df341af	0.118777625
47	0x3d049ef8	0.032378167
48	0x3d312439	0.043247435
49	0x3d14b745	0.036307592
50	0x3c5b7e83	0.013396862
51	0x3da08b28	0.07839042
52	0x3d730304	0.059329048
53	0x3dae2d71	0.08504761
54	0xbbe3d5a3	-0.0069529577
55	0x3d16d7f9	0.03682706
56	0x3de0105e	0.10940622
57	0xbde07b06	-0.10960965
58	0xbd75c52a	-0.060002483
59	0xbd2bb496	-0.041920267
60	0x3c412664	0.011788938
61	0x3c8e0deb	0.017340621
62	0x3d745d5b	0.059659343
63	0x3d02440c	0.031803176
64	0x3d0ebe73	0.034849595
65	0x3cd5c76b	0.026096066
66	0x3d0082ab	0.031374615
67	0x3d007d6e	0.03136962
68	0xbdb6a27f	-0.089177124
69	0x3d128a41	0.03577638
70	0xbda34b82	-0.07973386
71	0xbd66b749	-0.056327138
72	0x3df06790	0.11738503
73	0x3c154846	0.00911147
74	0x3d2aff61	0.041747455
75	0x3abda1f9	0.0014467827
76	0xbaa4a1b8	-0.0012560403
77	0xbc0125d7	-0.007882557
78	0xbc8f3415	-0.01748089
79	0x3d6e6630	0.058202922
80	0x3b41ab9f	0.0029551757
81	0xbdc1111d	-0.09427092
82	0x3b23edb7	0.0025013515
83	0x3c994bec	0.01871296
84	0x3c66a287	0.0140768355
85	0x3d823a1d	0.063587405
86	0xbdbe88ce	-0.09303437
87	0x3d4fe24d	0.050752927
88	0x3ac2e297	0.0014868554
89	0xbd9d1394	-0.0766975
90	0xbd346bd6	-0.044048153
91	0xbc11b1a3	-0.00889245
92	0x3d8ffd03	0.0703068
93	0xbd9176af	-0.07102715
94	0xbd87513a	-0.066072896
95	0xbc700322	-0.014649184
96	0xbd47eea2	-0.048811562
97	0xbd490567	-0.049077418
98	0x3da41732	0.08012237
99	0x3d8d13a8	0.06888515
100	0xbdd7dc96	-0.1054012
101	0xbd7b1d2b	-0.061307114
102	0xbda2c22b	-0.07947191
103	0x3c983224	0.018578596
104	0xbc95dfa9	-0.018295126
105	0xbdf4f0d2	-0.11959995
106	0x3d80e30e	0.06293307
107	0xbdd0b6d6	-0.10191123
108	0x3d61d29c	0.055132493
109	0xbd6d1239	-0.057878707
110	0x3bab4706	0.0052269725
111	0x3c70f122	0.014705928
112	0x3a62e871	0.0008655852
113	0xbd481bd7	-0.048854675
114	0x3ca009bd	0.019535894
115	0x3cd76cd8	0.026297018
116	0x3d5b7291	0.053576056
117	0xbd0eea05	-0.034891147
118	0x3d0beda7	0.03416219
119	0xbd92d316	-0.07169168
120	0x3d8a5a96	0.06755559
121	0xbd7c34a1	-0.06157363
122	0xbc985a48	-0.018597737
123	0xbd327a53	-0.04357369
124	0xb97f1d71	-0.00024329663
125	0xbd994992	-0.074847355
126	0xbc9fb4dd	-0.019495422
127	0x3c6290c8	0.013828464
128	0x3ca9de27	0.020735813
129	0x3d5d3e4d	0.054014493
130	0xbc6f65bf	-0.0146116605
131	0xbd8a1167	-0.067416005
132	0x3da47d0f	0.080316655
133	0xbd9f8648	-0.07789284
134	0x3bc2d156	0.005945365
135	0xbdab861f	-0.08375191
136	0xbc184de6	-0.009295916
137	0x3c77ee28	0.0151324645
138	0x3ce7901c	0.028266959
139	0xbc7e7675	-0.015531172
140	0xbdbf70d2	-0.09347691
141	0xbcee2377	-0.029069645
142	0xbd86b392	-0.06577219
143	0x3bfe1a1d	0.007754578
144	0xbab4aa53	-0.0013783671
145	0xbd8530dd	-0.065034606
146	0xbc81b3cf	-0.01583281
147	0xbd2d20c7	-0.042267587
148	0xbe18466f	-0.14870618
149	0x3d80158e	0.06254111
150	0xbd94e4c2	-0.072701946
151	0x3cc8734a	0.024469037
152	0x3c90bfe2	0.017669622
153	0x3d2b368b	0.041800063
154	0x3d94f53c	0.07273337
155	0x3d3510b9	0.0442054
156	0x3be0bc91	0.0068584164
157	0x3d55635e	0.052096717
158	0xbc84a847	-0.016193522
159	0xbd7ea206	-0.062166236
160	0x3c80a9b4	0.01570592
161	0xbdad05b4	-0.084483534
162	0xbbee039d	-0.0072636143
163	0x3dc1cc33	0.09462776
164	0x3db1d7bd	0.08683727
165	0xbd3f8b43	-0.04676367
166	0x3d5878c9	0.052849565
167	0x3d0f157c	0.0349326
168	0xbd69e701	-0.057105068
169	0x3d647090	0.05577141
170	0x3d9e7af4	0.07738295
171	0xbd919c1a	-0.07109852
172	0x3cb862ac	0.022507988
173	0x3cf318e3	0.029674953
174	0xbd87a96a	-0.0662411
175	0x3d93507d	0.07193086
176	0x3d57c28a	0.05267576
177	0x3dbb09ba	0.091327146
178	0xbdb219e4	-0.086963445
179	0x3d9d3916	0.07676904
180	0xbd25874c	-0.040412232
181	0xbd8ef7c2	-0.0698085
182	0x3d00bede	0.031432025
183	0x3d5c6a4a	0.053812303
184	0xbdf835b3	-0.12119617
185	0xbc24feba	-0.010070497
186	0x3cbec223	0.023285931
187	0x3d95102f	0.072784774
188	0x3d123d1e	0.035702817
189	0x3d38c0a5	0.045105595
190	0xbd3c3d76	-0.04595705
191	0x3d232ae7	0.039835837
192	0x3b968127	0.004593033
193	0x3d77ac12	0.060466833
194	0x3d28c670	0.04120487
195	0xbd143dba	-0.03619168
196	0x3cef6448	0.029222623
197	0xbd062196	-0.032746874
198	0x3c9c0d96	0.019049447
199	0x3d54af13	0.051924776
200	0x3d8ac3e6	0.06775646
201	0x3d60e83c	0.054908976
202	0xbd318f48	-0.043349534
203	0xbd306952	-0.04306919
204	0xbda05056	-0.07827823
205	0x3bdbb16b	0.0067044995
206	0xbbd2aeaa	-0.006429513
207	0xbdda984f	-0.10673582
208	0xbb3020eb	-0.002687509
209	0x3cc00a4b	0.023442408
210	0xbdcbe641	-0.09956027
211	0x3d49fa8d	0.04931121
212	0x3b81055e	0.0039374074
213	0x3dc5c293	0.09656253
214	0xbd36f3e3	-0.044666182
215	0x3c94b2e4	0.018151708
216	0x3c7d165f	0.015447228
217	0xbdfecd17	-0.124414615
218	0xbc18ffa3	-0.009338292
219	0x3db17b50	0.08666098
220	0xbc91b194	-0.017784871
221	0x3d5aaa81	0.05338526
222	0xbb9c0d0a	-0.0047622966
223	0x3c8226ec	0.0158877
224	0xbd7fb679	-0.06242988
225	0x3db8cc9b	0.090234004
226	0xbd4cf1d6	-0.05003532
227	0x3e078227	0.13233243
228	0x3c757086	0.014980441
229	0xbce383f3	-0.02777288
230	0xbdd4e50d	-0.103952505
231	0x3c1dea95	0.009638448
232	0xbde4888b	-0.11158856
233	0x3df5e791	0.120070584
234	0xbdc7de82	-0.09759237
235	0xbd80740c	-0.06272134
236	0xbd5a1b8c	-0.053248927
237	0xbd50db5d	-0.05099045
238	0xbbd9c886	-0.0066462187
239	0xbc4943a4	-0.012284193
240	0x3cce7474	0.025202014
241	0x3d70d47a	0.058796383
242	0xbd9afbba	-0.07567544
243	0x3d172ae9	0.036906157
244	0xbd92777b	-0.07151695
245	0xbd0ff6db	-0.03514753
246	0xbdc1faa8	-0.09471637
247	0x3de6f1ce	0.11276589
248	0xbd72d43d	-0.059284437
249	0xba33a48e	-0.00068528287
250	0xbda499e2	-0.08037163
251	0xbda64ac4	-0.08119729
252	0x3d887caa	0.06664403
253	0xbd981cfb	-0.074274026
254	0x3ccd33da	0.025049139
255	0xbd4b341d	-0.049610246

up1.up_conv.0.bias f4 [32]
0	0xbdb976d2	-0.09055866
1	0x3cd8b1b5	0.026451925
2	0x3cf8e019	0.030380296
3	0xbd3ecc23	-0.0465814
4	0x3d7ae100	0.061249733
5	0xbd363d39	-0.04449198
6	0x3dbefa5b	0.09325095
7	0xbd9ddc93	-0.07708087
8	0x3d943913	0.072374485
9	0xbd8813f2	-0.06644429
10	0x3d4996c5	0.04921605
11	0x3d613d32	0.05499
12	0xbd755077	-0.05989119
13	0x3d228e31	0.039686386
14	0x3bb2ba5e	0.0054543456
15	0x3dbfe2b5	0.09369413
16	0xbb40fb58	-0.0029446688
17	0xbcab34af	-0.020899145
18	0x3d13e3bc	0.036105856
19	0xbd82c5c1	-0.06385375
20	0xbd2310bd	-0.039810885
21	0xbbfd2153	-0.00772492
22	0xbd6cfd72	-0.05785889
23	0x3dc6af7d	0.097014405
24	0x3d2d8e08	0.04237178
25	0xbb88bfdd	-0.0041732625
26	0xbdb7bd0a	-0.08971603
27	0x3db9650a	0.09052475
28	0xbdb79248	-0.08963448
29	0xbe1086df	-0.14113949
30	0xbc63a0c7	-0.013893313
31	0xbd356cc5	-0.044293184

up1.up_conv.1.weight f4 [32]
0	0x3f7d0158	0.98830175
1	0x3f80eb76	1.0071857
2	0x3f807f27	1.0038804
3	0x3f802cfa	1.0013726
4	0x3f7b02d2	0.9805118
5	0x3f80e534	1.0069947
6	0x3f80b2ae	1.0054529
7	0x3f755093	0.9582607
8	0x3f8606ce	1.0470827
9	0x3f7ec763	0.9952299
10	0x3f794c20	0.9738178
11	0x3f84c5e4	1.0372891
12	0x3f83e145	1.0303122
13	0x3f786e70	0.97043514
14	0x3f7fe1d0	0.9995394
15	0x3f79b993	0.9754879
16	0x3f80e4ab	1.0069784
17	0x3f78bf9e	0.97167385
18	0x3f8134ba	1.0094216
19	0x3f85c371	1.0450269
20	0x3f7cc66a	0.98740256
21	0x3f7d0899	0.98841244
22	0x3f807609	1.0036021
23	0x3f79058f	0.97274107
24	0x3f819f75	1.0126787
25	0x3f7215fb	0.9456479
26	0x3f831d0b	1.0243238
27	0x3f77d184	0.9680407
28	0x3f83f89c	1.0310245
29	0x3f7f9dd3	0.99850196
30	0x3f74a01e	0.9555682
31	0x3f84abe2	1.0364954

up1.up_conv.1.bias f4 [32]
0	0xbad2736f	-0.001605613
1	0x3d58908e	0.052872233
2	0x3c99817f	0.018738506
3	0x3d3c2510	0.045933783
4	0x3c935c20	0.017988265
5	0xba187886	-0.0005816299
6	0x3ca4b69a	0.020106602
7	0xbb06c61c	-0.002056486
8	0x3d5c007b	0.053711396
9	0x3d15afeb	0.03654472
10	0x3d7ad66a	0.061239637
11	0x3d6becc1	0.057598833
12	0x3d2354c1	0.03987575
13	0x3cf92dba	0.030417312
14	0x3c9da997	0.019245906
15	0xbd2f9019	-0.04286203
16	0x3bce4bfa	0.006295678
17	0x3cbf8bfb	0.023382178
18	0x3cc33deb	0.023833236
19	0x3d83ce25	0.06435803
20	0xbcdc207e	-0.026870962
21	0x3cc647ce	0.024204161
22	0x3b0f81cd	0.0021897436
23	0x3d085bf2	0.03329081
24	0x3ceecf61	0.02915162
25	0x3ca2c29e	0.019868191
26	0x3d239c0a	0.039943732
27	0xbcc704f0	-0.024294347
28	0x3d12a9b5	0.035806376
29	0x3d4cb211	0.049974505
30	0xbd3b34d9	-0.045704696
31	0x3ce85d8a	0.028364915

up1.up_conv.1.running_mean f4 [32]
0	0xbed3c98a	-0.413647
1	0xbf25aaf3	-0.6471397
2	0xbf64e0b2	-0.8940536
3	0xbf91e00d	-1.13965
4	0x3eb88610	0.36039782
5	0xbe028d96	-0.12749323
6	0xbea29280	-0.31752396
7	0xbcb8d250	-0.022561222
8	0xbf42da5c	-0.7611444
9	0xbecfc727	-0.4058163
10	0xbf3dbdc9	-0.74117714
11	0xbe09c60e	-0.13454458
12	0xbed6f397	-0.4198272
13	0xbef8c4d8	-0.4858768
14	0xbe839e50	-0.2570672
15	0xbe2d89a7	-0.16947041
16	0xbdaa6c74	-0.08321467
17	0xbeae487b	-0.34039673
18	0xbed5246b	-0.41629347
19	0xbe9d3ddd	-0.3071126
20	0xbf1bcb77	-0.6085734
21	0xbe46126d	-0.19342966
22	0xbebe7b63	-0.37203512
23	0x3b832b88	0.004002992
24	0xbf26d0a6	-0.6516212
25	0xbe80e552	-0.25174958
26	0xbea46a23	-0.32112226
27	0xbdceed60	-0.101038694
28	0xbf442152	-0.7661334
29	0xbf0c1966	-0.54726255
30	0x3e70a053	0.23498659
31	0x3dc1b4ac	0.094582886

up1.up_conv.1.running_var f4 [32]
0	0x3f0a9c14	0.54144406
1	0x3f0b99ea	0.5453173
2	0x3f923980	1.1423798
3	0x3fb3e6ba	1.4054787
4	0x3f1ff0c0	0.6247673
5	0x3e1aed02	0.15129474
6	0x3ee8f696	0.4550063
7	0x3effea3f	0.49983403
8	0x3f8315f8	1.0241079
9	0x3f2889ab	0.65835065
10	0x3ee16769	0.44024208
11	0x3f0388d8	0.5138068
12	0x3f2ca7fb	0.6744382
13	0x3f8f34f9	1.1188041
14	0x3f2a6e7f	0.66574854
15	0x3f35e741	0.7105599
16	0x3f11c9b5	0.56948406
17	0x3f1d3964	0.61415696
18	0x3f08c777	0.5342936
19	0x3f1398db	0.57655114
20	0x3f46173e	0.77379215
21	0x3ea75565	0.32682338
22	0x3f0e8bb6	0.5568193
23	0x3eaec561	0.34134963
24	0x3f125147	0.5715527
25	0x3ecc5e37	0.3991563
26	0x3ead0b6f	0.33797786
27	0x3f6b2bc3	0.9186365
28	0x3f14e8dd	0.5816782
29	0x3f17d294	0.5930569
30	0x3e4a7f40	0.19775105
31	0x3e6d2593	0.23158865

up2.up_conv.0.weight f4 [32, 16, 3]
0	0x3db7d8dc	0.089769095
1	0xbc7c6830	-0.0154057
2	0xbc075eed	-0.008262378
3	0x3d3e8b2a	0.046519436
4	0xbcad7cbf	-0.021177648
5	0x3da3d49f	0.07999539
6	0x3df05348	0.11734635
7	0xbe283491	-0.16426302
8	0xbd53cd3e	-0.051709406
9	0xbd7ef64c	-0.062246606
10	0x3e0a9bc8	0.13535988
11	0xbd871547	-0.06595855
12	0x3dacbb16	0.08434121
13	0xbe36eace	-0.17863008
14	0xbd29fa6e	-0.041498594
15	0xbe1d5be0	-0.15367079
16	0xbdc0f51e	-0.094217524
17	0x3d463594	0.04839094
18	0x3d43a949	0.047768865
19	0xbe272f97	-0.16326748
20	0xbdc1d67f	-0.0946474
21	0xbde84e5f	-0.11343073
22	0xbddfcb2b	-0.10927423
23	0x3d66b180	0.05632162
24	0x3cbcc80c	0.023044609
25	0x3cc39fb5	0.023879865
26	0xbdac3a69	-0.08409578
27	0x3cffe1ae	0.031235542
28	0xbbe9e3e3	-0.007137762
29	0x3cb5c20f	0.02218726
30	0xbd2f89a5	-0.042855877
31	0xbda104c9	-0.07862241
32	0xbd6366ed	-0.05551808
33	0x3d2dffeb	0.04248039
34	0xbd06f8cd	-0.03295212
35	0xbd0ea0b8	-0.034821242
36	0x3e1158e8	0.14194071
37	0xbbb74261	-0.00559263
38	0xbd57ad5d	-0.052655566
39	0x3c42915c	0.011875477
40	0xbdde6181	-0.10858441
41	0x3d133149	0.035935674
42	0x3d0463ae	0.032321624
43	0xbdf8d5e0	-0.121501684
44	0x3ddd8334	0.10816041
45	0x3c84dc9c	0.016218476
46	0xbccc9c04	-0.024976738
47	0xbe095fac	-0.13415402
48	0xbc782966	-0.015146589
49	0x3d1fc5f7	0.039007153
50	0x3dfe5431	0.12418402
51	0x3d51b215	0.051195223
52	0xbe005052	-0.1253064
53	0x3df6cadd	0.12050412
54	0x3d2a5961	0.041589145
55	0x3e1880cb	0.1489288
56	0x3ce17481	0.027521374
57	0xbc824ec1	-0.015906693
58	0x3de1b6f8	0.11021227
59	0xbcd6f1fb	-0.026238432
60	0x3c836076	0.016037207
61	0x3d3d38ac	0.046196625
62	0x3e295101	0.16534807
63	0xbc28b0a0	-0.010296017
64	0x3cffa2f3	0.03120563
65	0x3dcec40f	0.10095989
66	0x3db04551	0.08606971
67	0xbddf9ce0	-0.109185934
68	0x3cd2c24f	0.02572742
69	0x3e14b48c	0.14521998
70	0x3c9184f5	0.017763594
71	0xbc90d121	-0.017677845
72	0xbdcc8fdd	-0.09988377
73	0x3de14295	0.10999028
74	0xbd7c64ca	-0.061619557
75	0xbccdaaad	-0.025105799
76	0x3de743b7	0.112922125
77	0xbddc3d9f	-0.10753941
78	0xbcd83c2c	-0.02639588
79	0xbd959186	-0.07303147
80	0xbdc9c575	-0.09852115
81	0x3d3faa6a	0.04679338
82	0x3c8087a5	0.01568968
83	0xbd9e7c93	-0.077386044
84	0x3cd101a6	0.025513481
85	0x3d875dae	0.06609665
86	0xbb3c204d	-0.0028705776
87	0xbdf3f809	-0.11912543
88	0x3cc01b65	0.023450563
89	0xbdc0c988	-0.09413439
90	0xbdaf730e	-0.08566867
91	0xbd332a2d	-0.043741394
92	0xbe2680f5	-0.1626013
93	0x3d3fc5c7	0.046819475
94	0xbd6d661e	-0.057958715
95	0xbd9a6d96	-0.07540433
96	0x3cbabd0c	0.022795223
97	0xbd106ad4	-0.03525813
98	0x3c98cc3a	0.01865207
99	0xbc873d10	-0.016508609
100	0xbe487fc5	-0.1957999
101	0xbde855ae	-0.11344467
102	0xbadeac19	-0.0016988545
103	0xbccf8117	-0.02533011
104	0xbd31035c	-0.043216094
105	0x3e1c7018	0.15277135
106	0x3d8f8049	0.0700689
107	0xbdc5038b	-0.096198164
108	0x3e1c70f3	0.15277462
109	0xbd9307ba	-0.07179208
110	0xbd16ad48	-0.036786348
111	0x3ddce3f6	0.107856676
112	0x3df90ec0	0.121610165
113	0xbce3a68c	-0.027789377
114	0xbbdc844c	-0.006729638
115	0x3cc96daf	0.024588434
116	0x3dd33923	0.10313632
117	0xbd4f8360	-0.0506624
118	0x3df3b8f9	0.11900515
119	0xbcb1ad57	-0.0216891
120	0x3be189e5	0.0068828934
121	0x3b326e9a	0.0027226568
122	0x3dec98a9	0.11552555
123	0xbd81ebbc	-0.06343791
124	0x3b6228d1	0.0034509192
125	0xbabe7066	-0.0014529347
126	0xbe1d37bb	-0.1535329
127	0x3c1cb369	0.009564259
128	0x3dcb69af	0.09932267
129	0xbc8d6b4f	-0.017263083
130	0x3c719c92	0.014746802
131	0xbdd02535	-0.10163347
132	0xbe03c26f	-0.1286714
133	0x3cd9de16	0.026595157
134	0x3d051150	0.032487214
135	0xbbcf5824	-0.006327646
136	0xbcbe7311	-0.023248227
137	0xbce7ca6a	-0.02829476
138	0x3d94dd86	0.07268815
139	0x3dcece56	0.10097949
140	0xbdd06f51	-0.10177482
141	0xbda5b9eb	-0.08092102
142	0x3c945dc6	0.01811112
143	0xbd24f51d	-0.04027282
144	0x3d73f944	0.05956389
145	0x3dfb2300	0.12262535
146	0xbe05b9ee	-0.13059208
147	0x3dc90017	0.0981447
148	0x3d3c38e7	0.045952704
149	0x3ddd46d2	0.108045235
150	0xbe28f09e	-0.16498038
151	0x3e196a9d	0.14982076
152	0xbdddecce	-0.108361825
153	0xbdca36db	-0.09873744
154	0xbd2ebc64	-0.042660132
155	0x3c3ed66d	0.011647803
156	0x3c32eab4	0.010920215
157	0xbd777433	-0.06041355
158	0x3b4f783c	0.0031657359
159	0xbcc42c57	-0.023946924
160	0x3e1ea22f	0.15491556
161	0xbc886300	-0.01664877
162	0x3d77aa21	0.060464982
163	0xbe11f5a4	-0.1425386
164	0x3dd463d8	0.10370606
165	0x3d5dc350	0.054141343
166	0xbdb650ba	-0.08902116
167	0x3da81be2	0.08208443
168	0x3b16edc3	0.00230299
169	0x3d651dd1	0.05593664
170	0x3db54b0f	0.08852207
171	0x3d735558	0.059407562
172	0xbe10303a	-0.14080897
173	0x3d9ee543	0.07758572
174	0xbe32c7f2	-0.17459086
175	0xbdfac190	-0.1224395
176	0xbe02fbd7	-0.12791382
177	0xbdd78328	-0.10523063
178	0x3dc7110e	0.0972005
179	0xbc9dbc90	-0.019254953
180	0xbe561718	-0.20907247
181	0x3d8cadcf	0.06869089
182	0x3e05b256	0.13056311
183	0xbdf3d79d	-0.11906359
184	0x3bd5c411	0.006523617
185	0xbdf2aa67	-0.11848908
186	0xbe02d22c	-0.12775487
187	0x3da5cd19	0.0809576
188	0x3dd2501b	0.10269185
189	0x3ba4626f	0.005016617
190	0xbd900e8d	-0.07034025
191	0x3d97fd1e	0.07421325
192	0xbdce0443	-0.100594066
193	0xbd9fbe36	-0.07799952
194	0xbd126e4e	-0.035749726
195	0x3c9abb9c	0.018888287
196	0x3cedd552	0.029032383
197	0xbc707929	-0.014677324
198	0x3b874a79	0.004128751
199	0x3cc75615	0.02433304
200	0xbda2d7cb	-0.079513155
201	0xbcea9e7d	-0.028640026
202	0xbceb875b	-0.028751066
203	0x3dea4224	0.114383966
204	0xbdecb885	-0.11558632
205	0xbd4825bb	-0.048864108
206	0x3d91d2c8	0.071202815
207	0xbdc579d3	-0.09642377
208	0x3d723d03	0.059140217
209	0x3d860a45	0.065449275
210	0x3d8b2cb9	0.067956395
211	0xbe702814	-0.23452789
212	0x3d804c8a	0.06264599
213	0xbdf2a960	-0.11848712
214	0xbe2f1980	-0.17099571
215	0x3d78ec67	0.060772326
216	0x3c353da3	0.011062059
217	0xbceaaf7e	-0.028648134
218	0xbbe3c594	-0.0069510434
219	0x3db8ff2f	0.090330474
220	0xbd3a2c56	-0.04545244
221	0xbdff93b8	-0.12479347
222	0x3d30c9fc	0.043161377
223	0xbd35e469	-0.044407282
224	0x3d81ccd6	0.063378975
225	0x3d49c1da	0.049257137
226	0x3cf55b03	0.029950624
227	0x3cb2aba9	0.02181037
228	0xbe18542d	-0.1487586
229	0xbda0285e	-0.078201994
230	0x3d609016	0.05482491
231	0xbc66336d	-0.014050347
232	0xbdb31d10	-0.087457776
233	0xbe080fbe	-0.13287255
234	0xbde0c26a	-0.109745815
235	0xbe401bea	-0.18760648
236	0x3ddbc985	0.10731796
237	0x3e02d8bd	0.12777992
238	0xbdb03565	-0.08603934
239	0xbd9eccec	-0.077539295
240	0xbd3038dd	-0.04302298
241	0xbd40d95c	-0.04708229
242	0xbd928ff6	-0.071563646
243	0xbd83d699	-0.06437416
244	0x3e072cc5	0.13200672
245	0xbdc26b58	-0.094931304
246	0xbdd59212	-0.10428251
247	0x3dc79a9e	0.09746288
248	0x3e1c1463	0.15242152
249	0x3db6a540	0.08918238
250	0x3c127ed1	0.008941368
251	0x3defe10a	0.11712845
252	0xbd620f63	-0.055190455
253	0x3ca2bca0	0.019865334
254	0x39f1e63f	0.0004613865
255	0xbd4d1c55	-0.050075848

up2.up_conv.0.bias f4 [16]
0	0x3ce0b968	0.027432159
1	0x3d0deba2	0.034648545
2	0xbd5b91f4	-0.05360599
3	0xbda7a579	-0.08185858
4	0xbc63f388	-0.013913043
5	0x3d5f1f4e	0.054473214
6	0xbe3cd3cc	-0.18440169
7	0x3d8bb784	0.06822112
8	0x3dba2478	0.09088987
9	0xbe0e3e92	-0.13891056
10	0xbe0939a2	-0.13400891
11	0xbc412131	-0.011787699
12	0xbc4875ea	-0.012235144
13	0x3d96fddb	0.07372638
14	0x3da3805b	0.07983466
15	0x3e3470a1	0.1762109

up2.up_conv.1.weight f4 [16]
0	0x3f8e224c	1.1104217
1	0x3f8e6509	1.1124583
2	0x3f8dae32	1.1068785
3	0x3f6d6c8d	0.9274376
4	0x3f8cf7c2	1.101311
5	0x3f8a3b03	1.0799259
6	0x3f8e81e7	1.1133393
7	0x3f8ac55e	1.0841482
8	0x3f8d436d	1.1036202
9	0x3f8c0852	1.0940039
10	0x3f877ce5	1.058499
11	0x3f8c35ff	1.0953978
12	0x3f8e7dfc	1.1132197
13	0x3f8ba910	1.0910969
14	0x3f8b1933	1.0867065
15	0x3f7e320d	0.9929512

up2.up_conv.1.bias f4 [16]
0	0x3e01c489	0.12672628
1	0x3deecd40	0.11660242
2	0x3df71e44	0.120663196
3	0xbe01f913	-0.1269267
4	0x3dee6f95	0.11642376
5	0x3da7ab77	0.08187001
6	0x3ded3447	0.11582237
7	0x3dd49a37	0.10380977
8	0x3dddc897	0.10829275
9	0x3ddac3cb	0.10681876
10	0x3d5d4356	0.054019295
11	0x3ddc4dff	0.10757064
12	0x3dece591	0.11567224
13	0x3dc89fb7	0.09796088
14	0x3dbe169b	0.092816554
15	0xbdb1d7eb	-0.08683761

up2.up_conv.1.running_mean f4 [16]
0	0xbd9c43e8	-0.076301396
1	0xbe3f5706	-0.1868554
2	0xbe1b340f	-0.15156578
3	0xbcfb559a	-0.030680466
4	0x3d3177f3	0.043327283
5	0x3d10afea	0.035324015
6	0xbe2dd238	-0.16974723
7	0xbe2165e6	-0.15761527
8	0x3db2d1b4	0.08731404
9	0xbf1a5559	-0.6028648
10	0xbecb15c9	-0.39665058
11	0xbe18f3e1	-0.14936782
12	0xbe169b4e	-0.14707682
13	0xbe8460bb	-0.2585505
14	0x3d24b563	0.040212046
15	0x3cc76e33	0.02434454

up2.up_conv.1.running_var f4 [16]
0	0x3e11d634	0.14241868
1	0x3e430fb8	0.19048965
2	0x3ea8532c	0.32875955
3	0x3d38a89c	0.045082673
4	0x3ec3eae6	0.3826515
5	0x3e83b525	0.2572414
6	0x3f9f95ab	1.246755
7	0x3ec82d25	0.39096943
8	0x3e5cfb57	0.21580254
9	0x3e1e7c4c	0.15477103
10	0x3e1c9d4f	0.15294383
11	0x3e46d42f	0.19416879
12	0x3e1e9fae	0.154906
13	0x3e8cdbb4	0.2751137
14	0x3e4dd0b4	0.20099145
15	0x3d90a229	0.070621796

out.outconv.0.weight f4 [1, 16, 3]
0	0xbdf50b88	-0.1196509
1	0x3c4f8415	0.012665768
2	0xbe3dae7f	-0.18523596
3	0xbe3a6170	-0.18201232
4	0xbe622438	-0.22084129
5	0x3cee1f09	0.029067533
6	0xbe22682f	-0.15860055
7	0xbe0f9e6f	-0.14025281
8	0x3d15f248	0.03660801
9	0x3ce1b770	0.02755329
10	0xbd85a5d5	-0.065257706
11	0x3cd1a10d	0.02558949
12	0xbd0abb39	-0.033869956
13	0xbe4b704c	-0.19867057
14	0xbe21a10c	-0.15784091
15	0xbc8ea94c	-0.017414711
16	0xbd6f9cca	-0.058499135
17	0xbe24b324	-0.16083962
18	0xbda38c93	-0.07985797
19	0xbdf2d760	-0.11857486
20	0xbe1a2caf	-0.15056108
21	0xbe449eb3	-0.19201164
22	0xbe5b6fa4	-0.21429306
23	0xbe2a3057	-0.16620003
24	0xbe0efe20	-0.13964128
25	0xbcd0c2f4	-0.025483586
26	0xbe3676a8	-0.17818701
27	0xbd2aa36d	-0.04165976
28	0xbda0a236	-0.07843439
29	0xbe66beb0	-0.22533679
30	0xbd09aa29	-0.033609543
31	0xbc6b1ebc	-0.014350589
32	0xbe1b3b35	-0.15159304
33	0xbd376cc0	-0.044781446
34	0xbe4c19e5	-0.19931753
35	0xbe15fc4d	-0.14647026
36	0xbe2de88f	-0.16983245
37	0xbd59aa97	-0.053141203
38	0xbe148865	-0.14505155
39	0xbe255f6a	-0.16149679
40	0xbe66f6a2	-0.2255502
41	0xbc0c72ff	-0.008572339
42	0xbd877953	-0.06614938
43	0xbda6ac7a	-0.08138366
44	0xbdae41bf	-0.08508634
45	0x3dc7b6f9	0.09751696
46	0x3d547d47	0.051877286
47	0xbdaeef96	-0.08541791
