CNN/best_model_net1.pth (torch, 36789 bytes, 13 tensors)

up1.up_conv.0.weight f4 [64, 32, 3]
00000000: 212a d23d c10d 9abd 190a 433d d0a0 3e3c
00000010: 41b9 703d ef5e fabc cb57 8d3d f3ec 35bd
00000020: 9f89 133d 75aa ccbc 8797 c73d a940 4bbd
00000030: 1be1 463d 146d 17bd c345 cebd 1588 aabc
00000040: e31a 023d 91d8 693c ad68 51bd d390 703d
00000050: 2046 c4bc e6fc 353d a03d eb3c a6de 053d
00000060: 62ed 01bd 5798 46bd 69b3 81bd ce46 8d3c
00000070: d736 9dbb 4d09 c73c e1f5 fabc 8b8a 4ebd
00000080: cdc0 b63c 93cb 9ebd 05de 763c 2395 80bd
00000090: 5617 fa3d b2be 3fbd db32 79bd 2117 39bd
000000a0: 5931 f83c 46a4 023d 1f10 c93d b8f4 8b3c
000000b0: 348a e53d 0afe 4b3d 8f27 003d 7312 adbd
000000c0: 5a67 17bd 384b 853d 9945 23bd 5e0c c2bc
000000d0: 5ddb 273b f570 7cbd ce98 2dbd 95a4 8cbd
000000e0: a23d 8a3d dfaa 853d ff09 5b3c 2de1 d63d
000000f0: c5f1 ab3c 2893 b03c 67c0 1d3d 8e22 b93d
00000100: b5e4 a93d a4fd fe3c 6769 913a 8d52 7dbc
00000110: 4fe1 a0bd 81c4 373c f185 bcbd 50bb 853d
00000120: 9523 6a3d 6991 be3d 21de 643c eae0 7abd
00000130: 926f 353d 20ae 8f3d d707 d5bd 97f3 1fbd
00000140: 2371 babd 01db 9d3d 33c9 22bd a2c3 9f3d
00000150: 485c 08bb 5ff5 81bd 55e2 39bd 485b 76bd
00000160: a70d b6bd bf67 893d 0e24 8a3c 32f7 68bd
00000170: 8f90 d43d 86af 9dbd 04c3 433c 2599 013d
00000180: 214c acbd a53d edbc 7bc1 6dbd e9ee 22bd
00000190: 995e 65bd 2c71 7bbd 1c9a 2c3c d658 a93c
000001a0: 8fd4 c93d 84e7 513d a03e dd3c 5406 45bb
000001b0: 7d89 58bd 61ba a03d 4421 163b fd33 003b
000001c0: 7151 803c d13e cb3c eb5a a63c 7aff 2fbd
000001d0: ade5 58bd 9165 f5bc 5eb9 eabb 6c18 a53c
000001e0: 489e ca3d 5c47 51bd 57bc bdbd b72c e63c
000001f0: e49e df3d f9bc 3fbd 9221 d23d 1e87 3a3d
00000200: 2707 a8bd 337f 903c 1a45 40bd d375 3d3d
00000210: 2729 f93c bba1 7d3d c0ec 8bbd c649 f2bc
00000220: 413c 493d d0b9 393c 4d9e 953d e0cf d43c
00000230: 5047 0e3c c5a1 efbc 4e16 5c3c 2008 a1bd
00000240: 951a 163d 1556 8ebc 02d7 23bd 7dd8 dabb
00000250: 65bc 91bc 80f4 9bbd 01bf 573c 24cf e6bd
00000260: 18ea a23c 90b7 16bd f064 b7bd 88dd c13c
00000270: f7fa 063d f43c 1c3c 20cb 063d ec8f c73c
00000280: dd8b 89bd bca9 48bc 0de0 113d 0ee7 423d
00000290: 9ac7 f43c 57dc b0bd d2ae 413d 449d aabc
000002a0: 1bce 95bb 1486 8f3d 05d9 a6bd 344e e53d
000002b0: d5ae ca3b 4afa 9e3d f36e 97bd 5c80 d6bc
000002c0: 9d59 15be 2c93 d0bd c893 bd3d fda1 253d
000002d0: e8a0 0cbc 004a d0bc f9dc b83c c7bd 3bbe
000002e0: d923 c83d 880a 963c ec4b 5a3d 519f aabc
000002f0: 8eb1 d7bc 5b18 e13c 9ef1 6e3d 0e8b 9b3d
00000300: ccd1 563c 220c a63d 6e2f 3bbd 8438 babc
00000310: 875d 0bbc b149 aebd e5ae 91bd 436e d1bd
00000320: 580f f53d 04d1 703c 8434 253d 039d 443d
00000330: 9f87 c43c 9ac2 f93d a608 b2bc 3d67 4dbc
00000340: 125d 3dbd 5d38 2dbc 009e a33d bb38 55bd
00000350: ca91 54bd b282 e5bd c138 95bd 8ee4 81bc
00000360: bd75 41bd 5044 7ebc 0504 cebd 8cbf c3bd
00000370: c438 b43d 90c0 36bd 539c 6e3d e3aa 5e3d
00000380: 2907 8bba f60e 63bd e4f2 2cbd e7ed 08bd
00000390: c2f1 dcbd 3b3f ac3c b429 943c 0df5 933d
000003a0: 50ab a5bd 38e6 053d c31c 8fbb 52b9 61bc
000003b0: cd70 66bd 89cf 34bd 2fb7 fd3c bc2b d1bd
000003c0: d96d 953d cb05 f4bc d536 b33d b9d4 023c
000003d0: 29f0 88bd 3b0f 0c3d a97a aabd 675c 9a3c
000003e0: 73cb 4bbd 002e 89bd 506f a93d 7962 53bd
000003f0: a50c 913d 867b 9c3d 7002 65bd a10e 643c
0.10261942 -0.075221546 0.04761705 0.01163502 0.058770422 -0.030562846 0.06901511 -0.044415426
0.036019918 -0.024983624 0.097456984 -0.04962221 0.04855452 -0.03696926 -0.100719 -0.020816842
0.031763922 0.014272825 -0.051125217 0.058731865 -0.02395922 0.044430636 0.028715909 0.032683037
-0.031720527 -0.048485126 -0.06333048 0.017245676 -0.004797797 0.024296427 -0.030634822 -0.050425094
0.022308731 -0.077536725 0.015067582 -0.062784456 0.12211482 -0.04681272 -0.060839515 -0.045188073
0.030296968 0.031894945 0.09817528 0.017084464 0.11208001 0.049802817 0.031287726 -0.084507845
-0.036963798 0.065084875 -0.039861295 -0.023687538 0.0025612928 -0.06163116 -0.042382054 -0.06867329
0.06750037 0.06526732 0.0133690825 0.104921676 0.020989308 0.021554545 0.038513567 0.09039794
0.082955755 0.031126805 0.0011094034 -0.015461576 -0.07855474 0.011216284 -0.09205235 0.06529868
0.05716284 0.093050785 0.013968975 -0.06124965 0.044295855 0.070156336 -0.10401886 -0.039050665
-0.0910361 0.07707787 -0.03974266 0.07800986 -0.0020806957 -0.06345629 -0.045381863 -0.060145646
-0.08889323 0.06709241 0.016862895 -0.05687637 0.10379135 -0.07699494 0.011948351 0.03164019
-0.08412958 -0.028960058 -0.058045845 -0.039778624 -0.05599842 -0.061387226 0.010534789 0.020672243
0.098549955 0.05124618 0.027007401 -0.0030063586 -0.052865494 0.07848049 0.0022908011 0.0019562237
0.015663834 0.024810227 0.020307025 -0.04296825 -0.05295341 -0.029955657 -0.007163211 0.020153247
0.09893471 -0.051093444 -0.092644386 0.028097494 0.10918978 -0.046811078 0.10260309 0.045539014
-0.08204489 0.017638778 -0.0469409 0.046254944 0.03041513 0.061921816 -0.06832266 -0.029576194
0.04912973 0.011335805 0.07305584 0.025978029 0.008683994 -0.029251942 0.013433052 -0.07862878
0.036646444 -0.017375031 -0.03999997 -0.0066786394 -0.017790029 -0.07614994 0.0131680975 -0.11269978
0.019887015 -0.036796153 -0.08954799 0.023665205 0.032954182 0.009536017 0.03290856 0.02436062
-0.0671613 -0.012247499 0.035614062 0.047583632 0.029880334 -0.086357765 0.047285862 -0.020826943
-0.004571689 0.07007995 -0.08146862 0.11196557 0.0061853924 0.077625826 -0.07394209 -0.026184253
-0.14584966 -0.10184321 0.09256703 0.040437687 -0.008583285 -0.025425911 0.022566305 -0.18334113
0.097724624 0.018315569 0.05329506 -0.020827921 -0.026329782 0.027477434 0.058335893 0.07594882
0.013111543 0.08107783 -0.04569953 -0.022732027 -0.008506185 -0.08510149 -0.071134366 -0.10226109
0.11965817 0.014698271 0.040333286 0.0480013 0.02399045 0.121953204 -0.02173264 -0.012536821
-0.046231337 -0.01057252 0.079891205 -0.052056056 -0.051896848 -0.11206569 -0.072862156 -0.015856054
-0.047231425 -0.015519217 -0.100593604 -0.09558019 0.0879989 -0.044617236 0.05825455 0.05436219
-0.0010606992 -0.05543419 -0.042223826 -0.033430006 -0.10788299 0.021026244 0.018086292 0.07224474
-0.08089316 0.032690257 -0.0043674423 -0.013777094 -0.05625992 -0.044143233 0.030971138 -0.1021342
0.072963424 -0.029787919 0.08750693 0.007985287 -0.06686432 0.034194212 -0.08324177 0.018842889
-0.04975457 -0.06698227 0.08273184 -0.051607583 0.0708249 0.07640748 -0.055910528 0.013919503

up1.up_conv.0.bias f4 [32]
00000000: b917 f7bc ae4d 99bd fdb3 3cbd a15d b4ba
00000010: 93fb fc3b 843a 913d 69e0 f0bc 9ab8 b23d
00000020: ec95 38bd 95a4 b43c bc67 8a3d 963d 1d3d
00000030: fb62 5ebd 4daa 1e3c c58c b3bd 22fc 9e3d
00000040: 64c0 a63c f80f bb3c 3a43 37bd a15a 813d
00000050: e5af d8bc 0ba1 0dbd 405b 6c3d b352 a5bd
00000060: 62a1 b83d 3e53 c0bd 9636 24bd 5c9f beb8
00000070: b06d a53d 3fed 193c 7cd5 963d 5574 cfbd
-0.030162679 -0.07485519 -0.046070088 -0.0013760814 0.0077204197 0.07091239 -0.029403882 0.08726616
-0.04506485 0.022051135 0.06758067 0.03838881 -0.054293614 0.009684158 -0.08767084 0.07762934
0.02035541 0.022834763 -0.044741847 0.06316114 -0.02645106 -0.03457741 0.05770421 -0.08072414
0.09015156 -0.09390877 -0.04009112 -9.089589e-05 0.08077562 0.009394943 0.07364938 -0.101296104

up1.up_conv.1.weight f4 [32]
00000000: 0d7e 843f ec6d 843f 6f1d 803f c493 803f
00000010: bcb0 813f 76e1 833f 1d93 823f 9f15 7f3f
00000020: 9cf3 793f 73b3 7d3f f6f9 7d3f bfd5 753f
00000030: feb5 813f bba0 833f bfc3 823f a8b8 763f
00000040: 3bf5 7b3f bbbb 813f c668 803f 63fd 7b3f
00000050: 9811 853f f24d 803f 07f6 7f3f 8959 813f
00000060: b052 783f b9f6 7c3f f4cf 7c3f 91ce 803f
00000070: d4b0 763f 3abe 853f 8146 813f a69b 7d3f
1.0350968 1.0346045 1.0008982 1.0045094 1.013206 1.030318 1.0201145 0.99642366
0.97637343 0.9910194 0.99209535 0.96029276 1.0133665 1.0283426 1.0215987 0.96375513
0.98421067 1.0135416 1.0031974 0.9843351 1.0395994 1.0023787 0.9998478 1.0105449
0.9700117 0.9881397 0.9875481 1.0063039 0.9636357 1.0448678 1.0099641 0.99065626

up1.up_conv.1.bias f4 [32]
00000000: 4169 db3a 07c6 443d e59e 0d3c 1dce 13bd
00000010: 1405 9e3c 5271 a43b afd5 ac3c 245f 4d3c
00000020: e9b5 25bb 5816 843c 837f ccbb 4c4e 89bc
00000030: 8a6f 4bbb c03d ba3c 743c e53c 838b 04bd
00000040: 819a db3a 0da3 003d 69cb 25bc e32d cfbb
00000050: cea5 333d 15d2 acba a965 183d 5fc1 f43b
00000060: ea66 c03c c120 ae3b dd37 373c 819e 9f3b
00000070: 1602 b6bc 44f6 86bc fc33 873c 99ac 9f3c
0.0016739742 0.048040416 0.00864384 -0.036085237 0.01928953 0.0050183916 0.021097986 0.01253489
-0.002528543 0.016123936 -0.0062407865 -0.016760968 -0.0031041824 0.022734523 0.027982928 -0.03235961
0.001675442 0.031405497 -0.010119298 -0.006322609 0.043859296 -0.0013185168 0.037206326 0.0074693407
0.023486573 0.005313963 0.011182752 0.00487119 -0.022217792 -0.01647485 0.01650428 0.01949148

up1.up_conv.1.running_mean f4 [32]
00000000: a66e 4fbe 56a6 90be 3d8b ddbd 3f7f 37be
00000010: 8933 073e 54af f2be 9f88 9cbe 0938 37be
00000020: 1c9b 5dbe 1563 a8be b749 843e fc18 ec3d
00000030: f677 c4bc 8e68 bebe d685 483e aeaa 853d
00000040: 1ec1 ffbe 9ef8 11bf 3a59 9bbe ea92 08be
00000050: a777 f1be 228f 753e 668c cbbd 6d51 0a3e
00000060: 038a 113d 7795 fb3c 685c 64bf 692d d1be
00000070: 1abf b2be b64b 2bbd 4a70 703e 85b1 04be
-0.20257053 -0.28251904 -0.10817573 -0.17919634 0.13203253 -0.4739939 -0.30572984 -0.1789247
-0.21641201 -0.32888094 0.2583749 0.11528203 -0.023982983 -0.37189144 0.19582304 0.06526695
-0.49952024 -0.57019985 -0.30341512 -0.13337293 -0.471616 0.23980382 -0.09938888 0.13507624
0.03553201 0.030710919 -0.892035 -0.40854958 -0.34911424 -0.04182025 0.23480335 -0.12958343

up1.up_conv.1.running_var f4 [32]
00000000: 386a 233e 3df0 263e 3884 603e 6c57 c53e
00000010: 47af 3a3e 98c4 883e 10c7 793e 19a7 0e3e
00000020: 6ca8 483e 0f22 343e 92bf b23e c5de 8f3e
00000030: c66f 9f3d 31f0 0f3e 7410 8f3e a9ea 7c3d
00000040: b0d3 933e f77f 9f3e 7a58 593d 4399 2c3e
00000050: 6756 023f cba2 4e3e e76e 0c3e 05bb 8e3d
00000060: 5658 2a3e 66ba 243e 04c9 243f 6a30 683e
00000070: 01dd b13e 9323 803d 092d b63d c1f8 6d3e
0.15958488 0.16302581 0.21925437 0.3854326 0.18230926 0.2671249 0.24392343 0.1393093
0.19595498 0.17591117 0.34911782 0.28099647 0.07784991 0.1405647 0.2794224 0.061747227
0.28872442 0.31152317 0.053062893 0.1685534 0.5091309 0.20179288 0.13714181 0.06969265
0.1663526 0.1608673 0.64369226 0.22674718 0.34738925 0.06256785 0.088953085 0.23239423

up2.up_conv.0.weight f4 [32, 16, 3]
00000000: e411 d93d 041c 41be 92a5 293e 2e5d 57bd
00000010: 71dd c23d d45a 743d 6b5b 093e 91d0 883c
00000020: d9e7 fc3c 1326 54bd af4e fd3d b533 f2bc
00000030: 7cef c33d febe 833d ed95 f3bd 19a6 08be
00000040: cd0c ca3b 81f2 ea3d 4732 d7bd 937b 12be
00000050: 0863 8a3b 00fc 3a3d eecb d73b 4ce3 bbbc
00000060: 25ad 30be 11c5 7abd 5fe1 82bc 1e3c b53d
00000070: 4014 853d af3b 343c fc57 31bd b7b5 8c3d
00000080: 25c3 d93d 179a e3bd 0b86 34be 7d97 06bd
00000090: 56d9 023e 5e77 fb3b 9e0a bfbc 7e88 123d
000000a0: 9b59 76bc c4d5 1c3d 976e eabd bc7a ee3d
000000b0: 1ebb 563c 4d79 973d 9bf2 173e 9eb7 a9bd
000000c0: 20e2 0d3e 62bb 543c b213 ca3d 94cc 19be
000000d0: 5014 b23d b339 2fbd 5755 ba3b 50f8 17bc
000000e0: 6928 60bd 064f b33c 5d44 bebd d259 ca3c
000000f0: 1e70 0a3d 2a70 21be 22d5 04be d336 233b
00000100: 3805 f43d a220 ab3d fa64 e1bd 8b21 adbd
00000110: f07c 06bd f975 3a3d 8de6 91bb e4a4 debd
00000120: 1ae5 2b3a 0f01 f03d a1d7 b1bd 6fb1 8fbd
00000130: babc fbbb 325f afbb fb87 9dbd 9195 8abb
00000140: a6af 81bd 6230 babb 4759 e9bd 7ffa 243e
00000150: d98a 203e cbe5 84bc 1a42 963c b0ec 0a3d
00000160: c5d8 d83d 640a d6bc 5939 c7bc b4a5 debc
00000170: 62ac 06be 434c 873d d0e4 23be b62b 213e
00000180: 6a5e d33d 26d2 0cbe e122 e3bd fa10 5d3d
00000190: 7572 4abc ba72 9fbd 3713 683d b3f6 663b
000001a0: c98a 01bd 87ed 203e 3b13 cabd c14b 653c
000001b0: 5097 c13d 2c4c bd3d 50f0 e33d 96d8 dc3d
000001c0: 8467 1fbc bf08 203d 002b ac3d c2df 843d
000001d0: 3d87 8b3d beab b63b 8d87 1e3d bbae 0c3e
000001e0: f347 bf3d 5d20 ecbd 6e45 763d 2419 c53d
000001f0: 4712 76bc cc2d 823d 5661 83bd bf43 3ebd
00000200: af54 12bd a8cf ff3d 9b04 dd3c ae49 d93d
00000210: 3826 83bd 6bae 1f3d 6b08 61bd ec97 d73c
00000220: d938 273e 6a0f 523c b101 8f3d 87b7 9abd
00000230: 072f 07bd 6a69 673d 16e7 40bc d8eb 9c3c
00000240: eb7e dbbd 1d4d 533d 13c4 983d 6510 77bd
00000250: 60ff f5bd 86e4 adbd 1e86 113d 6c01 e2bd
00000260: 920e f7bd 2d3b d3bd 9c7d 9abd 7586 5b3d
00000270: 6a60 b5bc ca99 1bbd 8fe5 05bc c2b1 08be
00000280: bd5c edbd 40bc 7ebb 6e6a 9bbc 6a3e 323b
00000290: 78e3 693d c70b f33d 8469 ddbd e3d8 afbd
000002a0: ab23 db3d 8a63 773d 9617 26bd 33eb d03c
000002b0: 8fc0 16be 7434 013e 2a03 793c 61bd 09be
000002c0: 8964 623d feb6 dcbd 804e a5bd 7d77 f43c
000002d0: c065 cd3d f38f e73c 266e 813c 2509 f23d
000002e0: bdaa 8f3d 1444 04be f04f 833d fab9 083e
000002f0: 3f1b 0f3b f020 0cbe 4971 fbbd 498a bbbd
00000300: 0391 18bd 9926 423c 5714 543d 33ba ee3d
00000310: 4399 5d3b 5e44 863d f523 2ebe 6093 fb3d
00000320: 6a6f b5bd e0bb e93c 5d3b c13c 33eb aabd
00000330: 14fa 75bd 66de 803e 341b 89bd 4b95 31bc
00000340: 5ac1 1abd 0e6c 8bbd 5fe2 cdbd 4c93 2e3c
00000350: 49a6 19be f6ec 0abe ba62 6a3d b162 9f3d
00000360: 8536 be3d a4e2 543d 8c07 46be 8f18 453d
00000370: 8d58 22be 843c 633c 9eee f53d 5f2e 06be
00000380: 175b a63d 761e 043e a896 c23c d338 ec3c
00000390: 0dcb 91bd a92e 5fbd 4f5a da3d 8a21 643e
000003a0: 530e 853c 99c2 ca3d d2ab 00be 5df6 7abd
000003b0: 6335 f0bd 8e14 703d 115c 76bd f78b 8a3a
000003c0: 3833 563d 10ad aa3c 1c7c 7abc 7d5a b3bd
000003d0: d4a9 53be 68db 373e cf0b 983d b20c 16bb
000003e0: 5b72 2c3d fe75 d1bd 42a8 823d 7712 86bd
000003f0: e401 03be 7f7e 09be 1f50 2ebd 2b5f babc
0.105991155 -0.18858343 0.16567066 -0.052579097 0.09514893 0.059656933 0.1341378 0.016701015
0.030872272 -0.051794123 0.12368523 -0.029565671 0.095671624 0.06432913 -0.118938304 -0.13344611
0.0061660768 0.11472035 -0.105076365 -0.14304952 0.004223231 0.045650482 0.0065855896 -0.022935532
-0.1725355 -0.061223093 -0.015976606 0.08849357 0.06498003 0.011000558 -0.0432968 0.06870597
0.10632924 -0.11113375 -0.17629258 -0.032859314 0.1277822 0.007674142 -0.023320492 0.0357747
-0.015036012 0.0382898 -0.114468746 0.116445035 0.013106136 0.07396183 0.1483864 -0.08286975
0.13855791 0.012984129 0.09867038 -0.15019447 0.086952806 -0.042779636 0.005686443 -0.009275511
-0.054726038 0.021888267 -0.09290383 0.024701033 0.03379833 -0.15765443 -0.12971929 0.0024904504
0.11915058 0.083558336 -0.11005588 -0.084536634 -0.032833993 0.045522664 -0.0044525326 -0.10871294
0.0006557271 0.11718952 -0.08683706 -0.07016265 -0.00768241 -0.0053519243 -0.07691952 -0.0042292555
-0.063323304 -0.005682037 -0.113939814 0.16111182 0.15677966 -0.016222855 0.018342067 0.03391713
0.105882205 -0.026128002 -0.024319338 -0.027178623 -0.13151696 0.06606343 -0.16005254 0.1573933
0.103207424 -0.1375204 -0.11090637 0.05397127 -0.01235639 -0.07785554 0.05665895 0.003524226
-0.031626496 0.1571561 -0.09866949 0.013995112 0.09452689 0.09243044 0.1112982 0.10783498
-0.00972927 0.03907084 0.08406639 0.06487991 0.06812904 0.0055746725 0.03870349 0.1373853
0.09339895 -0.1152961 0.060124807 0.09623936 -0.015019006 0.06356391 -0.0641505 -0.046451326
-0.03572529 0.12490779 0.026979735 0.106097564 -0.06403774 0.038984697 -0.05493967 0.02631756
0.1633028 0.012821058 0.069827445 -0.07554536 -0.033003833 0.056497015 -0.011773845 0.019155428
-0.10717567 0.051587213 0.07459273 -0.06031837 -0.120115995 -0.08490853 0.035528295 -0.110354275
-0.12063326 -0.10314021 -0.07543489 0.053595025 -0.0221407 -0.03798846 -0.008172407 -0.13349059
-0.11589954 -0.003886953 -0.018971648 0.0027197846 0.057101697 0.11867481 -0.10811141 -0.0858629
0.107001625 0.060397662 -0.040549837 0.025502777 -0.14721893 0.12617666 0.015198508 -0.13451149
0.05527166 -0.107770905 -0.08071613 0.029842133 0.10029173 0.028266883 0.015799593 0.118181504
0.070149876 -0.12916595 0.06411731 0.13352194 0.0021836308 -0.1368444 -0.12277467 -0.09157235
-0.03724767 0.011850023 0.05177721 0.116566084 0.0033813275 0.06556009 -0.17005904 0.12283969
-0.08859141 0.028531969 0.023587877 -0.08345642 -0.060052946 0.25169677 -0.06694642 -0.010838817
-0.03778205 -0.06807719 -0.100529425 0.0106552355 -0.15004839 -0.13566956 0.05722306 0.07782496
0.092877425 0.051973954 -0.19338816 0.048119124 -0.15854092 0.0138694085 0.12008403 -0.13103627
0.08122843 0.12902245 0.02375348 0.02883569 -0.07118807 -0.054487858 0.10661756 0.22278419
0.016242182 0.09900398 -0.12565544 -0.061270107 -0.11728933 0.058613352 -0.060146395 0.0010570277
0.05229494 0.020834476 -0.015288379 -0.08757494 -0.20670253 0.1795479 0.07424127 -0.002289575
0.042101245 -0.10227583 0.06379749 -0.06546491 -0.1279369 -0.1342716 -0.04255688 -0.022750458

up2.up_conv.0.bias f4 [16]
00000000: 1f60 10be 4406 223e d102 003e 6e41 ed3c
00000010: fb92 e53d e8ee cb3d 154b 39bd 807e 283d
00000020: 99af e5bd df43 7bbd 84d4 22be fd46 e13d
00000030: b069 f8bc 1754 ecbd e928 6bbd 5b38 0dbe
-0.14099167 0.15822703 0.12501074 0.028961863 0.11209675 0.09957677 -0.04523762 0.041136265
-0.11215133 -0.061344024 -0.15901381 0.10999868 -0.030323833 -0.11539476 -0.05741206 -0.13791029

up2.up_conv.1.weight f4 [16]
00000000: 5ec7 853f 323e 873f 17db 883f dcbc 873f
00000010: cd0b 7f3f 2a82 883f 8d39 883f e17e 883f
00000020: 2700 883f eaf1 8a3f c8d0 883f 424a 873f
00000030: d1aa 7f3f 7cc1 833f 13dc 893f e3e0 893f
1.0451467 1.0565856 1.0691861 1.060451 0.9962738 1.0664723 1.0642563 1.066372
1.0625046 1.0855076 1.0688715 1.0569537 0.9987002 1.0293422 1.0770286 1.0771755

up2.up_conv.1.bias f4 [16]
00000000: a683 3fbc c41e 78bc 65a8 8abc 3137 573d
00000010: 5954 f23b 1ec4 803d 4ca3 933d 0824 7a3d
00000020: 7f73 773d ce7d a73d c95c 6a3d 35cf 813d
00000030: 3de6 30bd 5406 1ebb c8dd 993d 1949 903d
-0.011689102 -0.015144054 -0.016926 0.05254287 0.007395309 0.062874064 0.07208881 0.06106952
0.06041288 0.08178292 0.057217393 0.0633835 -0.043188322 -0.0024112659 0.075130045 0.07045192

up2.up_conv.1.running_mean f4 [16]
00000000: ed6c e93d 4bfb a13e 125f 883e 43e5 a63d
00000010: 2cfd 863e 692c 4abc 6f54 05be db66 5fbd
00000020: ec96 d3be 487d 343d 926c ffbe b94b 76bd
00000030: 2f91 443e 9474 353e df17 3e3d 6785 75be
0.11397729 0.31637034 0.26635033 0.08149197 0.2636503 -0.01233969 -0.1302049 -0.05454145
-0.41326082 0.04406479 -0.4988752 -0.06013081 0.19196008 0.17720252 0.046409484 -0.2397667

up2.up_conv.1.running_var f4 [16]
00000000: dabf 833d 74de 013d 4d7f 063d 6034 053e
00000010: 3196 313e 6063 1a3e 222f 6a3d 0efd 113e
00000020: caa8 283e eaca 6c3d 466f b33d 7537 ce3e
00000030: 59c9 613d e19a b83d 869b 143e 30dd 0c3e
0.06433077 0.03170629 0.032836247 0.1300826 0.1734245 0.15076971 0.057173856 0.14256689
0.16470638 0.0578107 0.08761458 0.40276685 0.05512366 0.09013916 0.14512452 0.13756251

out.outconv.0.weight f4 [1, 16, 3]
00000000: aadc b73c 56b6 efbd 16c1 e73d d2fa ab3d
00000010: 1176 003d a5f1 1dbd 883e 0e3e 1aed aabd
00000020: 3575 00bc 56e0 483e c045 a73c 0c6e e33d
00000030: 2eb6 85bb a3c5 febd ee6b c73d 7ba1 bb3d
00000040: 6cf6 1c3e 85c1 0e3e 4e47 adbd 1b4a 1d3e
00000050: 40cb 4f3e a5ce 483e 9dd9 0f3d efb2 4c3e
00000060: 69ce 323e 8c9f f63d 5b95 033e 9008 423e
00000070: e86f 10bd 1665 a5bd 3201 3f3e eac9 593e
00000080: db0e 1a3e 6776 813d 0211 2d3e 3c08 d43d
00000090: e801 f0bd 0209 e53c 6297 cebc 60ea 6abd
000000a0: 613c 483e afd2 5dbd 4396 8e3c 5366 363e
000000b0: 9bb4 97bb 7f7d 063e a893 5abd 8304 273e
0.022444088 -0.117047 0.11316125 0.083974496 0.031362597 -0.03856053 0.13891041 -0.08346005
-0.007840444 0.19616827 0.020419002 0.11104974 -0.0040805554 -0.1244004 0.09737383 0.09161659
0.15328377 0.1394101 -0.08460866 0.153603 0.20292377 0.19610079 0.03511964 0.19990133
0.17461552 0.1204215 0.12849943 0.18948579 -0.035262972 -0.08075921 0.186528 0.2126843
0.1504473 0.063214116 0.16901019 0.10353133 -0.117191136 0.027958397 -0.02521867 -0.057352424
0.19554283 -0.054156 0.017405635 0.17812471 -0.004629684 0.1313381 -0.053363472 0.16310315
