CNN/best_model_net0.pth (torch, 40038 bytes, 18 tensors)

inc.conv.0.weight f4 [16, 1, 3]
000000 6c 4c f0 3e f4 91 48 be 62 9a a1 3d 42 d6 0e 3f
       0.46933305 -0.19586927 0.07890774 0.5579568
000010 23 45 9f be 8a 0a 59 3d c9 b2 5a be 8a 93 c2 3d
       -0.31107435 0.052988566 -0.21357264 0.09500797
000020 49 86 06 bd fd 87 ca 3e 60 9f 3c 3d 7c ab e7 be
       -0.032842908 0.39556876 0.04605043 -0.4524802
000030 08 a1 29 3e f7 ae 7f 3e 9f c0 fe 3d f2 c0 35 be
       0.16565335 0.24969088 0.12439083 -0.17749384
000040 25 93 11 3f 69 5c b9 be e5 31 8d be 9c 92 95 bc
       0.5686515 -0.36203316 -0.2757713 -0.018258385
000050 d4 5c 8c 3e 4a 89 8b be cf a2 26 be f0 52 54 be
       0.27414572 -0.2725318 -0.16273044 -0.20734763
000060 94 ea 86 be 58 5b 66 be b6 cb 24 3d e1 e3 bc be
       -0.26350844 -0.22495782 0.040233336 -0.36892608
000070 7c 92 14 3e 1c 05 24 3e 88 28 29 3e d0 43 07 bf
       0.14509004 0.16017574 0.16519368 -0.5283785
000080 b6 09 ac 3e ee 39 8b be 46 ba 63 bd 15 4b cf 3e
       0.3360116 -0.27192634 -0.055597566 0.4048697
000090 ce bd d9 be 89 bf e8 3e f3 10 a1 3e 69 fc 5e bd
       -0.42527622 0.4545863 0.31458244 -0.054439936
0000a0 b1 e1 0e be fd a1 b4 bd ad 72 2b bd da d0 aa be
       -0.13953282 -0.08819959 -0.04185741 -0.33362466
0000b0 c7 d5 8d be 2d d2 89 3e 4b a3 91 be 34 f8 4b be
       -0.27702162 0.26918164 -0.28444895 -0.199189

inc.conv.0.bias f4 [16]
000000 69 a9 ac bb be 31 1d 3c 8c 89 18 3f 13 56 0c 3f
       -0.0052692187 0.009594379 0.5958488 0.5481884
000010 af 14 4f 3e b0 86 47 3e 1a de ec 3e ac 4d 15 be
       0.20222734 0.19484973 0.462632 -0.1458041
000020 e3 a0 f7 be 24 b4 32 3c ff 0f a5 be ae ff 5d be
       -0.48364934 0.010907207 -0.32238767 -0.21679565
000030 75 f6 bd be 42 e4 37 be 4d a5 17 3b ab f0 8f bd
       -0.37102094 -0.17958167 0.0023139298 -0.07028326

inc.conv.1.weight f4 [16]
000000 c2 3d 3e 3f 9d ed 20 3f ad 2c 84 3f ef 62 83 3f
       0.74312985 0.6286257 1.0326134 1.0264567
000010 61 d7 39 3f 0c ab 95 3f 13 73 84 3f ad 21 4a 3f
       0.7259427 1.1692824 1.0347618 0.78957635
000020 94 63 5d 3f ed ee 2c 3f e0 b9 9b 3f f5 5f 81 3f
       0.8648007 0.6755207 1.21661 1.0107409
000030 cf c3 3d 3f 9e f8 54 3f 27 5a 36 3f 3f 67 6c 3f
       0.74126905 0.8319186 0.7123131 0.9234504

inc.conv.1.bias f4 [16]
000000 01 a6 da 3e 83 8b cb 3e 43 af 1c 3f da 45 4b 3f
       0.42704776 0.39754876 0.6120493 0.7940346
000010 68 64 4d 3d 79 73 23 3f 4f 78 d7 3e 1f 5f 20 be
       0.050144583 0.6384807 0.42083976 -0.15661286
000020 66 63 c5 bc 0b 0f 39 3e 2b 13 07 3f c3 c2 1f 3f
       -0.024095248 0.18072145 0.52763623 0.6240656
000030 f9 2b 28 3f f9 87 7a bd 12 ae e6 bd 65 cf 16 3f
       0.65692097 -0.06116483 -0.1126367 0.5891021

inc.conv.1.running_mean f4 [16]
000000 0d c1 13 bb 9c a3 45 3c fa 42 18 3f 85 3e 0c 3f
       -0.0022545487 0.012062933 0.594772 0.547829
000010 fa 3a 53 3e cb de 47 3e b7 c2 ec 3e 55 67 1a be
       0.20627967 0.19518583 0.46242306 -0.1507848
000020 75 6c f9 be d8 41 29 3c d7 47 a5 be 55 a5 5d be
       -0.4871556 0.01033064 -0.32281372 -0.216451
000030 5f 93 bc be 39 4a 3a be 43 9b 3c bb f2 20 93 bd
       -0.36831185 -0.18192376 -0.0028779067 -0.07184018

inc.conv.1.running_var f4 [16]
000000 b2 32 8f 35 c9 59 a4 35 39 6a 62 34 fa 8a 4f 35
       1.0669085e-06 1.2245083e-06 2.1086534e-07 7.7315747e-07
000010 dd 1d bb 35 83 e7 72 35 da 10 ae 34 97 bb 05 36
       1.3941277e-06 9.048892e-07 3.2422287e-07 1.9927736e-06
000020 a1 4c 8d 35 50 7a da 34 99 a1 51 35 cd 3f 10 35
       1.0527621e-06 4.0694658e-07 7.809372e-07 5.373702e-07
000030 c9 02 c8 35 09 a3 ce 34 61 ab 0e 36 ce c6 1d 35
       1.4901972e-06 3.8489114e-07 2.1259405e-06 5.8776357e-07

down1.maxpool_conv.1.conv.0.weight f4 [32, 16, 3]
000000 10 b8 a8 3b 2b bd 85 bc ec 00 bd bd 39 c9 92 3d
       0.005148895 -0.016325554 -0.092286915 0.071672864
000010 ca 90 7a 3d 16 13 d5 bc 36 47 d0 bd 3e 85 b6 bd
       0.061173238 -0.026010077 -0.101698324 -0.08912133
000020 e5 be 38 3e 10 11 9f bd 31 32 29 3e dd 2f bb bd
       0.1804157 -0.07766926 0.16523053 -0.091399886
000030 fb 36 39 3c 52 89 42 3d 07 78 ea bc 2a c9 45 be
       0.011304612 0.04749424 -0.028621687 -0.19315019
000040 35 7c 9a 3e 6e 19 36 3d 33 d3 b9 3d 68 e1 36 be
       0.30172887 0.044457845 0.09073486 -0.17859423
000050 42 f3 f5 3d cc c5 a0 3c 7e a6 4f 3c 24 79 95 bc
       0.12009288 0.019625567 0.012673972 -0.01824624
000060 2e 4b cd 3c 83 7a 07 bd 53 15 28 bc cf 4d 21 3d
       0.025060263 -0.03307582 -0.01025899 0.039380845
000070 f6 5e f5 bc 72 9e d7 bb 1a c4 4d 3e bc 3b 9f be
       -0.029952507 -0.0065801675 0.20094338 -0.3110026
000080 12 fc 38 bd 0e ff 15 3d 84 40 77 bd 4d 42 83 3c
       -0.045162268 0.036620192 -0.06036426 0.016022826
000090 1b d7 4b 3d 44 70 f6 ba 5c 2c da 3b b5 49 ba bd
       0.049765687 -0.0018801768 0.00665812 -0.0909609
0000a0 d7 c5 17 3c 62 d0 90 bc 6f df b1 3c 72 bd 9a ba
       0.009263477 -0.01767749 0.021712987 -0.0011805727
0000b0 5e ce 02 3d 8e a1 c3 bd a0 65 be 3c cd 92 de 3b
       0.03193509 -0.095522985 0.023241818 0.0067924024
0000c0 59 69 c9 bd c3 0b c7 3d 90 2e 4b 3d 33 e0 5b bd
       -0.098345466 0.0971904 0.049604952 -0.05368061
0000d0 3e f9 19 bd 85 e0 3e bd 38 52 2b 3e 8b 4a 1f be
       -0.03759121 -0.046600837 0.16730583 -0.1555578
0000e0 9e ba 94 3a 21 94 13 be c4 6c b4 3d 8d 38 09 3d
       0.001134712 -0.14411975 0.08809808 0.033501197
0000f0 69 bd d5 3d c9 97 49 bd f2 ad 11 bc c3 4e 89 3d
       0.10436518 -0.04921702 -0.008891569 0.06704476
000100 8b a2 82 bd 86 77 f4 bc ef c9 1d 3d 74 ad 42 bd
       -0.06378659 -0.02984215 0.038522657 -0.0475287
000110 23 06 71 bd 7c d2 05 3d 79 22 27 3d 6f 4d 29 3d
       -0.058843743 0.032671437 0.04080436 0.041333612
000120 04 20 09 bd a3 bf cb 3c 37 14 23 bc dd f2 c2 bc
       -0.033477798 0.024871653 -0.00995355 -0.023797447
000130 b9 54 b3 3c 64 b8 fe 3d 8b 2f 77 bd 70 ee 6e 3d
       0.021890985 0.124375135 -0.060348075 0.05833286
000140 8d ef f9 3c 50 44 3c 3e 43 f5 bd bd b3 7f a1 bb
       0.030509735 0.18385434 -0.092752956 -0.004928553
000150 be 5c b6 3e 32 55 c0 3d e2 99 38 bc 66 eb bf 3c
       0.35617632 0.0939125 -0.011267157 0.023427676
000160 a5 a8 d7 bc 04 e6 6b 3d 25 16 81 3d 83 82 cc bc
       -0.026325533 0.057592407 0.06303052 -0.024964577
000170 3d 95 1b bd 8b f9 c7 be 5f d0 28 be 4c a1 44 bd
       -0.03798412 -0.39057574 -0.16485737 -0.048005387
000180 89 b6 1a 3e c6 ca 25 3e 9e 68 17 3e 6c f1 a8 bd
       0.15108694 0.16190633 0.14786002 -0.082491726
000190 3d db 12 bd 6c c3 d5 bc 35 a3 35 be e5 7e 89 be
       -0.035853613 -0.026094161 -0.1773804 -0.26854625
0001a0 9b c9 1e be 9e df 12 3d 91 c3 a8 3d 81 cd 6f 3c
       -0.15506594 0.03585779 0.08240426 0.014636398
0001b0 c0 81 e9 bd c7 87 9d bc 87 62 57 bd 50 95 69 bd
       -0.11401701 -0.019229783 -0.052584197 -0.05702716
0001c0 1c ea 99 bd 71 df 85 bc f9 59 a2 3d 7a 78 c9 3d
       -0.07515356 -0.016341897 0.07927317 0.09837432
0001d0 3a fd 85 3d 63 92 47 bd 4b bb 93 bd 30 ea 23 3d
       0.0654244 -0.04872359 -0.07213458 0.04001826
0001e0 c0 6f a4 bd fa 93 d0 bd de 75 a3 bc 98 d3 69 bd
       -0.08029127 -0.10184474 -0.019953664 -0.057086557
0001f0 16 18 f8 3c c1 88 2c bd f4 1c 08 3d 1c 1a 77 3d
       0.030284923 -0.042122606 0.033230737 0.060327634
000200 ab ff 86 3c 96 97 58 bd 73 40 04 be 88 e7 83 bd
       0.016479334 -0.05287894 -0.1291521 -0.064406455
000210 f8 00 6a 3d 30 16 fd 3c 0d d0 9e 3d b7 47 66 bd
       0.05712983 0.030894369 0.07754526 -0.056220736
000220 79 34 18 bd 76 5e 32 3e d9 48 31 bd 6c fd b0 bd
       -0.037159417 0.17418846 -0.043282364 -0.086420864
000230 ae 1e d3 bd 1b ee 51 3c c2 2b 06 bd ad 45 e3 bd
       -0.10308586 0.012813116 -0.032756574 -0.11097274
000240 ec 05 03 3d de 36 01 3e 8b 67 16 bc 83 8f ba 3b
       0.03198807 0.12618586 -0.00917996 0.0056933775
000250 3d 9a bb 3d 35 c5 0c 3c 2e 1a c6 bc 34 e3 59 be
       0.09160278 0.00859194 -0.024182405 -0.21278077
000260 8e 19 c2 3c d1 12 81 bc c4 ea 91 be 4f 1f 7f 3c
       0.023693826 -0.015756043 -0.28499424 0.015571429
000270 e3 71 99 bb 84 3e 8d 3b 05 f0 e7 3b a1 d4 55 bc
       -0.004682766 0.004310431 0.007078173 -0.013051183
000280 82 70 95 be da f8 ad bb 0b 8c a9 bc 57 08 f5 3c
       -0.291874 -0.0053092064 -0.02069666 0.029911203
000290 3d 7e bf 3c 81 67 e0 3b ac c4 13 3c 4d 69 27 bc
       0.023375625 0.006848276 0.009019058 -0.010217977
0002a0 31 3f a4 bb bc bd 53 3c bb c8 15 3b 30 10 5c 3c
       -0.005012416 0.012923654 0.002285524 0.013431594
0002b0 fd 05 7b 3d e4 36 dd 3c 67 e2 8b 3c 52 a0 94 3e
       0.061285008 0.027003713 0.01707573 0.29028565
0002c0 de d0 22 3c da 6e 10 3d 5e 8a 95 be f0 8f 10 bd
       0.009937493 0.035261966 -0.29207128 -0.03529352
0002d0 7a 64 47 bc c7 ea db bd 8d 06 8c 3b f1 8b ca 3c
       -0.012169952 -0.107381396 0.004273242 0.024724932
0002e0 78 52 92 bd 8f 50 22 3d b6 5e 80 bc 8c 70 82 3c
       -0.07144636 0.039627608 -0.015670162 0.015922807
0002f0 56 52 87 bc d6 fc f9 ba 46 b8 ff 3d 51 27 ac bc
       -0.016518753 -0.0019072543 0.12486319 -0.021014841
000300 60 a6 e0 bd e0 01 94 bc c7 3a 84 bd cf 1d 4f bc
       -0.109692335 -0.0180673 -0.064565234 -0.012641384
000310 2a 40 98 bd 40 dc de 3d 08 ae 32 3e 94 79 ce 3d
       -0.07434113 0.10881853 0.174492 0.10081783
000320 14 1b e3 bd 16 a0 80 3d 89 5b c1 bd 39 55 44 3d
       -0.11089149 0.06280534 -0.09441287 0.047932837
000330 e7 d5 28 bc 30 57 ab bd 8a ad 3d bd 73 9f 11 3d
       -0.010304905 -0.08366239 -0.046308078 0.035552453
000340 1d a1 42 3e 43 e7 a7 bd 02 07 bd bd 28 a1 ad 3d
       0.19006772 -0.081984065 -0.09229852 0.08478004
000350 58 28 84 bd 18 52 df 3c f9 10 1f 3d 33 00 1d 3a
       -0.064530075 0.027260825 0.038834546 0.00059891044
000360 9c c3 05 3d b4 f7 63 3c 8b be 12 bd 44 0d 82 bd
       0.03265725 0.0139140375 -0.035826247 -0.063501865
000370 6e e7 c0 3d 79 cc 45 bc 7f 0e bf bc 9b 63 52 be
       0.09419142 -0.012072676 -0.023322342 -0.20545809
000380 98 39 bc 3d 0b 9d ba 3a 50 f2 1f ba fb e2 72 bb
       0.09190673 0.0014237476 -0.0006101476 -0.003706156
000390 1f d8 e7 bb d2 b1 19 3e 3c 93 c2 bc ad 44 de 3b
       -0.007075324 0.1500924 -0.023751847 0.006783089
0003a0 f0 02 0e 3d a1 bb ce bd f8 7a 34 3d ea 29 c4 bd
       0.03467077 -0.10094381 0.044062585 -0.09578307
0003b0 fb 52 7f 3c b4 98 40 3d 73 06 86 be 11 ca 26 3d
       0.015583749 0.04702063 -0.26176795 0.04072005
0003c0 a0 c3 df 3c 23 16 b4 3d 87 d4 df 3c e6 16 05 bc
       0.027314961 0.08793285 0.02732302 -0.008123135
0003d0 6f c1 fa bd 25 2e 16 3d ab 7e fd b9 35 bf 53 bd
       -0.12243926 0.0366651 -0.00048350295 -0.05169602
0003e0 75 f0 51 be 2a 1a 89 3c b8 9c 13 3d 27 4e 83 bc
       -0.20501883 0.016736109 0.03603813 -0.016028477
0003f0 d1 c5 1f 3e 45 c3 9a bd 8b 58 5c 3c 4b ab f1 bc
       0.15602805 -0.07556776 0.013448845 -0.029500624

down1.maxpool_conv.1.conv.0.bias f4 [32]
000000 00 05 b9 bd ac d4 cc bc 8f a2 22 bc 78 75 e1 bc
       -0.09034157 -0.025003754 -0.009926452 -0.027521834
000010 03 ad 2d bd 75 33 92 3d f1 ae 58 bc 96 e5 92 3d
       -0.042401325 0.07138721 -0.013225303 0.07172696
000020 b3 31 2d be ef 6b 7b bc 23 16 26 bd 48 7e f1 bc
       -0.1691349 -0.015345558 -0.040548455 -0.02947916
000030 f3 36 1d be 8f bf 80 bd 23 ec fa 3c dd 88 5c 3d
       -0.15352993 -0.06286537 0.030630177 0.05384146
000040 22 7b 09 bc db de 86 bd b6 bf 38 bd 44 e7 cc bd
       -0.008391174 -0.06585475 -0.045104705 -0.10005048
000050 eb 6d 66 3d f7 5e 91 bc 1a 70 6a 3b ba ce bd 3d
       0.05625717 -0.017745478 0.0035772384 0.092679456
000060 c6 c7 b6 3d ae cf 8b 3e de 63 0d 3d 61 1d cc bd
       0.089248225 0.27306885 0.03451907 -0.09966541
000070 9a ab 28 be 9a 3e 6e 3d 9d 7e f0 3d 77 67 07 3e
       -0.16471711 0.05816517 0.117428996 0.13223062

down1.maxpool_conv.1.conv.1.weight f4 [32]
000000 2c ed 73 3f 4f 87 56 3f a5 b3 8b 3f d3 3a 84 3f
       0.9528377 0.83800215 1.0914198 1.0330452
000010 a0 60 57 3f de 32 5c 3f 84 3c 6b 3f 4c 3f 15 3f
       0.84131813 0.8601512 0.91889215 0.5829971
000020 75 cb 33 3f d2 74 7d 3f 30 70 28 3f dd cf 70 3f
       0.70232326 0.9900638 0.65796185 0.94067174
000030 52 da 78 3f 29 ba 3e 3f 51 af 3a 3f 93 c5 0a 3f
       0.9720813 0.7450281 0.7292376 0.54207724
000040 0b 76 66 3f b3 ee 40 3f 2e 57 60 3f ca bb 55 3f
       0.9002387 0.75364226 0.87633026 0.8348967
000050 66 dc 67 3f 78 f0 7a 3f 77 8d 62 3f 51 c3 88 3f
       0.90570676 0.98023176 0.8849711 1.0684606
000060 0a c3 8a 3f 92 f3 e8 3e ec f2 87 3f 16 6b 7c 3f
       1.0840771 0.4549833 1.0621009 0.986009
000070 73 d8 5c 3f af 7b 7e 3f 8d 0e 50 3f c4 a2 8a 3f
       0.86267775 0.99407476 0.812722 1.0830922

down1.maxpool_conv.1.conv.1.bias f4 [32]
000000 59 02 8c 3f 9a 6e af 3f 13 3b 2a 3e 25 3e 07 bf
       1.0938216 1.3705628 0.16624098 -0.528292
000010 ba fe 93 3f 77 ea 10 be 75 ac b9 3d 3e 4b 8d 3f
       1.1562111 -0.14151941 0.09066097 1.1038587
000020 fd a9 2d 3f 18 9a 98 3f 18 b7 99 3f 33 a2 de 3f
       0.67837507 1.1922026 1.2009001 1.7393249
000030 f1 f6 4c 3e 4a f9 49 3f dd 5c 23 be bf 5e 27 3f
       0.20016076 0.7889601 -0.15953393 0.65378946
000040 38 d7 87 3f 92 2c 9d 3f 06 fc 99 3f 46 fe 87 3e
       1.0612555 1.2279227 1.2030036 0.26561183
000050 0b 7a 89 3f 50 28 c8 3d 32 bf 3a 3c b6 0c 54 be
       1.074037 0.09773314 0.011398124 -0.20707974
000060 a2 20 b0 3d b4 b4 e0 3f 74 91 1e bd 5d 85 a5 3f
       0.08599974 1.7555146 -0.038712934 1.2931324
000070 94 c2 9b 3e f2 ec fb ba d7 43 ea 3c 09 78 fb be
       0.3042189 -0.0019220395 0.028596802 -0.49115017

down1.maxpool_conv.1.conv.1.running_mean f4 [32]
000000 24 b4 94 bd ea 7f 9c bd ef 72 8e be 6c 88 08 bf
       -0.072609216 -0.07641585 -0.27822062 -0.53333163
000010 e4 29 89 bd 59 b2 4e 3d b5 78 3b be ad 3b 49 be
       -0.06697443 0.050463054 -0.18307765 -0.19651671
000020 4b 04 15 be c9 49 3b bd 90 42 4b bd e3 df 05 3d
       -0.14552419 -0.045724664 -0.049624026 0.03268422
000030 7c e0 f2 be a3 85 43 3d 23 36 8b bc 3b cf 57 be
       -0.47436893 0.047734868 -0.016993588 -0.21075146
000040 00 8e 1c 3c 16 35 a2 bd 80 23 13 bd 31 4a b2 be
       0.00955534 -0.079202816 -0.035922527 -0.3482223
000050 bd d4 55 3d 49 f9 8f 3d 80 67 1a be 49 c9 a1 3e
       0.052204836 0.07029969 -0.15078545 0.3159888
000060 4c e7 6d 3e 14 5e 87 be ba 19 c4 3e e4 21 54 be
       0.23232764 -0.26438963 0.38300878 -0.20716053
000070 c4 ae b4 3d f4 bd 6f bd dd f3 a9 3d d8 b8 68 be
       0.088223964 -0.058530763 0.08298466 -0.22726762

down1.maxpool_conv.1.conv.1.running_var f4 [32]
000000 97 bd 25 3d 0b f5 47 3d 24 6e f6 3c 77 43 82 3c
       0.04046401 0.048817676 0.030081816 0.01590131
000010 df 4a af 3c c2 75 d5 3b e4 98 1c 3c 23 69 7d 3b
       0.021398006 0.006514282 0.009557936 0.0038667403
000020 9f 9e ac 3c d8 ef 0c 3d 22 4e 36 3c ca 91 a4 3c
       0.02107173 0.03440842 0.011127027 0.020089049
000030 c1 d2 1e 3d 34 67 ab 3c 64 92 04 3b bc 1d 0a 3c
       0.03877521 0.020923235 0.0020228857 0.008429941
000040 11 03 b3 3c 38 94 c1 3c 1f 94 e0 3c 88 7f 9f 3c
       0.021852048 0.023630247 0.02741438 0.019469991
000050 29 3a d6 3c 44 68 98 3c 97 06 c4 3b 55 46 e0 3c
       0.02615078 0.018604405 0.005982231 0.027377287
000060 98 bb af 3d 68 25 f6 3b 61 1a 45 3d 40 26 78 3d
       0.085807025 0.0075117834 0.04812086 0.060583353
000070 c6 f5 f1 3c 32 5d 50 3d de cd 9e 3c 42 12 38 3c
       0.02953614 0.050870128 0.019385274 0.011234822

down2.maxpool_conv.1.conv.0.weight f4 [64, 32, 3]
000000 2b 63 fe 3c 51 1c 71 bd 26 7b d9 bc 05 cd 1d bd
       0.031053146 -0.058864895 -0.02654798 -0.0385256
000010 0d 6b 5f 3d 1d 34 41 bc c0 e5 63 3d 7d a9 c5 bc
       0.05454545 -0.01179221 0.05563903 -0.02412867
000020 7a b5 3a bd 01 0b 0a 3e ee 06 82 3e a8 a8 a5 3d
       -0.045583226 0.1348076 0.25395912 0.08088809
000030 49 d0 a6 3d dd 12 f7 bd 40 3f 50 bc aa 8f e4 3c
       0.08145196 -0.12064145 -0.0127103925 0.027900536
000040 9f 2e c1 bd 51 ec b1 3c 47 f2 50 bd 9b fc ab bd
       -0.094327204 0.02171913 -0.051012304 -0.0839779
000050 38 9a d9 3c 42 7d 86 3c 2f 70 0f 3d a9 24 07 bd
       0.026562795 0.01641715 0.035019096 -0.032993946
000060 8d ef 2d bd a0 cf bb bd a6 50 cb bb 11 a8 04 3c
       -0.04246478 -0.09170461 -0.0062046824 0.008096711
000070 6d 12 18 3e 0d ef 8c 3d 04 e2 0e bb b3 80 a3 3d
       0.14850779 0.06881533 -0.0021802196 0.07983532
000080 8c 02 8d bc 6f dc 0f 3e d7 63 02 3e c0 fa 80 bc
       -0.017213129 0.14048932 0.12733398 -0.015744567
000090 2a 0e 84 3d 3c d7 2f 3d a8 3d ab bc 76 7d 8f 3c
       0.06448014 0.042929873 -0.020903423 0.01751588
0000a0 ce a2 12 bc 14 37 83 ba dc 6a 57 3d c8 4b 14 bc
       -0.0089499485 -0.0010010921 0.052592143 -0.009051271
0000b0 68 25 c0 bb 27 98 fc bc f8 14 67 3d 8d d6 ae bb
       -0.005863834 -0.03083427 0.05641648 -0.005335635
0000c0 0e f7 ca bd 1a 88 62 3d 15 2c 98 3c 15 27 5d 3d
       -0.09910403 0.055305578 0.018575707 0.05399235
0000d0 bf 0c 14 ba e4 8f 72 3b ee 9d da 3d 9c c2 a6 bb
       -0.0005647651 0.0037012035 0.10674654 -0.005089117
0000e0 f6 2a a2 3c f0 03 ba 3c 2e 5f 02 be 10 10 0e 3d
       0.019795876 0.022706956 -0.1273162 0.034683287
0000f0 97 10 24 bd db 2a cb bc f2 f0 25 3c 83 aa c1 3d
       -0.040054884 -0.024800709 0.010128247 0.09456351
000100 6c b5 22 bd 01 c8 5e 3c fd 9c 8e bb be e3 2e be
       -0.0397238 0.013597489 -0.0043522106 -0.17079064
000110 19 ae 0c 3d d0 86 dc bd a5 02 6e be b5 ec 60 bc
       0.03434572 -0.10767901 -0.23243196 -0.01372831
000120 47 0a dd bd 16 5d df bd c5 91 e3 bb 5c b8 a5 3c
       -0.10792976 -0.109064266 -0.0069448673 0.020229511
000130 7c be 86 bc bf 7c d6 3b 7b 48 9c bd 88 1c 2b be
       -0.016448252 0.0065456326 -0.07631012 -0.16710103
000140 d0 d4 cf bd 78 2f 96 3b e1 0d 85 bd 76 2e 11 bc
       -0.10148013 0.0045832954 -0.06496788 -0.008861175
000150 2d 14 30 bc cc 83 c9 bc dd c8 88 bd e1 60 86 3b
       -0.010746998 -0.024598978 -0.06678937 0.0041009043
000160 92 89 dd bd c1 59 c8 bc 5a ea c5 bc 25 9d ff bc
       -0.10817255 -0.02445686 -0.0241596 -0.031202862
000170 b4 7b ed bc e6 fe 45 bb a5 a1 9a bd 9e 66 85 3d
       -0.02898965 -0.0030211746 -0.075503625 0.06513713
000180 4c ba cc 3b c3 78 81 bc 52 bd be bc b7 90 e0 bc
       0.0062477943 -0.015804654 -0.023283634 -0.027412755
000190 c8 58 35 bd e5 1d 69 3d 5e 9a e3 3c 1d bf fa 3d
       -0.04427412 0.056913275 0.027783569 0.12243483
0001a0 d1 a3 8c 3c 74 b6 34 bd 36 51 99 3e 6d 6b 6e 3c
       0.017167957 -0.044119313 0.29944772 0.0145519795
0001b0 a6 15 43 3d ae e1 7c bd 13 7e 17 3d 33 96 9b bd
       0.047628067 -0.061738662 0.036985468 -0.075970076
0001c0 e3 7e 3b bd e5 de b4 3b 45 d3 39 bd 4a 21 0b be
       -0.045775305 0.005519735 -0.045367498 -0.13586918
0001d0 c5 61 11 bd 03 cb a2 b8 e5 84 da 3c d9 79 c0 3c
       -0.03549363 -7.762576e-05 0.026674697 0.023495601
0001e0 5a 5b 0d 3a 66 9b 93 bd ec c7 da bc 21 2d 9b 3c
       0.00053923356 -0.07207374 -0.026706658 0.018942418
0001f0 ba 55 20 3e 95 fd f8 3c 24 e9 17 bd 00 eb 32 bd
       0.15657702 0.030394355 -0.037087575 -0.043681145
000200 32 e3 2d bc 69 a5 bd 3d a9 d7 31 bd 50 aa 39 3a
       -0.01061325 0.09260065 -0.04341856 0.00070825685
000210 90 2b fd 3c 1d 79 52 bb b2 b6 9b 3d 59 e8 c1 3c
       0.030904561 -0.0032115646 0.07603206 0.023670362
000220 0f 29 8c bc 9d 62 03 bd 2a b0 17 3d 19 c8 1b bc
       -0.017109422 -0.032076467 0.037033238 -0.009508156
000230 f1 81 fb bc 76 dc 35 bd b5 5f 09 3e 2b 04 23 3d
       -0.03070161 -0.0443997 0.13415416 0.039798897
000240 ab 9e 6f bc f6 75 23 be 0a b7 e0 bc 72 1e 6c 3d
       -0.014625232 -0.15962967 -0.02743103 0.057646222
000250 d2 53 93 bb 9d 04 6a bb bd 19 ba 3c bb 57 de bc
       -0.004496076 -0.0035708316 0.022717351 -0.027141443
000260 47 ad 03 bd 02 25 cf 3b e9 f3 29 3e 29 f0 11 bd
       -0.032147672 0.0063215503 0.1659695 -0.035629425
000270 7f c7 bd 3d bc 8e 69 3d 16 83 89 3c c9 5e af 3d
       0.092665665 0.057020888 0.01678614 0.08563001
000280 8a 2d d0 3d 1a bb a5 3c 88 47 22 3d b0 0d 4d 3d
       0.10164936 0.020230819 0.039619 0.05006188
000290 fd 62 1d bc 40 27 a4 bd 67 8b 33 3d d8 f2 0f bd
       -0.00960612 -0.08015299 0.043834116 -0.035143703
0002a0 64 bf af bd ff 2d ee bd af 94 92 bd 59 54 04 3d
       -0.08581427 -0.11629867 -0.071572654 0.032307003
0002b0 ec 1e b7 3d 73 f7 6d 3b 93 53 be bd 53 1a a2 bc
       0.08941445 0.0036310821 -0.09293284 -0.019787943
0002c0 ac 73 90 bd 9e 91 f9 bd 98 8b b0 bc 58 16 75 bd
       -0.07053313 -0.121859774 -0.021550938 -0.05983576
0002d0 50 73 19 bd 43 36 b0 bd 59 ba ba 3b 0b 1c 83 bd
       -0.037463486 -0.086040996 0.005698484 -0.06401833
0002e0 fa a6 2f be a0 ab 10 bd 48 89 18 bd 45 8f ef bc
       -0.1715354 -0.035319924 -0.037240297 -0.02924312
0002f0 4d d3 b4 bb b9 d8 35 3c 95 89 bf bd 82 af 6f 3b
       -0.005518353 0.011099034 -0.093524136 0.0036573117
000300 9a f6 3f 3d dd a5 a6 bd 8a d0 10 bd e9 b5 f1 b7
       0.046866037 -0.08137105 -0.03535513 -2.8814147e-05
000310 37 c1 9d bc cd 9c 14 3b 27 d6 97 bd 44 89 09 be
       -0.019257171 0.0022676468 -0.07413893 -0.13431269
000320 6c e8 7c bb 51 b3 2b bd a1 62 ac 3e 38 b4 d2 bb
       -0.0038590683 -0.041919056 0.33668998 -0.006430175
000330 86 3e 9b bd 63 78 4d bd 08 a5 18 3d 5e 5c 8d bc
       -0.07580285 -0.050163638 0.03726676 -0.017255958
000340 72 a6 12 3e 26 1a 25 bd 4d 0a 3f bd 3f 6f dc 3c
       0.14321306 -0.04030814 -0.046640683 0.026908515
000350 0e f4 e8 ba 5c fe 1c 3c e8 07 f7 bc 8d 69 87 bc
       -0.0017772929 0.009582128 -0.030155137 -0.016529823
000360 f3 a8 b6 bc 4b e0 14 3e 3e 09 09 3b d8 86 f6 bb
       -0.022297358 0.14538686 0.002091005 -0.007523399
000370 93 95 29 3e 4f df 9f 3c b7 f3 69 bd fe 21 18 be
       0.16560964 0.019515662 -0.05711719 -0.14856717
000380 16 1f a9 3b 6b 13 4b bd cf 0b 10 3b 0b 30 5f 3d
       0.0051611764 -0.049579065 0.0021979695 0.054489177
000390 a7 76 28 bc 05 f7 f9 bc 52 17 9a bc 6f d7 cf 3c
       -0.010282195 -0.030513296 -0.018809948 0.025371281
0003a0 ac d1 14 3e 1d 30 1a 3e d6 3e 1f bc e9 89 9a bc
       0.14533108 0.15057416 -0.009719571 -0.018864589
0003b0 33 a4 a9 3c 89 60 82 3c 5c 23 b2 bd b9 d2 cd bb
       0.02070818 0.015915172 -0.086981505 -0.0062812236
0003c0 6f 21 3a 3b 76 86 6a 3b 59 43 3a bd 60 7e 3b bc
       0.0028401276 0.0035785711 -0.045474384 -0.011443704
0003d0 8b 6c 15 bd 3d dc fe 3a c4 44 a0 bb e2 d8 ae bd
       -0.036480468 0.0019444298 -0.00489101 -0.08537461
0003e0 59 f7 9c bb 5e fb aa 3b 05 30 e9 3c 8c 26 1e bd
       -0.0047902283 0.0052179536 0.02846528 -0.03861098
0003f0 ed 2b 68 bd 0a ec 56 3d 72 2f de 3c df 54 93 bd
       -0.056682516 0.0524712 0.027122233 -0.07193922

down2.maxpool_conv.1.conv.0.bias f4 [64]
000000 b8 0b a5 bd 0b 99 84 bb a7 b7 a5 bc f7 46 88 3d
       -0.08058876 -0.0040465645 -0.020229174 0.066541605
000010 9e c7 75 3c 70 2e eb bc 12 ab a1 bd 48 e1 d9 bd
       0.015001206 -0.028708667 -0.07893957 -0.10638672
000020 6a 02 ec 3d c1 f4 85 3d 02 a6 9f bb 9f ac 6c bd
       0.11523898 0.06540824 -0.0048720846 -0.05778181
000030 12 f3 ca bd 32 f7 b9 bd 64 53 a2 bc 7d d1 89 3c
       -0.09909643 -0.09080352 -0.019815154 0.016823525
000040 ab 81 53 3d f7 f2 f2 bd 3d 98 c3 3c 1c 85 e3 bd
       0.051637333 -0.11862748 0.023876304 -0.11109373
000050 91 75 12 3d 92 34 e4 3b d9 05 f2 bd 63 b1 ad bc
       0.03575665 0.0069642747 -0.118175216 -0.021202749
000060 1c 13 8c bd 35 1c ea bd 86 c2 6d 3d 3d 99 e5 bd
       -0.06839582 -0.11431161 0.05804684 -0.112108685
000070 80 df 73 bd 47 15 d2 bc bc cd 82 bc 83 5f 83 bd
       -0.059539318 -0.025644911 -0.015967242 -0.06414702
000080 d4 26 40 3c d0 6f 8b 3d 7d 50 90 bd cb 65 0f be
       0.011728007 0.06808436 -0.07046602 -0.14003675
000090 01 a3 03 3e cb c8 a8 bd a9 7a ff 3c a4 05 53 bb
       0.1285515 -0.08241423 0.031186419 -0.0032199407
0000a0 77 4c 44 3b f9 5b 62 3d 51 1d 14 bd 94 08 09 be
       0.0029952803 0.055263493 -0.03616077 -0.13382179
0000b0 47 e9 9f bd de 09 84 bd d5 68 28 3d 0f 6a 65 bd
       -0.07808166 -0.064471945 0.0411156 -0.05600935
0000c0 96 fb d4 bd e0 de fb bd 92 ab 4c 3d 99 f2 d1 bd
       -0.10399549 -0.122983694 0.04996831 -0.1025135
0000d0 77 ad 9e bd fe 11 9a 3d 55 9a 4d 3c f8 f7 f8 bd
       -0.077479295 0.07522963 0.012549003 -0.12156671
0000e0 6a f0 cd 3c ea 33 8e 3d 75 93 3a bd 59 3b 90 bd
       0.025139052 0.069434956 -0.045550782 -0.0704257
0000f0 27 7b 85 bd 04 25 da bd d5 b6 e6 3d 6e 64 c5 bd
       -0.0651763 -0.106515914 0.11265341 -0.09638296

down2.maxpool_conv.1.conv.1.weight f4 [64]
000000 8c e4 7f 3f 9e 7e 8b 3f 27 df 81 3f d2 e5 7e 3f
       0.9995811 1.0898015 1.0146226 0.9956943
000010 9e 99 7a 3f 46 ad 82 3f 0e 57 7d 3f 2f 5c 7d 3f
       0.9789065 1.0209129 0.9896096 0.98968786
000020 49 80 71 3f 59 c8 79 3f 21 c4 6f 3f 36 b8 81 3f
       0.9433637 0.9757133 0.93658644 1.0134342
000030 05 0d 82 3f fd 9c 83 3f 17 32 77 3f dd 3b 68 3f
       1.0160223 1.0282284 0.96560806 0.90716344
000040 33 16 7a 3f ee c4 82 3f 82 0b 7e 3f 8f e7 6e 3f
       0.97690123 1.0216348 0.9923631 0.9332208
000050 8e 0c 71 3f de 44 85 3f 45 7b 7a 3f be ff 79 3f
       0.9415978 1.0411642 0.97844344 0.97655857
000060 01 1f 7a 3f 11 03 4f 3f fb bd 76 3f 9f 04 86 3f
       0.9770356 0.80864054 0.9638364 1.047016
000070 b7 18 76 3f 8b 7e 87 3f 8f 7c 80 3f ef 65 87 3f
       0.9613146 1.0585493 1.0038012 1.0577983
000080 c1 6b 67 3f 29 64 7d 3f 8c 29 79 3f eb b2 87 3f
       0.90398794 0.9898096 0.9732902 1.0601476
000090 dd a8 61 3f cd ed 73 3f ec f8 84 3f 1d 40 76 3f
       0.8814829 0.9528473 1.0388465 0.9619158
0000a0 95 47 85 3f be cb 80 3f d8 32 83 3f 6b 2f 7e 3f
       1.041247 1.0062177 1.0249891 0.99291104
0000b0 53 f9 85 3f ed 79 88 3f 79 5a 77 3f 92 13 88 3f
       1.0466713 1.0662209 0.96622425 1.0630972
0000c0 d8 9f 7b 3f 08 52 84 3f 5e 3f 85 3f 29 5c 79 3f
       0.9829078 1.0337534 1.0409963 0.9740625
0000d0 a3 51 60 3f af da 79 3f bc 4a 85 3f 1f ae 83 3f
       0.8762457 0.9759931 1.0413432 1.0287513
0000e0 57 d1 75 3f 7b ce 7e 3f 3d 45 80 3f 54 b4 83 3f
       0.9602255 0.99533814 1.002113 1.0289407
0000f0 d9 33 84 3f 73 71 7e 3f b1 34 6d 3f 06 21 73 3f
       1.0328323 0.9939186 0.92658526 0.94972265

down2.maxpool_conv.1.conv.1.bias f4 [64]
000000 d6 1f 39 3e a0 1f c3 3d bd 3b e4 3d 2d 8c 0b 3e
       0.1807855 0.09527516 0.11144207 0.13627692
000010 90 50 49 3d 2f a0 3c 3e e5 a7 93 3e 85 73 ca 3d
       0.049149096 0.1842048 0.2883903 0.09885315
000020 fc 37 53 bd 81 80 2f 3e 48 49 8e bd 69 65 52 3d
       -0.051567063 0.17138864 -0.06947571 0.051366244
000030 dd 10 36 3d 2e b3 02 3d e0 6d 44 be 16 d2 8e ba
       0.044449676 0.03190916 -0.19182539 -0.0010896351
000040 69 e9 88 3d 85 1e d4 3d 86 da d2 3d cc f7 31 3e
       0.066851445 0.10357384 0.10295586 0.17379683
000050 30 ea 5c 3e ca aa fc 3d 82 00 a1 3d f0 68 88 bc
       0.2157371 0.12337263 0.07861425 -0.0166516
000060 bf c5 39 3d e4 08 0c 3e b6 5a a7 3d b4 33 a6 3d
       0.0453546 0.13675267 0.081715986 0.0811533
000070 46 29 6b ba 33 e2 db 3d 60 cd 0b bd 1d b7 27 3e
       -0.0008970689 0.107365035 -0.034131408 0.16378446
000080 da 54 0a be 4e 79 a8 3c e8 37 8c bc 17 6c 86 3d
       -0.13508931 0.020565655 -0.017116502 0.06563585
000090 c9 4f 45 be 69 40 16 3e 59 72 c3 bd 7c c8 30 3e
       -0.19268717 0.14673008 -0.095432945 0.17263979
0000a0 ee 84 4b be 68 f1 41 3d 31 f4 ea 3d 1d 0c 18 3e
       -0.19874927 0.047349364 0.11472357 0.14848371
0000b0 73 d8 bf 3d 27 6b 5d 3d 6d 5e 0e 3e b8 d0 5b 3d
       0.09367456 0.054057267 0.13903208 0.053665847
0000c0 92 66 1d 3e 6d 6f c0 3d a8 6b 33 be 7b dc 10 3e
       0.15371159 0.09396253 -0.17521536 0.14146607
0000d0 62 b0 64 bd aa 73 1b 3d 07 e6 6f 3d cc c8 dc 3d
       -0.055832274 0.037952103 0.05856898 0.107804865
0000e0 d4 31 a0 3d f3 a2 91 3d 29 a5 19 3e 65 75 df 3d
       0.07822004 0.07111158 0.1500441 0.10911063
0000f0 53 60 d4 3d 21 2a 73 3e 4b 9f ab be 28 2d dc 3c
       0.10369935 0.2374654 -0.33519968 0.026877

down2.maxpool_conv.1.conv.1.running_mean f4 [64]
000000 30 c9 1e 3e 2d 48 8d bd 15 e2 c4 be 9a f0 cc 3f
       0.15506434 -0.06898532 -0.38453737 1.6010926
000010 ac c2 e1 be 2b 55 de be 3e f2 d4 be f0 75 28 3e
       -0.44093835 -0.43424353 -0.41591066 0.1645124
000020 a7 a9 d3 3d 2f 07 4b be b6 62 41 bd cc 99 83 be
       0.10335093 -0.19826959 -0.04721328 -0.25703275
000030 9e 63 5a bf 2b 70 22 bf 67 20 3c 3f 76 a9 cf 3d
       -0.85308254 -0.63452405 0.7348694 0.10139744
000040 2e 87 a1 be f8 15 bc bf 6a 68 b5 3e 58 5c 9c be
       -0.31548446 -1.4694204 0.35431224 -0.30539203
000050 19 10 8b 3f 7f d8 53 bf ea b4 6b 3e 63 f6 02 3e
       1.0864288 -0.8275222 0.23018232 0.12789302
000060 c1 3b 0b 3f c7 17 3a bf 02 8c 09 3e 4d a3 28 bf
       0.5438805 -0.7269253 0.13432315 -0.6587418
000070 86 80 93 3f a8 79 2a bf 96 3a 8c 3d ba af 27 bf
       1.1523597 -0.6659188 0.06847112 -0.6550251
000080 df 8f b8 bf 10 0d c7 bc 0a 1b 4f bf 8d a8 3a bf
       -1.4418906 -0.02429822 -0.80900633 -0.7291344
000090 d8 55 8d be 3d b3 6f bf 44 a7 fa bc ac 1a d1 bf
       -0.27604556 -0.9363287 -0.030597337 -1.6336265
0000a0 98 6a 1b 3f 17 1c ad be 6a 07 64 bf ab 5c c5 be
       0.60709524 -0.33810493 -0.8907381 -0.38547263
0000b0 c6 16 d8 3e b2 fc da be 95 78 41 bf 5f 1f 7e bf
       0.42204875 -0.42770916 -0.7557462 -0.9926662
0000c0 5d 04 b1 be 9e 73 8f 3f c7 aa ff bd 51 dc 1c 3e
       -0.3457364 1.1207159 -0.12483745 0.15318419
0000d0 9b 6b 3d bb 52 4f b7 3e c2 68 20 bf 54 db 87 bf
       -0.002890325 0.35802704 -0.6265985 -1.0613809
0000e0 f9 35 19 3e c9 94 cc 3e 87 0b 97 3c e0 b4 c4 3e
       0.14961995 0.39957264 0.018438114 0.38419247
0000f0 58 25 a4 3e e6 f4 c1 bf 54 5e 16 bd 60 6e 24 3f
       0.3205974 -1.5152862 -0.036711052 0.6423092

down2.maxpool_conv.1.conv.1.running_var f4 [64]
000000 11 1c 51 3f 11 c7 49 3f 24 87 c1 3e 71 38 b4 3e
       0.8168345 0.78819376 0.37798417 0.3519931
000010 e8 f6 c5 3d 9f 34 2b 3f f0 55 da 3e 29 3b a3 3f
       0.09666234 0.6687717 0.4264369 1.2752429
000020 1f d9 0f 3e b4 05 91 3e 94 6b 0c 3e a3 7d 47 3f
       0.14047669 0.28324664 0.13712913 0.7792608
000030 04 26 08 3f 89 80 b8 3e d5 41 96 3e 42 55 4e 3d
       0.5318301 0.36035565 0.293471 0.050374277
000040 8d fe 23 3f 9d c9 02 3f 2d ae 11 3f 63 27 8b 3d
       0.6406029 0.5108889 0.56906396 0.06794622
000050 f1 fb 3a 3f fb 9b 1f 3f 1c cb 26 3f 33 5b 8c 3e
       0.7304068 0.6234738 0.6515367 0.2741333
000060 d8 c6 11 3f 54 05 99 3e d6 d7 09 3e 8d 15 8e 3f
       0.56944036 0.29886878 0.13461241 1.1100327
000070 b0 ac 66 3e ad c5 b1 3e b1 aa c9 3e 88 f8 0f 3f
       0.22526813 0.34721127 0.3938804 0.56238604
000080 22 34 2c 3d 6a bc 49 3f 14 1e 2c 3f 85 08 2c 3f
       0.042041905 0.7880312 0.67233396 0.672005
000090 66 41 e7 3d 1c 8d 58 3f e3 c6 1e 3e ca f0 0f 3f
       0.11291771 0.84590316 0.15505557 0.5622679
0000a0 32 b6 93 3e 14 23 19 3f 47 e0 fe 3e 15 72 bc 3e
       0.28849941 0.5981915 0.49780485 0.36805788
0000b0 04 8b 34 3f 76 9c 3d 3f b3 cb 50 3f 45 06 ce 3e
       0.7052462 0.74066865 0.8156082 0.40239158
0000c0 88 ba 28 3f c9 46 bf 3e 9a 3f 81 3e f3 0e ef 3e
       0.65909624 0.37358692 0.25243837 0.46691093
0000d0 3a c5 b4 3e 48 e2 38 3f 02 f5 35 3f ae 09 ee 3e
       0.35306722 0.7222028 0.7107698 0.4649176
0000e0 ed 06 59 3f de 65 fe 3e 5d 71 8b 3f a7 41 e2 3e
       0.8477619 0.49687093 1.0893971 0.44190714
0000f0 5f 59 08 3f 9a e9 14 3f 0f f6 95 3d 22 81 69 3e
       0.5326137 0.5816895 0.073223226 0.22803167
