CNN/best_model_net2.pth (torch, 36789 bytes, 13 tensors)

up1.up_conv.0.weight f4 [64, 32, 3]
-0.07862324 -0.10184091 0.11427312 -0.05603775 0.07824772 0.0051031685 -0.0147746485 0.031123668
0.016857505 -0.030095287 0.028062517 0.040182844 -0.020480417 0.035839494 0.011577488 -0.021389486
-0.039124034 0.071280055 -0.012906212 -0.015377824 -0.01572124 0.05156562 -0.062033076 -0.052770104
0.031029586 0.07506599 -0.104802884 0.09093612 -0.016770082 0.05421032 0.057202008 -0.07395843
-0.020045612 -0.11501794 -0.00262347 -0.046494164 0.0017752035 -0.08602485 0.014833586 0.08513825
-0.06679124 0.07556285 -0.15890926 0.06269455 -0.1945527 0.07005856 -0.07573499 -0.0047597173
0.003081966 0.009725406 -0.04167609 0.092474125 -0.11224969 0.031762224 0.04661041 -0.15745504
0.08595959 -0.086419724 -0.016215632 0.14407536 -0.06290913 0.062433265 0.09349705 0.02693835
0.070320725 -0.061132595 0.10432034 -0.10595903 -0.011762507 -0.03603934 -0.096080825 0.026796393
0.1355249 0.124622576 0.028040001 0.09206268 -0.16833284 0.09171519 -0.13981867 0.0480507
-0.008756197 0.005069875 -0.17571233 0.034602012 0.05081538 -0.15135048 0.06912155 -0.18010618
0.059147533 -0.054704253 -0.020496264 -0.07906186 0.03131944 -0.05894784 -0.07399252 0.06938223
0.086562276 -0.12549828 -0.11396833 -0.13936362 0.100921564 -0.08925794 -0.04938487 -0.053681854
0.003165702 0.02624977 -0.08406958 -0.088288344 0.093739256 0.047533587 -0.016687188 0.036071524
-0.02453424 -0.048288956 -0.03782195 -0.027869856 -0.100648984 -0.15492983 0.005197584 -0.041018106
-0.03359938 0.11530677 -0.10435863 0.041532766 0.024050737 0.055801988 0.1220374 -0.006342535
-0.0012540054 -0.072309785 0.07460391 0.0072767963 0.09313802 -0.04523495 0.09481402 0.020563003
-0.03957549 -0.1285246 -0.051507637 0.069399096 0.042403433 -0.0047724033 -0.069393545 -0.042789686
-0.0451881 0.06774761 -0.053840313 0.109821744 -0.15345272 -0.030675884 0.05013174 -0.0031351505
0.049677387 0.047298517 -0.025434295 -0.06637791 0.025951706 -0.015614829 -0.032313492 -0.0028367138
-0.008734883 0.117900446 0.088775046 -0.11579052 -0.060406163 -0.07499372 0.012883344 -0.11408774
-0.019406425 -0.033219382 0.07211472 0.14458978 -0.106313586 -0.06995207 -0.122169755 0.05816874
-0.07822937 -0.022923239 -0.10007123 -0.09352237 -0.0008127773 -0.11344806 -0.028710628 -6.805029e-05
0.054385856 -0.1870266 0.02909571 -0.16056101 -0.06452349 -0.037190143 -0.063284315 -0.0028630157
-0.030525215 -0.06034235 -0.007486967 -0.012694925 -0.027251685 0.011618025 -0.083669476 0.029783562
-0.049646754 -0.038498193 -0.08412259 0.047315717 -0.049368467 0.045776337 -0.08298662 -0.036407784
0.023738842 -0.055055045 0.027700687 0.16609558 0.124187365 0.02555328 0.011542328 -0.04051189
0.00054008403 0.062338423 0.07968714 5.384315e-05 0.009113433 0.0045717517 -0.011815968 -0.04795547
-0.12356282 -0.01724502 -0.022318004 0.06165369 -0.013169864 0.14027585 0.10667153 0.06506673
0.10429932 -0.06756008 -0.023420336 0.034618765 0.015366402 -0.05271975 0.10590235 -0.055499267
-0.04740804 0.10166231 0.06631534 -0.053255577 -0.025503073 0.03185826 0.036256734 0.00865583
-0.014793022 0.05168754 -0.07030292 -0.035950013 -0.072876506 0.085815355 -0.000760261 0.00032895923
00000000: 3905 a1bd f891 d0bd 0708 ea3d d787 65bd
00000010: 5740 a03d 7b38 a73b 5e11 72bc 10f7 fe3c
00000020: c018 8a3c 648a f6bc 5de3 e53c c496 243d
00000030: 8cc6 a7bc 6fcc 123d 81af 3d3c 0139 afbc
00000040: 8640 20bd 47fb 913d 9474 53bc 45f3 7bbc
00000050: d4c9 80bc 7936 533d 6516 7ebd 7725 58bd
00000060: c231 fe3c 33bc 993d e5a2 d6bd b73c ba3d
00000070: 6961 89bc a40b 5e3d a74c 6a3d 8477 97bd
00000080: b236 a4bc 878e ebbd 86ee 2bbb aa70 3ebd
00000090: f2ad e83a cc2d b0bd 9208 733c f65c ae3d
000000a0: d8c9 88bd b2c0 9a3d 1cb9 22be 0066 803d
000000b0: d338 47be dd7a 8f3d f21a 9bbd 67f7 9bbb
000000c0: cffa 493b 4f57 1f3c 8cb4 2abd 1363 bd3d
000000d0: 2ae3 e5bd 1b19 023d 8fea 3e3d e53b 21be
000000e0: 950b b03d d3fc b0bd a5d6 84bc 7e88 133e
000000f0: 80d6 80bd 06ba 7f3d 627b bf3d d1ad dc3c
00000100: 5004 903d 2c66 7abd e7a5 d53d 0c01 d9bd
00000110: 88b7 40bc fd9d 13bd 06c6 c4bd 1c84 db3c
00000120: 0ac7 0a3e 1f3a ff3d 25b4 e53c 5c8b bc3d
00000130: 725f 2cbe 2cd5 bb3d a02c 0fbe d0d0 443d
00000140: 2776 0fbc 3221 a63b efed 33be d7ba 0d3d
00000150: ca23 503d 9ffb 1abe 998f 8d3d c16d 38be
00000160: af44 723d 9111 60bd c8e7 a7bc 2feb a1bd
00000170: d048 003d 4a73 71bd 6489 97bd 4518 8e3d
00000180: 9047 b13d 9f82 00be 3a68 e9bd 56b5 0ebe
00000190: f7af ce3d decc b6bd ca47 4abd 81e1 5bbd
000001a0: ab77 4f3b c209 d73c ac2c acbd 85d0 b4bd
000001b0: 5efa bf3d 94b2 423d 92b3 88bc bcbf 133d
000001c0: 08fc c8bc a4ca 45bd 30eb 1abd 534f e4bc
000001d0: 0e21 cebd eda5 1ebe 7f50 aa3b 9a02 28bd
000001e0: 819f 09bd f525 ec3d fab9 d5bd 431e 2a3d
000001f0: 0d06 c53c a090 643d bfee f93d 0ad5 cfbb
00000200: 705d a4ba 2717 94bd efc9 983d 3172 ee3b
00000210: 25bf be3d 4848 39bd da2d c23d be73 a83c
00000220: e919 22bd f49b 03be acf9 52bd 1d21 8e3d
00000230: 39af 2d3d d261 9cbb 341e 8ebd 3d44 2fbd
00000240: 2817 39bd 42bf 8a3d a987 5cbd 39ea e03d
00000250: b622 1dbe fe4b fbbc f056 4d3d 1977 4dbb
00000260: 847a 4b3d 17bc 413d 955b d0bc 24f1 87bd
00000270: ac98 d43c 57d5 7fbc 275b 04bd 29e8 39bb
00000280: c11c 0fbc ca75 f13d b1cf b53d 9523 edbd
00000290: 746c 77bd 4f96 99bd a914 533c d5a6 e9bd
000002a0: 39fa 9ebc 0c11 08bd e2b0 933d 580f 143e
000002b0: f0ba d9bd 0843 8fbd 2334 fabd 5842 6e3d
000002c0: b836 a0bd 84c9 bbbc 25f2 ccbd a888 bfbd
000002d0: 9010 55ba 7557 e8bd 8d32 ebbc 39b6 8eb8
000002e0: b4c3 5e3d e783 3fbe 205a ee3c 1b6a 24be
000002f0: e424 84bd b154 18bd 359b 81bd 6fa1 3bbb
00000300: 0410 fabc 8a29 77bd 3b55 f5bb 60fe 4fbc
00000310: ed3e dfbc 8759 3e3c e75a abbd a8fc f33c
00000320: 655a 4bbd 48b0 1dbd 7748 acbd 20ce 413d
00000330: 9736 4abd f87f 3b3d e4f4 a9bd 5420 15bd
00000340: f677 c23c 6681 61bd 8dec e23c f614 2a3e
00000350: f255 fe3d 1d55 d13c 081c 3d3c ccef 25bd
00000360: 6d94 0d3a 9356 7f3d 0333 a33d a4d5 6138
00000370: 8250 153c a2ce 953b c397 41bc f46c 44bd
00000380: 810e fdbd 6e45 8dbc 3fd4 b6bc 9488 7c3d
00000390: 6ac6 57bc 79a4 0f3e 9a76 da3d b541 853d
000003a0: e29a d53d f05c 8abd 01dc bfbc 68cc 0d3d
000003b0: 5dc3 7b3c aaf0 57bd 55e3 d83d 3353 63bd
000003c0: ef2e 42bd 5434 d03d 56d0 873d 8522 5abd
000003d0: d2eb d0bc cf7d 023d f181 143d 2fd1 0d3c
000003e0: 6e5e 72bc 50b6 533d fafa 8fbd 5240 13bd
000003f0: 4740 95bd f6bf af3d 414c 47ba 2978 ac39

up1.up_conv.0.bias f4 [32]
-0.12949705 -0.012210136 0.04117548 -0.0151480185 -0.057993624 0.0036983427 -0.014784425 -0.08565714
-0.07900042 -0.049510006 -0.016436987 -0.043320265 0.032725573 0.032585125 -0.15134196 0.039585754
-0.10996506 -0.09504604 -0.0970407 0.046469457 -0.012157448 0.021426313 -0.059009995 -0.004322524
-0.10864887 -0.043305743 -0.06744245 0.038034093 0.06244781 -0.050926093 0.079043835 -0.117854014
00000000: e09a 04be 060d 48bc 9fa7 283d 652f 78bc
00000010: b98a 6dbd e55f 723b 5f3a 72bc 036d afbd
00000020: f9ca a1bd 01cb 4abd dca6 86bc 9770 31bd
00000030: 400b 063d fb77 053d 63f9 1abe ac24 223d
00000040: 5d35 e1bd 80a7 c2bd 46bd c6bd c256 3e3d
00000050: 0830 47bc 3c86 af3c 77b4 71bd f6a3 8dbb
00000060: 4c83 debd 5d61 31bd 441f 8abd a3c9 1b3d
00000070: 46c9 7f3d e197 50bd bce1 a13d 725d f1bd

up1.up_conv.1.weight f4 [32]
1.0112597 1.0440326 0.9372141 0.99277216 0.9965597 0.9475996 0.98584735 0.9776418
0.99369055 0.94496983 1.0019404 0.946585 0.9669163 0.9810416 1.0965146 0.9307955
0.9990154 1.0648265 1.0085547 0.915503 1.0031648 0.95786726 0.97124225 0.9714425
1.0240957 0.9896314 1.1025573 0.9856387 1.0473315 0.97611874 0.94015205 0.9681397
00000000: f570 813f dca2 853f 43ed 6f3f 5126 7e3f
00000010: 891e 7f3f e395 723f 7e60 7c3f bc46 7a3f
00000020: 8162 7e3f 8be9 713f 953f 803f 6553 723f
00000030: d487 773f 8b25 7b3f 975a 8c3f 9d48 6e3f
00000040: 79bf 7f3f 3c4c 883f 5218 813f 685e 6a3f
00000050: b467 803f ca36 753f 55a3 783f 75b0 783f
00000060: 9115 833f 7c58 7d3f 9920 8d3f d152 7c3f
00000070: f50e 863f ebe2 793f cead 703f 01d8 773f

up1.up_conv.1.bias f4 [32]
0.09383459 0.07090328 -0.11149139 0.048381746 0.017322795 0.035334323 0.020452451 0.060640387
-0.023625067 0.02330586 0.020366801 -0.07104775 -0.0727188 -0.015499877 0.09320501 -0.04560298
0.03735703 0.12561363 0.035571642 0.059602354 0.08148809 -0.06628089 0.006207715 0.015295462
0.090173215 0.026040876 0.11516799 0.03780281 0.07062267 0.05840172 -0.018619636 0.018058252
00000000: 592c c03d bd35 913d 9955 e4bd f02b 463d
00000010: 89e8 8d3c b9ba 103d e68b a73c 0e62 783d
00000020: 5b89 c1bc eeeb be3c 47d8 a63c 7c81 91bd
00000030: 98ed 94bd 32f3 7dbc 45e2 be3d 31ca 3abd
00000040: af03 193d dca0 003e 92b3 113d 9921 743d
00000050: 3ae3 a63d 46be 87bd 166a cb3b d199 7a3c
00000060: bcac b83d ad53 d53c 32dd eb3d 1fd7 1a3d
00000070: 9ea2 903d a436 6f3d 3588 98bc e6ee 933c

up1.up_conv.1.running_mean f4 [32]
-0.5917028 -1.4755623 -0.2989478 -0.81097287 -0.19110808 -0.4617159 -0.24113823 -0.25622135
-0.7654647 -0.19150046 -0.30768186 -0.4657113 0.22197749 -0.3689936 -2.0201495 -0.15219723
-0.5514208 -0.7352081 -0.49296322 -0.034596857 -0.21485578 0.33866966 -0.77212125 -0.1473156
-0.6633521 -0.5055785 -1.407815 -1.642134 -0.69220346 -0.72829837 -0.2121879 -0.6855158
00000000: d679 17bf 3adf bcbf b00f 99be eb9b 4fbf
00000010: d6b1 43be 0766 ecbe f1ec 76be 722f 83be
00000020: 7ff5 43bf b218 44be 7a88 9dbe b671 eebe
00000030: 114e 633e bbec bcbe 214a 01c0 97d9 1bbe
00000040: ea29 0dbf 9936 3cbf ad65 fcbe 6fb5 0dbd
00000050: 2703 5cbe 1c66 ad3e bda9 45bf e7d9 16be
00000060: 71d1 29bf 986d 01bf 4833 b4bf 7231 d2bf
00000070: 3f34 31bf c371 3abf c947 59be f77d 2fbf

up1.up_conv.1.running_var f4 [32]
1.2193882 1.9321351 0.5487332 1.0357378 3.0135946 0.6671673 0.47477552 1.285965
0.67249554 0.981956 1.7438611 0.6374661 0.52538633 0.59314126 2.7850862 0.49083892
0.77594453 2.1000905 1.5918509 0.22853665 0.8799834 1.3361373 1.3499316 0.66538596
1.8677183 1.6440555 1.2635038 1.7500645 1.8064184 2.2236528 0.6226628 1.6320512
00000000: ea14 9c3f 3450 f73f c779 0c3f 0e93 843f
00000010: bcde 4040 7acb 2a3f c715 f33e 809a a43f
00000020: ab28 2c3f 7861 7b3f d736 df3f fa30 233f
00000030: b87f 063f 1bd8 173f da3e 3240 3d4f fb3e
00000040: 4da4 463f e267 0640 c5c1 cb3f 8305 6a3e
00000050: 9846 613f 8c06 ab3f 8fca ac3f bc56 2a3f
00000060: 6511 ef3f 6970 d23f 7eba a13f 1d02 e03f
00000070: b838 e73f 5450 0e40 d466 1f3f 0ee7 d03f

up2.up_conv.0.weight f4 [32, 16, 3]
-0.070486195 -0.099933796 0.11396379 -0.008712198 0.007076561 -0.19747959 0.004162316 0.1261158
-0.0019718185 -0.08929991 -0.08532487 0.013134939 -0.06476036 0.103378795 -0.06269869 0.015749732
-0.13520905 -0.025710218 -0.011957581 0.08309517 -0.005339545 0.038578384 -0.21271436 -0.067120515
0.054481413 0.036817633 -0.046489432 -0.045762606 -0.11141487 -0.12344684 0.1465704 -0.1343767
-0.006486224 -0.025185028 -0.1963 0.06695766 -0.04672392 -0.06323841 0.063687764 0.036497205
0.028693032 -0.16864474 -0.1004552 -0.007978974 -0.067793176 0.013535913 -0.01048234 -0.019429438
-0.11761854 -0.13180637 0.15078352 -0.13274027 -0.015746215 -0.09843549 0.013844058 0.054076057
-0.13984782 -0.16766378 0.010374024 0.04634222 -0.01810175 -0.10185473 -0.32549793 -0.038540173
0.05329389 -0.10354665 -0.08997126 -0.06317402 0.0996083 -0.20275328 0.1681557 0.078131996
-0.007139378 0.044208486 -0.11875444 -0.0764546 0.10906488 0.050697487 -0.055920415 0.029136
0.1603592 0.03923233 0.14475402 -0.20895986 0.14948265 -0.12737183 -0.16406113 -0.2523623
0.036873475 -0.14414965 -0.04037908 0.0767105 -0.308774 0.05253519 -0.20183067 0.1464574
0.018322507 -0.027109759 0.08003927 0.0036822702 -0.071249336 0.11142655 0.10151099 -0.010036796
0.045050923 0.08602321 0.055684894 -0.037688155 0.005786381 -0.022502584 -0.003987164 -0.09634644
-0.0870755 0.049058508 0.029174937 -0.16310656 0.0411878 -0.078411244 0.058417916 0.09669676
0.077558324 0.0061214166 -0.0539862 0.11495746 -0.029888805 4.1128944e-05 0.01132925 0.061877854
0.05641706 -0.05028965 0.056640234 0.09040214 -0.028945725 0.033591103 -0.08351773 0.121353716
-0.06701139 0.10466085 0.15548521 -0.12755539 -0.04702599 -0.050527096 0.013696171 -0.08482838
-0.06823332 -0.036294386 -0.10810876 -0.031462416 0.13548666 -0.0103482595 -0.06819705 0.14324737
-0.04532982 0.05755159 0.15404892 0.02471144 -0.060034186 0.04895716 0.09485567 0.10688146
-0.030521587 0.19613303 -0.042757742 -0.0065984884 0.04020102 -0.06087353 -0.09525588 0.01687686
0.13803987 0.11008138 -0.0039876355 -0.043707684 -0.065470934 -0.0057782587 0.006082076 0.02142869
0.1010254 -0.102420054 -0.10695165 -0.040242597 -0.06536501 -0.03192339 0.088908724 0.06454404
0.12394553 -0.07458077 0.057316355 -0.038111303 0.08194293 -0.09901994 0.14313044 -0.030971076
9.8637865e-05 -0.19239295 -0.15603797 0.043406554 0.040382177 0.06704413 -0.13226788 0.0869184
0.11853882 0.0027012515 -0.0036053616 -0.12031469 0.062192056 -0.14821504 -0.07119331 -0.02572614
0.03249228 0.0018226346 0.023078395 0.10780282 -0.1311433 0.018093381 0.058807462 0.032668453
-0.09769784 -0.10509561 0.046867035 -0.11469712 0.13029087 0.082664296 -0.049081773 -0.06995241
-0.09530243 -0.048812147 0.007008874 0.0076876665 0.073327385 0.022392884 -0.0075765965 -0.08446809
-0.0017072939 -0.070907496 -0.07588084 -0.16864184 -0.114162765 -0.14377658 0.078275174 -0.044566687
-0.043625217 -0.148993 -0.06408418 -0.025814626 -0.13592906 0.016332122 -0.08189668 -0.019543918
-0.055672966 -0.009817848 -0.090748295 -0.058535185 0.15482892 0.15895113 0.07427658 0.09109328
00000000: 115b 90bd 17aa ccbd d965 e93d 9bbd 0ebc
00000010: 7fe2 e73b 1738 4abe 0a64 883b 8024 013e
00000020: a039 01bb dfe2 b6bd cebe aebd ed33 573c
00000030: 14a1 84bd 43b8 d33d 2c68 80bd 9505 813c
00000040: 3e74 0abe 3c9e d2bc bbe9 43bc cd2d aa3d
00000050: 5af7 aebb 5e04 1e3d cbd1 59be 7b76 89bd
00000060: e727 5f3d 16ce 163d b46b 3ebd 9271 3bbd
00000070: 7b2d e4bd b2d1 fcbd 8d16 163e 0c9a 09be
00000080: 648a d4bb d550 cebc de02 49be 1921 893d
00000090: 9561 3fbd 2483 81bd bb6e 823d 187e 153d
000000a0: a60d eb3c 35b1 2cbe 75bb cdbd 3eba 02bc
000000b0: 26d7 8abd bcc5 5d3c 1fbe 2bbc 7c2a 9fbc
000000c0: fde1 f0bd 40f8 06be ff66 1a3e 11ed 07be
000000d0: 35fe 80bc 8c98 c9bd 30d2 623c db7e 5d3d
000000e0: 4434 0fbe 0eb0 2bbe cff7 293c 57d1 3d3d
000000f0: 1f4a 94bc 3699 d0bd aaa7 a6be 4ddc 1dbd
00000100: b24a 5a3d 4410 d4bd da42 b8bd 6161 81bd
00000110: 70ff cb3d 8e9e 4fbe 0231 2c3e ab03 a03d
00000120: 72f1 e9bb f513 353d 8735 f3bd 3b94 9cbd
00000130: 685d df3d 2ba8 4f3d ce0c 65bd 9fae ee3c
00000140: 3435 243e 14b2 203d 663a 143e 93f9 55be
00000150: fb11 193e c36d 02be a4ff 27be a235 81be
00000160: a408 173d f79b 13be 8964 25bd 651a 9d3d
00000170: a017 9ebe 242f 573d b3ac 4ebe eef8 153e
00000180: 1519 963c 4915 debc a1eb a33d 3e52 713b
00000190: 2ceb 91bd 9a33 e43d fee4 cf3d 6071 24bc
000001a0: 5187 383d f02c b03d d815 643d e55e 1abd
000001b0: af9b bd3b 5757 b8bc c1a6 82bb 4851 c5bd
000001c0: a454 b2bd 93f1 483d 4700 ef3c 6805 27be
000001d0: 8ab4 283d 1396 a0bd a047 6f3d f308 c63d
000001e0: e6d6 9e3d 2a96 c83b a220 5dbd d16e eb3d
000001f0: 5ed9 f4bc de81 2c38 529e 393c a273 7d3d
00000200: 9315 673d 85fc 4dbd 97ff 673d c224 b93d
00000210: 961f edbc d396 093d 580b abbd 4c88 f83d
00000220: 453d 89bd 6d58 d63d 8437 1f3e e19d 02be
00000230: 539e 40bd 80f5 4ebd e865 603c 80ba adbd
00000240: e9bd 8bbd 6ca9 14bd 2068 ddbd bcde 00bd
00000250: 04bd 0a3e bf8b 29bc e5aa 8bbd 70af 123e
00000260: c3ab 39bd 37bb 6b3d 00bf 1d3e a56f ca3c
00000270: 68e6 75bd 4e87 483d b143 c23d abe4 da3d
00000280: 6808 fabc 19d7 483e be22 2fbd 2238 d8bb
00000290: d3a9 243d 8656 79bd 8415 c3bd 5741 8a3c
000002a0: 535a 0d3e 5972 e13d b6aa 82bb d406 33bd
000002b0: a015 86bd 8c57 bdbb 274c c73b 388b af3c
000002c0: 68e6 ce3d 9bc1 d1bd 7709 dbbd 6cd5 24bd
000002d0: 17de 85bd 1ac2 02bd c715 b63d aa2f 843d
000002e0: 27d7 fd3d cebd 98bd 8ec4 6a3d 991a 1cbd
000002f0: b2d1 a73d f7ca cabd c990 123e 0eb7 fdbc
00000300: cddb ce38 a802 45be 6bc8 1fbe 12cb 313d
00000310: c867 253d 6f4e 893d 3b71 07be 4602 b23d
00000320: 7bc4 f23d 7b07 313b ee47 6cbb 8c67 f6bd
00000330: 19bd 7e3d afc5 17be cccd 91bd a0bf d2bc
00000340: a016 053d 78e5 ee3a e70e bd3c bac7 dc3d
00000350: 6e4a 06be 9238 943c 18e0 703d 5bcf 053d
00000360: ce15 c8bd 5e3c d7bd a6f7 3f3d 53e6 eabd
00000370: f86a 053e e64b a93d f809 49bd 3643 8fbd
00000380: ec2d c3bd 3fef 47bd b2aa e53b d2e8 fb3b
00000390: ab2c 963d 4871 b73c 1945 f8bb 9bfd acbd
000003a0: 47c7 dfba f337 91bd 6a67 9bbd 72b0 2cbe
000003b0: 2bce e9bd 2b3a 13be bc4e a03d 8f8b 36bd
000003c0: 5bb0 32bd 9f91 18be 913e 83bd 3279 d3bc
000003d0: fd30 0bbe f1ca 853c 72b9 a7bd 911a a0bc
000003e0: 5609 64bd 0adb 20bc 3eda b9bd 97c2 6fbd
000003f0: 798b 1e3e 16c4 223e 521e 983d 1d8f ba3d

up2.up_conv.0.bias f4 [16]
0.03765138 -0.09647398 -0.04562196 0.02206295 -0.15680477 0.1228771 0.03522653 -0.13458037
-0.04285462 -0.07823066 -0.10018827 -0.102034114 0.012801863 -0.09814533 -0.034102526 -0.10297947
00000000: 5538 1a3d 2694 c5bd 18de 3abd 5cbd b43c
00000010: 6e91 20be fda6 fb3d b249 103d 70cf 09be
00000020: 5388 2fbd 6537 a0bd 822f cdbd 43f7 d0bd
00000030: e8be 513c 6b00 c9bd 17af 0bbd e6e6 d2bd

up2.up_conv.1.weight f4 [16]
1.099828 1.1199312 1.1215938 1.1194228 1.1149243 0.9267814 0.90009457 1.0541804
1.1050034 1.0932837 1.0236257 1.1195995 1.0392168 1.1217965 1.1077533 1.1044303
00000000: 2ac7 8c3f e859 8f3f 6390 8f3f 3f49 8f3f
00000010: d7b5 8e3f 8c41 6d3f 996c 663f 62ef 863f
00000020: c070 8d3f b8f0 8b3f 2b06 833f 094f 8f3f
00000030: 0e05 853f 0797 8f3f dcca 8d3f f95d 8d3f

up2.up_conv.1.bias f4 [16]
0.123434655 0.13050826 0.1336733 0.13246228 0.12089016 -0.17532286 -0.08256302 0.058762528
0.12943952 0.10322291 0.0010665371 0.12283543 0.037385475 0.12446954 0.12141721 0.122645006
00000000: 4fcb fc3d f5a3 053e a7e1 083e 31a4 073e
00000010: 4395 f73d d687 33be cd16 a9bd fab0 703d
00000020: cb8b 043e 8866 d33d 0ccb 8b3a 2491 fb3d
00000030: 8321 193d e3e9 fe3d 96a9 f83d 4e2d fb3d

up2.up_conv.1.running_mean f4 [16]
-0.2523037 -0.6388724 -0.3775271 -0.45602545 -0.60696495 0.14596322 -0.053593576 -0.08323279
0.17627494 -0.5376679 -0.06637789 -0.3654229 -0.1010868 -0.9194046 -0.49718904 -0.253549
00000000: f32d 81be 248d 23bf 3b4b c1be 2b7c e9be
00000010: 0e62 1bbf 6277 153e f084 5bbd f475 aabd
00000020: 6b81 343e 9aa4 09bf 22f1 87bd b618 bbbe
00000030: 9906 cfbd 1a5e 6bbf 908f febe 2dd1 81be

up2.up_conv.1.running_var f4 [16]
0.2844975 0.7394815 0.43278238 0.6397575 0.7931955 0.0791054 0.060929105 0.31431624
0.3326404 1.173857 0.17415322 0.38677883 0.44199437 0.8819372 0.7441822 0.72465885
00000000: a8a9 913e a94e 3d3f a795 dd3e 26c7 233f
00000010: dc0e 4b3f 0302 a23d cc90 793d 0fee a03e
00000020: d84f aa3e f240 963f 3955 323e e007 c63e
00000030: 164d e23e a3c6 613f ba82 3e3f 3e83 393f

out.outconv.0.weight f4 [1, 16, 3]
-0.19218737 -0.09611815 0.026106957 -0.12859243 -0.00025032097 -0.20536572 -0.072094925 -0.0056828074
-0.23352775 -0.10267003 -0.18321984 -0.032277033 -0.10688256 -0.23893707 -0.1469893 0.021907035
-0.09626795 0.013414558 -0.05956448 0.020211319 0.037843406 0.016365694 -0.20824146 0.009365841
-0.08703105 -0.17076032 -0.013017268 -0.08629491 -0.0508196 -0.123888746 0.025885718 -0.002766852
-0.16237819 -0.096427985 -0.24744692 -0.10866056 0.013798293 -0.055023424 -0.14225505 -0.1763608
-0.1881935 -0.088173516 -0.2187652 -0.16029271 -0.05189749 -0.20094295 -0.15485977 -0.24444641
00000000: c4cc 44be 98d9 c4bd 42de d53c bcad 03be
00000010: 833d 83b9 644b 52be 81a6 93bd d836 babb
00000020: e621 6fbe aa44 d2bd fb9d 3bbe ec34 04bd
00000030: 3ee5 dabd ebab 74be 5d84 16be 6276 b33c
00000040: 2228 c5bd bcc8 5b3c e2f9 73bd 3592 a53c
00000050: b001 1b3d 5911 863c 403d 55be 2f73 193c
00000060: 563d b2bd cbdb 2ebe 6146 55bc 63bb b0bd
00000070: 3628 50bd 62b9 fdbd 490e d43c 1354 35bb
00000080: 7846 26be 097c c5bd ba62 7dbe 6d89 debd
00000090: 3c12 623c 3e60 61bd 4fab 11be ed97 34be
000000a0: ccb5 40be 5194 b4bd fc03 60be c623 24be
000000b0: 7692 54bd fdc3 4dbe 8f93 1ebe 2950 7abe
