CNN/best_model_net0.pth (torch, 40038 bytes, 18 tensors)

inc.conv.0.weight f4 [16, 1, 3]
000000 17 71 50 be 52 51 b1 be 08 b3 77 3d 2f 77 86 3e
       -0.2035564 -0.34632355 0.060473472 0.26262805
000010 cc 50 c8 be 1d 40 e1 be 83 eb 23 3f 13 4f 9b 3e
       -0.39124143 -0.43994227 0.6403124 0.30333766
000020 17 55 e5 3d 56 ca 8d 3d 27 27 e6 3e 2c 76 8e 3d
       0.1119787 0.06923358 0.44951746 0.06956133
000030 67 1a b1 bd 5b 1a b4 be 00 69 da bd 20 33 1e bd
       -0.08647614 -0.35176358 -0.106645584 -0.038622975
000040 9f 75 e6 be 8d 3d e2 3e af 31 f9 3d 87 54 3e 3e
       -0.45011613 0.44187585 0.121676795 0.18586932
000050 bb 75 fd 3e 76 9a d7 be d0 13 11 3e ce f2 9f 3e
       0.49503884 -0.42110032 0.14167714 0.31239933
000060 34 98 29 bf 7c 3e 6a be 65 9a 44 3d f1 23 52 3e
       -0.6624787 -0.22875398 0.047998805 0.20521523
000070 83 17 e7 3e 6b 03 ed 3e 63 19 79 3d ed ba c8 3e
       0.45135126 0.4629167 0.060815226 0.39205113
000080 e3 ee f7 be ba 36 a4 3c b6 81 8e 3e d3 ef 60 3d
       -0.48424444 0.020045627 0.27833337 0.054916214
000090 0d d3 08 bf 77 69 8f be 9d e2 c4 bd dc 12 a6 3b
       -0.5344704 -0.2801015 -0.096135356 0.005068166
0000a0 9d 2f 92 3d 31 86 e0 3d 35 bc 0b 3e cb 98 8e be
       0.07137988 0.10963095 0.13646014 -0.27850947
0000b0 e1 a7 26 bf a8 34 bd 3e 56 fd 54 bd dc 63 79 bd
       -0.6509991 0.36954236 -0.051999412 -0.06088625

inc.conv.0.bias f4 [16]
000000 03 d6 d0 3e 9e a7 b8 be 9d b8 aa be c3 0c 05 bf
       0.40788278 -0.36065382 -0.33343974 -0.519726
000010 c0 94 0d bf cd 3d c8 be 29 2f 74 be e0 3b 42 3e
       -0.553051 -0.3910965 -0.23846115 0.18968153
000020 8d c5 82 be 60 f0 00 bf 20 df 54 be 4c 83 fa 3e
       -0.25541344 -0.50366783 -0.2078824 0.48928297
000030 80 b6 33 bb a7 3b fa 3d 5c 8e cc 3d 56 19 1f 3d
       -0.002742201 0.12218409 0.099880904 0.03884252

inc.conv.1.weight f4 [16]
000000 5d 2c 85 3f 86 85 7c 3f 32 70 7e 3f 91 31 83 3f
       1.0404164 0.9864124 0.99389946 1.0249501
000010 1f ed 84 3f 6a c8 5a 3f ae 4a 75 3f ec 53 6f 3f
       1.0384864 0.8546206 0.9581708 0.9348743
000020 97 f7 80 3f 8b 4a 80 3f 27 dc 80 3f 6d 69 80 3f
       1.0075558 1.0022749 1.0067185 1.0032173
000030 00 32 83 3f 71 26 83 3f fb 68 83 3f 14 7d 7e 3f
       1.0249634 1.0246106 1.0266412 0.99409604

inc.conv.1.bias f4 [16]
000000 d3 8a 9a 3b 69 6d 90 3c 6d e1 1f 3d 6c 22 ed bc
       0.004716256 0.017630296 0.039033342 -0.028947078
000010 d0 8a 51 bd 36 0c df 3e d5 69 d1 3d 17 95 da 3d
       -0.051157773 0.43564004 0.10225264 0.10672968
000020 51 0a 13 3d a6 d5 a8 3d af 01 8e 3e 78 cd b1 3d
       0.03589851 0.08243875 0.2773566 0.08681768
000030 ea e6 0f 3d e5 33 7e 3d 3a 67 2b 3b fb 96 4b 3d
       0.035132326 0.06206121 0.0026154057 0.049704533

inc.conv.1.running_mean f4 [16]
000000 bc 44 cb 3e 70 2f bf be b2 9a 9e be 46 a6 01 bf
       0.39700878 -0.3734088 -0.30977398 -0.5064434
000010 60 be 10 bf 6a cd c8 be c1 f5 61 be 28 ee 42 3e
       -0.5654049 -0.39219218 -0.22066404 0.19036162
000020 a0 62 8c be 82 f0 f4 be bb 9e 55 be 5a 89 fe 3e
       -0.27418995 -0.47839743 -0.20861332 0.49714166
000030 dd 6b be bc 40 58 01 3e b4 d7 a7 3d 02 0e 37 3d
       -0.023244793 0.12631321 0.08195439 0.044691093

inc.conv.1.running_var f4 [16]
000000 1b 56 9e 37 d8 61 e1 37 6f 1d b7 38 0c 0e e3 37
       1.8875164e-05 2.6867652e-05 8.7316024e-05 2.706705e-05
000010 30 29 c2 37 76 37 c4 35 dc 6d 54 38 72 0f f0 35
       2.3145782e-05 1.4619279e-06 5.0647053e-05 1.7885889e-06
000020 5e 9a 6d 38 f2 f4 cc 38 3b e1 ca 35 c2 05 24 37
       5.664897e-05 9.773103e-05 1.5115723e-06 9.776502e-06
000030 df 30 88 38 e3 46 37 36 23 e5 55 38 24 cf bf 36
       6.494088e-05 2.7310386e-06 5.0996558e-05 5.716358e-06

down1.maxpool_conv.1.conv.0.weight f4 [32, 16, 3]
000000 c2 32 8a bc 06 ac 59 3d 3e 3f 1c be 04 be 99 bd
       -0.016869906 0.05314257 -0.152585 -0.07506946
000010 af f2 11 3e f6 c5 2c bd 36 df 03 3d 63 c1 ae 3d
       0.14252733 -0.042180978 0.032195292 0.08532979
000020 ce f7 f6 3c 13 9d 5d bd 5f 1f 4a bb 33 40 15 bd
       0.03014746 -0.054104876 -0.0030841453 -0.03643818
000030 c2 b7 89 bd eb 83 20 ba fc 0a e9 3d 66 0e 80 3d
       -0.06724502 -0.0006123173 0.11379048 0.06252746
000040 a5 6c cb 3d 40 c3 6b 3d f4 ee e4 3c cc b3 2e be
       0.09932832 0.05755925 0.027945973 -0.17060775
000050 4b 29 62 3d a4 95 ae 3d c1 a1 f0 bc f6 f3 a3 3b
       0.05521516 0.085246354 -0.029374005 0.0050034476
000060 70 af d1 bd e3 bd 09 3d e1 42 02 be 2e 6a 3a bd
       -0.1023854 0.033628356 -0.12720825 -0.045511417
000070 33 d1 1d bd 78 02 97 bd 0d b0 bf 3b 5d 8f 11 bd
       -0.038529586 -0.07373518 0.0058498443 -0.035537113
000080 06 24 86 bc 2e 97 34 bc 24 2e d2 bc b3 df da bd
       -0.0163746 -0.011022372 -0.025656767 -0.106871985
000090 2b 24 88 3d 86 11 a6 3d 37 c6 22 bc a1 f6 d8 bb
       0.066475235 0.08108811 -0.009934953 -0.0066211973
0000a0 b7 38 68 3c 1b d2 b6 3d da ad d0 3c 9a ab d1 3c
       0.014173678 0.08926793 0.025473524 0.025594521
0000b0 de 7c e9 3c 48 6d d8 3c 28 fd df bc eb fd a4 3b
       0.028501924 0.026419297 -0.027342394 0.005035152
0000c0 fe 5f 92 bc 37 21 5d bd e8 36 65 bd 7b 34 0f bd
       -0.017868038 -0.053986754 -0.055960566 -0.03496216
0000d0 6d e6 bf 3d df ea 4e 3c 06 84 37 bd ea ef b9 3c
       0.09370122 0.01262924 -0.04480364 0.022697408
0000e0 86 55 ab bd 04 d8 74 bb 65 b2 00 3d 4b cd fd bc
       -0.08365922 -0.00373602 0.03142013 -0.03098168
0000f0 7d 2e 32 3d ca dc 5e 3d a5 b5 84 3d 35 01 97 bd
       0.043501366 0.05440978 0.064799584 -0.07373277
000100 42 9e 48 bb da 87 98 3d 7f a8 75 bd ee cf ad bd
       -0.0030611907 0.07447787 -0.059975144 -0.08486925
000110 d6 da 98 bc 17 d0 e1 3c b2 8e 29 3c 6a 32 7b bd
       -0.018659037 0.027565045 0.010348963 -0.061327375
000120 5d 76 42 3e 63 3b cf 3d 83 e2 c8 bd 0d eb e9 3d
       0.18990465 0.10118749 -0.09808829 0.114217855
000130 0f 8b 0c 3e 36 80 19 3e d2 31 52 bc 74 ff 82 3d
       0.13724922 0.14990315 -0.012829261 0.0639638
000140 21 7a 83 bd 2f 09 8f 3d 5c 6a 17 3e d3 ce b4 3d
       -0.064197786 0.069841735 0.14786667 0.08828511
000150 30 8c 52 3c 86 4f a2 bd 00 b6 c1 3d db c6 7a 3c
       0.012850806 -0.07925324 0.09458542 0.0153062
000160 32 73 00 3e 3a 98 83 bc 5b 05 e4 3d 09 68 9c bd
       0.12543944 -0.016063798 0.11133834 -0.07637031
000170 74 a8 c0 bd 70 97 21 3e 55 0d 2c 3e 91 f3 10 3c
       -0.0940713 0.15780425 0.16801961 0.008847133
000180 c1 30 f7 bc 51 82 af bd fe f4 89 bd 5b da c2 bd
       -0.030174615 -0.08569778 -0.06736182 -0.09514304
000190 bf c5 bc 3d 98 ef cf 3d a3 a6 5c 3d f2 c8 47 bd
       0.092174046 0.10153121 0.053869855 -0.04877562
0001a0 50 24 86 bc 32 e3 13 3e f8 b9 0b bc 16 dd 5a bd
       -0.016374737 0.14442137 -0.008528225 -0.0534335
0001b0 d7 62 de bd 39 7d 45 bd fa 45 a5 bd 51 af c5 bd
       -0.10858696 -0.048215125 -0.080699876 -0.096525796
0001c0 e9 9d 36 3d 67 78 5e bc 3e d6 6b bb dc f4 b0 3d
       0.04458419 -0.013578511 -0.0035985853 0.08640453
0001d0 a0 88 56 3d 74 e6 12 3e a8 6d 0e bd ae 93 54 3c
       0.05237639 0.14345723 -0.034772545 0.012974663
0001e0 d9 37 bd 3d 29 77 bd 3d 91 2b 0b 3e 0a 21 94 3d
       0.09239168 0.092512436 0.13590838 0.07232864
0001f0 d2 a7 83 3d 49 a1 12 3d 9d f9 11 3e 0b e7 45 bd
       0.064284936 0.035798345 0.14255376 -0.048316043
000200 16 ba 04 3d 70 2b 54 3e 19 59 73 bb 70 82 5d 3c
       0.032404028 0.20719695 -0.0037131964 0.013519868
000210 cd 48 c8 bc 3d e9 97 bd e6 bb 97 bd 46 c3 6a bd
       -0.024448777 -0.074175335 -0.07408886 -0.057315134
000220 eb 1f f8 bc 44 6b e0 bc be ea 00 be b5 34 5d 3c
       -0.030288657 -0.027394898 -0.12589547 0.013501336
000230 38 c5 86 3d b8 95 04 be 9f 4e 1c 3d a2 11 74 bd
       0.06580585 -0.12947738 0.038160916 -0.05958713
000240 4e 1e 27 3e 07 eb 7e bd f2 dc 82 3d 40 5e 94 bd
       0.16320154 -0.06223586 0.06389798 -0.07244539
000250 78 41 2c bd 5e 7b b6 3d e6 c2 1a bd 3b 17 26 bd
       -0.042054623 0.08910249 -0.037783526 -0.040549498
000260 2f b0 7c 3d 32 73 3d 3c 84 c8 ba 3d ac 77 93 bd
       0.06169146 0.011563109 0.091202766 -0.0720056
000270 2c 29 9c 3c ce d7 9c bd 81 50 bb bd 06 45 4a 3d
       0.019062601 -0.07658349 -0.09146214 0.049382232
000280 7b 5c f6 3d d1 23 d2 3d 95 a1 f3 bc ea 01 46 bc
       0.12029358 0.10260738 -0.029740134 -0.012085417
000290 86 d0 4b 3d 57 71 af 3c dc 03 b7 3b a0 7d ab bb
       0.04975941 0.02141635 0.005585177 -0.0052334815
0002a0 94 3e 04 be 7a 0e 69 bc 2c b7 98 bd 1c 80 96 3d
       -0.12914497 -0.014224643 -0.07456812 0.07348654
0002b0 6a cf 22 3c 5c bc 13 3e e7 e1 87 bd 9a ca 1c be
       0.009937147 0.14427322 -0.06634884 -0.15311661
0002c0 5e 30 da 3b 91 87 07 3e 3a 82 07 3d 55 90 26 be
       0.006658598 0.13235308 0.033083178 -0.16265996
0002d0 8b 80 f5 bc 3f f5 3d bd 4f 29 c5 bd 8d dd 29 3e
       -0.02996852 -0.046376463 -0.096270196 0.16588421
0002e0 0d d2 ac bd 2f 1f 16 be 1b ef 71 3d 75 16 d2 3d
       -0.084385015 -0.14660333 0.05906592 0.102581896
0002f0 dc 63 b2 bd a2 cf 09 bc 4b 33 6f 3d 4f e9 22 3e
       -0.08710453 -0.00841132 0.058398526 0.15909313
000300 19 46 b9 3d 38 8c 1b 3e d0 71 28 be 0b 01 08 3e
       0.09046573 0.15190208 -0.16449666 0.13281648
000310 d4 57 1c 3e 3a 9d 17 bd 47 86 03 bd 0c 47 21 bd
       0.15267879 -0.037015177 -0.03211048 -0.039374396
000320 a0 b7 db bb 59 47 f2 3c fc 14 e4 bd 7c 96 47 bd
       -0.0067052394 0.029575037 -0.11136815 -0.048727497
000330 e2 b5 06 bc 43 75 b0 3d e2 41 9c bc 48 f5 26 3d
       -0.008222075 0.08616116 -0.019074384 0.040761262
000340 b4 9f a5 3d 52 24 ab 3c 0a 8b 2c bd 40 83 ce 3d
       0.080871016 0.020891342 -0.042124785 0.10083628
000350 41 8a 8f 3d 27 54 c9 bc bd ca b2 bd 50 a6 98 bb
       0.07008792 -0.02457626 -0.087300755 -0.004658498
000360 19 15 87 bd 23 70 41 bd 47 15 d9 3c f1 66 cd bb
       -0.06595821 -0.047226083 0.026499404 -0.006268375
000370 59 33 84 bd 33 68 b5 3a 58 e1 59 bd 4e dd 14 bd
       -0.06455106 0.0013840258 -0.05319342 -0.036343865
000380 22 cb 25 bc 67 c2 83 3d 3b 52 6c bd 78 a7 34 bd
       -0.010119231 0.06433564 -0.05769561 -0.044105023
000390 4a 33 1a bd 0c f1 39 be 8a 9f 15 3e c1 7a 12 3d
       -0.03764657 -0.18158358 0.1461164 0.0357616
0003a0 26 82 83 3d 69 c6 85 bc 69 cc 79 bd 12 d0 e7 3c
       0.06421308 -0.01632996 -0.060985956 0.028297458
0003b0 b3 44 f5 3c 09 ee 99 3a 8e 3d 01 bb ac fa 49 3d
       0.029939985 0.0011743914 -0.0019720527 0.049311325
0003c0 d1 e4 f4 bc 10 7b ba 3d de 49 b2 3d 13 57 ee bd
       -0.029894264 0.091055036 0.08705495 -0.11637702
0003d0 94 45 8b bd e1 af 99 3d c8 8a 0c 3e 72 5b 46 bd
       -0.0680038 0.07504249 0.13724816 -0.048427053
0003e0 d4 5c 8b 3b 0c f1 74 3c 44 31 d0 3d 2a 27 0c 3e
       0.0042530093 0.014950048 0.10165647 0.13686815
0003f0 aa 4c c9 bb 86 ba b1 bb ab ba 8f 3d 7c f7 66 bd
       -0.0061431723 -0.0054238467 0.07018026 -0.056388363

down1.maxpool_conv.1.conv.0.bias f4 [32]
000000 4d 5c 4b bd 0b 57 b4 3d f3 1d a3 bd 5e ea cf 3d
       -0.04964857 0.08805665 -0.07964697 0.10152124
000010 e6 56 bc 3d e3 03 b0 bd 48 7f de 3b b3 39 d5 bd
       0.09196262 -0.08594491 0.0067900755 -0.10411396
000020 56 22 da bd 1b 54 ce 3d 16 88 a9 bd 09 d1 78 bc
       -0.1065108 0.100746356 -0.082779095 -0.015186557
000030 41 31 f3 3d 00 1a 3c bd f9 2d eb 3d 63 00 86 3d
       0.11874629 -0.045923233 0.11483378 0.065430425
000040 dc 31 89 3d bb 43 f5 bd 9f f1 ee 3d 2e 87 e4 3d
       0.06698963 -0.11975809 0.11667179 0.11158596
000050 d9 05 6e bd b8 53 ba bd 61 aa 09 3e 1e a9 7d bd
       -0.058111046 -0.09097999 0.134439 -0.06192886
000060 e2 8c b7 bc c2 a3 b7 3c 85 e6 24 3d 22 39 85 bc
       -0.022406045 0.022416953 0.040258903 -0.016262595
000070 74 6b 81 3d 37 79 01 be 8f 94 d8 bd f9 35 51 bc
       0.06319323 -0.12643896 -0.1057521 -0.012769216

down1.maxpool_conv.1.conv.1.weight f4 [32]
000000 41 61 67 3f 58 dc 7f 3f 89 d5 82 3f ea 39 7b 3f
       0.9038277 0.9994559 1.0221416 0.98135245
000010 b6 06 7d 3f be 04 87 3f ed a9 49 3f 4b 34 84 3f
       0.98838365 1.0548322 0.7877491 1.0328459
000020 14 03 69 3f 7d 73 66 3f 07 d2 8a 3f 3e 24 79 3f
       0.9102032 0.9001997 1.0845345 0.97320926
000030 c0 13 86 3f 6b 57 78 3f 29 3b 76 3f be 49 82 3f
       1.0474777 0.9700839 0.9618402 1.0178754
000040 45 83 83 3f 68 e2 71 3f 0d d5 86 3f 3e e2 83 3f
       1.0274435 0.94486094 1.0533768 1.0303419
000050 7b e9 8b 3f bd 0c 80 3f bc 52 76 3f f4 0f 7f 3f
       1.0930628 1.0003887 0.9621999 0.9963372
000060 72 1e 72 3f 56 0a 79 3f 12 78 88 3f 2a 59 73 3f
       0.94577706 0.97281396 1.0661643 0.9505793
000070 8d b4 7d 3f 7d b2 7d 3f 3f 92 86 3f 47 0c 74 3f
       0.99103624 0.99100477 1.0513381 0.95331234

down1.maxpool_conv.1.conv.1.bias f4 [32]
000000 f2 ce 1b 3e 51 34 4f bb 2c 45 08 3e 2a be 81 3d
       0.15215662 -0.0031616876 0.13307637 0.06335099
000010 03 77 db 3d 93 2e 00 3e 1c 15 39 3e 2e 7d 28 3e
       0.10716059 0.12517767 0.18074459 0.16454002
000020 21 dd 08 bd 11 6e 62 3d fe 9a 99 3d 23 90 6a 3d
       -0.03341401 0.05528075 0.075002655 0.057266366
000030 2a d2 0f 3d 0c 9c c2 3b 49 a4 85 bb e9 87 2d 3c
       0.035112537 0.0059390124 -0.004078422 0.010591486
000040 da ac 7c 3d f8 f0 91 3d 29 40 b2 3d 09 d9 99 3d
       0.06168828 0.07126039 0.08703644 0.07512099
000050 83 28 86 3d 28 6e d0 3c 8a b1 00 3e a1 81 81 3d
       0.06550696 0.025443152 0.12567726 0.06323553
000060 ee 40 2c 3e c7 b9 99 3d 52 1d e4 3d e6 01 e9 bc
       0.16821644 0.07506137 0.11138405 -0.028443288
000070 48 18 59 bb a1 b3 af 3c 67 7c d0 3d 25 c6 cb 3d
       -0.0033126045 0.021447958 0.10179978 0.099499024

down1.maxpool_conv.1.conv.1.running_mean f4 [32]
000000 50 b4 81 bd 19 27 03 3f 1f 90 66 3d 36 3a 40 3e
       -0.0633322 0.51231533 0.05628979 0.18772206
000010 0d bb 14 3e 6a e9 2b be 2d 74 e8 3b be b1 95 3d
       0.14524479 -0.16788259 0.0070939274 0.07309292
000020 07 b2 73 be 95 b4 8c be 31 c7 9c bd bc fc 84 be
       -0.23798381 -0.27481523 -0.0765518 -0.2597407
000030 70 57 30 3d c2 49 a4 3d f9 c0 1e 3b 29 63 c6 3d
       0.043052137 0.08021881 0.0024223907 0.09686882
000040 51 57 95 bd 19 93 40 be 36 27 52 3e 75 71 8a 3d
       -0.07292045 -0.18806113 0.2052277 0.067599215
000050 98 da 41 bc 91 d1 d0 bd c1 09 92 be 67 79 af bd
       -0.011831902 -0.101962216 -0.28523067 -0.085680775
000060 67 5a 32 be 4d 90 ca bd 1b a6 ba bc 89 99 d9 3d
       -0.17417298 -0.098908044 -0.022784283 0.10624988
000070 ba 1e 7e 3d 66 e0 ad bd 36 64 7e be e5 1a 93 be
       0.062041022 -0.08490066 -0.24842915 -0.28731456

down1.maxpool_conv.1.conv.1.running_var f4 [32]
000000 81 6e a1 3c 20 37 9c 3d 26 b4 b9 3d 55 de df 3d
       0.019706013 0.07627702 0.09067564 0.10931078
000010 41 52 db 3c 88 c4 b2 3e f2 cf ba 3c 0a ce 0f 3e
       0.02677262 0.34915566 0.022804234 0.14043441
000020 a5 f9 a5 3c b1 53 d2 3d 88 77 9e 3d 2e 15 88 3d
       0.020260641 0.10269869 0.077376425 0.06644665
000030 b1 d4 1e 3e f3 e0 24 3d ba 53 d0 3c c1 38 4e 3e
       0.15510823 0.04025359 0.025430549 0.20138837
000040 ca 29 df 3e 51 ce 35 3e e6 83 48 3d e9 b3 a9 3d
       0.4358657 0.17754485 0.048953913 0.08286268
000050 fa 1a 32 3e 62 09 af 3d 8e e1 20 3e 14 d7 22 3e
       0.17393103 0.085467115 0.15711042 0.15902358
000060 13 79 86 3d 94 68 c3 3d 8d 25 9a 3d 57 8d c0 3c
       0.06566062 0.09541431 0.075266935 0.023504896
000070 9f 23 34 3d b4 1a 94 3c c4 24 56 3e d8 e4 29 3d
       0.043979283 0.01807914 0.20912462 0.041478008

down2.maxpool_conv.1.conv.0.weight f4 [64, 32, 3]
000000 27 62 5e bc 07 49 13 3b ee 2e f7 bb 25 41 37 3c
       -0.013573206 0.0022473948 -0.0075434363 0.011184965
000010 e8 d9 91 3b b6 15 92 bd 9b 74 1b bd 17 80 57 3d
       0.0044510253 -0.07133047 -0.037953 0.05261239
000020 2b 65 9a 3a 2f 4f 0e be b8 f6 82 3d 33 5e 3b 3c
       0.0011779418 -0.13897394 0.06394714 0.011436033
000030 02 2a 2e bd ac b5 f1 bc a0 54 24 bd ca 30 b8 bc
       -0.04252053 -0.029505573 -0.040119767 -0.022484202
000040 16 84 09 3e 4f 31 a9 bc 77 57 3e 3a c1 2c 64 3d
       0.13429293 -0.020653395 0.0007260958 0.055706743
000050 f6 25 f5 b7 2f 4d 25 3c 85 23 05 bc aa d1 19 bd
       -2.9223953e-05 0.010089203 -0.008126144 -0.037553467
000060 09 04 ba bd 67 3f 48 3d 90 c3 04 3d 39 5d 44 bd
       -0.09082801 0.04888859 0.032413065 -0.047940467
000070 a6 09 6c 3c eb cc b3 3c 8a df 47 bd 7a 5b fa 3b
       0.014406597 0.021948298 -0.048797168 0.0076402994
000080 54 ca 05 bd e0 0f ee 3d 79 03 a1 3d de 12 1b 3b
       -0.03266366 0.11624122 0.078619905 0.0023662369
000090 32 25 2d bb 2d 0a 5d 3d b4 9f e6 bc 7a d4 4b 3c
       -0.0026419875 0.053964783 -0.028152324 0.012440795
0000a0 21 96 f2 bb e4 06 dd bc 18 0a 53 3d 9c af 9e 3d
       -0.0074031507 -0.026980825 0.051523298 0.077483386
0000b0 e9 d7 85 3d 63 ce c5 bd 9e 24 1b 3c 56 b5 37 3d
       0.06535322 -0.09658506 0.009469179 0.04485067
0000c0 b1 48 89 bd ad ac 60 3d 93 a4 f4 3b 1e f7 fb bc
       -0.06703318 0.054852176 0.007465908 -0.030757483
0000d0 37 ba de bd de ba 88 bc 25 35 ee 3c dd 12 89 bd
       -0.108753614 -0.016690668 0.029078076 -0.06693051
0000e0 07 92 84 bc a5 a4 26 3d 8e be 28 bd e7 f4 c2 bc
       -0.016182913 0.04068436 -0.041197352 -0.02379842
0000f0 67 f2 d8 3c c0 a9 c9 bd 53 ff d9 bc 8c c3 b0 3a
       0.026482774 -0.0984683 -0.026611006 0.0013486012
000100 ab 01 de bd 98 05 98 bd d8 47 09 3e 64 54 1d 3d
       -0.10840162 -0.07422942 0.13406312 0.03841056
000110 59 ad dc 3c e6 19 4a 3d 05 b2 58 bc b5 94 ab bd
       0.026938127 0.049341105 -0.013226037 -0.08377973
000120 e9 4d 5d 3c ef ef e5 3c 4e 82 82 bc 80 87 ee bd
       0.013507345 0.02806851 -0.015931275 -0.11646938
000130 ab aa 87 bd 7f 50 b5 bc 0d 84 7e bd 18 61 93 3c
       -0.06624349 -0.02213311 -0.062137652 0.017990634
000140 51 0e 4e 3b 0d b6 a9 3d 18 af 33 3d db 96 e5 3c
       0.0031441639 0.082866766 0.043868154 0.028026035
000150 81 ee c1 3b a9 6f c3 3d 9a 9d 9d 3d 9c 7b 9e 3d
       0.0059183245 0.09542782 0.07696076 0.0773842
000160 6f 35 d9 bd dc a5 69 3b 3e 49 f7 bc 12 ac 8c 3d
       -0.10605895 0.0035651838 -0.030186292 0.06868757
000170 fd 16 88 3d 91 64 8f 3d 4a 8e 15 3d 4b b4 14 3d
       0.0664501 0.070016034 0.03651265 0.036304753
000180 67 a5 1a bc 1f 45 3b 3b 46 c6 70 bd f9 3f 8c 3d
       -0.009438849 0.0028575135 -0.05878284 0.06848139
000190 13 9d c7 3d ae 5a 21 bc 5a b0 ab b9 64 1a 14 bb
       0.097467564 -0.00984828 -0.00032747054 -0.0022598738
0001a0 27 d1 aa bd 22 ae d2 bd 91 f5 2b bd a3 67 17 bd
       -0.08340674 -0.102871194 -0.041982237 -0.03696407
0001b0 ef 4c c9 bb dc 2b 06 bd 0f 46 bd bc 38 b1 aa bd
       -0.0061432044 -0.03275667 -0.023104696 -0.08334583
0001c0 e1 27 c4 bc d5 a8 39 bd 3e 0d 17 3d 94 7b 58 bd
       -0.023944797 -0.045327026 0.036877863 -0.05285223
0001d0 5a 24 a0 3a 6b f0 52 bb 8f a4 4c 3e 42 a9 85 bd
       0.0012217865 -0.0032186757 0.19984649 -0.06526424
0001e0 e2 09 08 be ad 6d 33 3d 66 73 05 3d 2a a9 99 bc
       -0.1328502 0.043805767 0.032580756 -0.018757422
0001f0 7e cf 1f bd 19 ff 99 3a 74 ce 5d bd 51 24 80 3d
       -0.03901624 0.0011748999 -0.054151967 0.06256927
000200 be 6d 81 3d b0 dd e4 bb b4 86 c3 3d 60 a3 48 39
       0.0631976 -0.006984435 0.09547177 0.00019134348
000210 db 67 2c bd 27 57 fb bc e7 cd 8a 3b 2d 8d 11 be
       -0.04209123 -0.030681206 0.0042359713 -0.1421401
000220 aa 9d 97 3d 6f 41 5d 3d 36 09 67 bd 7a a2 bd 3d
       0.07403119 0.05401748 -0.05640527 0.092595056
000230 5d 1a cc 3c e6 14 92 bd 6d 67 be 3d d4 c4 50 bd
       0.024914915 -0.07132892 0.09297071 -0.05096896
000240 85 3d 44 bc e2 60 c9 3d 2f 41 54 3d 7d 78 05 bc
       -0.011977558 0.09832932 0.051819976 -0.008146402
000250 c9 4a c8 3c 7f 04 85 bd 9e f6 f6 bc 8f c1 96 3d
       0.024449723 -0.06494998 -0.030146893 0.07361137
000260 13 20 d8 bc 4c 6c 32 bd 33 a7 2a bc ea c6 99 3d
       -0.026382482 -0.04356031 -0.01041584 0.07508643
000270 c2 e7 1b bd 52 a9 a1 bd b0 0b 58 3b 7a e1 b0 bc
       -0.03806282 -0.078936234 0.003296595 -0.02159189
000280 dd fd b9 3d 9e 20 aa 3d ea 89 2d bd 2e aa 2c bd
       0.09081624 0.083070025 -0.042367853 -0.042154483
000290 c4 88 30 bc 5e 40 46 bd 96 a1 cb 3c 25 f0 11 3c
       -0.010774795 -0.04840123 0.024857324 0.008907353
0002a0 d3 63 c7 bb 91 69 19 3d 9c 52 1d 3d d9 fd 52 bd
       -0.006084898 0.03745419 0.03840886 -0.05151162
0002b0 0e 34 28 bd 4b 82 be 3c 23 26 24 bd 19 86 49 3d
       -0.04106527 0.023255488 -0.040075433 0.04920015
0002c0 6d 28 b3 bc a0 68 ed 3c c1 01 01 3d c4 9b 09 bc
       -0.021869862 0.028980553 0.031495813 -0.008398954
0002d0 c3 e7 48 3c d4 ec 8b 3c 50 5e 05 3c 3b 3b ab 3c
       0.012262288 0.017080702 0.008140162 0.020902267
0002e0 7a 25 69 bd 21 fa de ba 1f 41 9b bd 5d 51 93 bd
       -0.056920506 -0.00170118 -0.0758078 -0.07193253
0002f0 c4 77 c3 3d 00 cd b3 bc 6e c8 fd bc 16 72 b1 bb
       0.09544328 -0.021948338 -0.030979361 -0.0054152114
000300 93 a6 48 3d f6 51 34 3d 4e 6e 0b bc 55 64 4c 3c
       0.048986983 0.044023477 -0.008510185 0.012475093
000310 8d 06 76 bd 4e e8 de bc bb ae ff bc b1 4d c6 3c
       -0.06006484 -0.02721038 -0.031211248 0.024206968
000320 74 9f 58 3d 30 59 04 3c 98 25 c3 bd a6 aa 1b bd
       0.05288644 0.008077905 -0.09528655 -0.03800454
000330 99 24 4d 3d b7 c3 42 3d f4 4a 52 3c c0 87 3b 3d
       0.05008373 0.04754993 0.012835253 0.04578376
000340 31 e7 e1 3d 1f 37 75 3d bf 95 15 3d c9 46 b5 3d
       0.110304244 0.05986702 0.036519762 0.08851392
000350 52 1f bc bc 40 09 4c bd 0c f9 98 3c 98 68 25 bd
       -0.022964153 -0.04981351 0.018673442 -0.04038295
000360 7f 48 a0 bd 5c 71 48 bd 6d e3 77 3d f4 41 87 bc
       -0.078263275 -0.048936233 0.060519625 -0.016510941
000370 e2 d2 e4 bd 62 de 16 3c d3 f2 be bd 27 85 36 3d
       -0.11173035 0.009208294 -0.09323659 0.044560578
000380 06 46 10 be 12 73 3e bd 84 ff 82 3d 1a 57 23 3d
       -0.14089212 -0.04649646 0.06396392 0.03987799
000390 a7 8a 7f bd c0 72 06 be 74 de 8c 3d a8 23 2c bb
       -0.06238809 -0.13129711 0.06878367 -0.002626637
0003a0 8a 74 d1 3c 32 79 ac bd 17 db 4f 3d 0c d9 3f 3d
       0.025568265 -0.08421554 0.05074605 0.04683785
0003b0 8f 7a bf 3d 83 09 10 3c ec ab 42 bc c1 26 52 bc
       0.09349548 0.00879133 -0.01188181 -0.012826622
0003c0 3e 8b 45 bd 2e 32 33 bc 3e a3 3e 3d f1 f8 8b 3c
       -0.048228495 -0.010937257 0.0465424 0.017086478
0003d0 e6 72 e6 bc 06 6f c8 3d f3 43 e0 3b 8d 20 df bd
       -0.02813096 0.09786801 0.0068440377 -0.108948804
0003e0 90 52 92 3d 64 5a a4 3d 26 2f 27 3b 41 2b 8e 3d
       0.07144654 0.08025053 0.002551028 0.06941844
0003f0 72 7b 64 bd c6 3e 17 be 3f 25 e9 3c bc 47 cc 3d
       -0.05578179 -0.1477004 0.028460143 0.0997462

down2.maxpool_conv.1.conv.0.bias f4 [64]
000000 c8 7e ca 3d c9 5d ac 3d ab 44 1a 3c 25 af 92 3d
       0.09887463 0.084163256 0.009415786 0.071623124
000010 82 da 80 3c 84 f1 9d bd f6 c4 ab 39 6b c8 82 bc
       0.015729193 -0.07712081 0.0003276241 -0.015964707
000020 b0 00 3b bc 3a c6 6b bc 4e 73 5d bd c8 a6 eb bc
       -0.011413738 -0.014390523 -0.05406504 -0.028766051
000030 64 8c 34 3c a7 ee 57 bd e8 41 55 bb 30 d5 ff 3c
       0.0110198 -0.05271783 -0.0032540504 0.031229585
000040 80 7e cb 3c af 21 c3 bd 0f 86 94 bd 53 cb 2c 3d
       0.024840593 -0.09527909 -0.07252132 0.042186093
000050 06 51 79 bb 13 b4 c3 bd e4 8b cb bd 81 72 16 3d
       -0.0038042678 -0.09555831 -0.099387914 0.036730293
000060 f6 49 a3 bd 56 42 49 3d d5 da 84 3d 76 ff 9b bd
       -0.07973091 0.04913553 0.064870514 -0.07617085
000070 69 42 ed 3c 33 09 29 bd 3b cc 79 bc d8 97 c6 bd
       0.02896233 -0.04126854 -0.015246446 -0.09696931
000080 e7 6f 6b 3d 75 0c 01 bd 39 e3 1b 3d e8 c1 4a 3c
       0.057479765 -0.03150602 0.038058493 0.012375332
000090 75 9c 91 bd 72 e9 38 bb b5 c0 8c 3c 7b c2 6c 3d
       -0.0710992 -0.0028215316 0.017181734 0.05780266
0000a0 c5 c1 e7 3c aa 40 3f bd c4 8f 2a 3d 93 5d 9f 3d
       0.028290639 -0.046692528 0.04164101 0.0778152
0000b0 a6 d6 bf 3d 6f 1a 47 3d 6c a5 b0 bd 7d 73 98 bd
       0.09367113 0.048609193 -0.08625302 -0.07443903
0000c0 c7 01 dc 3b 45 5e a2 bd 98 61 5d 3d e0 1f 21 bd
       0.006714079 -0.07928137 0.05404815 -0.03933704
0000d0 65 54 b6 3d a7 2d dd bd 0a 2a 76 3b 6a 79 25 3d
       0.08902816 -0.10799723 0.0037561678 0.040398993
0000e0 56 c0 ee bd e3 21 6d 3d 39 3b ad bd c1 2b ca 3c
       -0.11657779 0.057893645 -0.084585615 0.024679067
0000f0 10 85 f1 3c 04 59 64 bd 6c a1 86 ba 53 a1 89 3d
       0.029482394 -0.055748954 -0.0010271496 0.06720223

down2.maxpool_conv.1.conv.1.weight f4 [64]
000000 19 75 80 3f 28 5d 85 3f 52 28 84 3f b0 76 7c 3f
       1.0035735 1.0419054 1.0324805 0.986186
000010 0c 91 7f 3f 89 26 7d 3f 5d 58 80 3f c4 ba 82 3f
       0.998307 0.98886925 1.0026966 1.0213246
000020 08 80 81 3f be 89 80 3f 84 15 85 3f 2d 98 72 3f
       1.0117197 1.0042036 1.0397191 0.9476345
000030 32 bb 80 3f c6 c3 78 3f 20 37 81 3f 31 65 83 3f
       1.0057127 0.97173727 1.0094948 1.0265256
000040 42 7c 76 3f 27 33 75 3f 35 a0 7e 3f 20 7c 80 3f
       0.9628335 0.9578118 0.99463207 1.003788
000050 b3 a9 7f 3f 15 10 7f 3f 77 09 83 3f 75 a4 82 3f
       0.99868315 0.99633914 1.0237263 1.0206438
000060 5a 40 84 3f 18 1a 79 3f a5 db 80 3f af 06 83 3f
       1.0332139 0.9730544 1.006703 1.0236415
000070 36 a7 82 3f d1 da 7c 3f c9 4b 80 3f 8f ae 81 3f
       1.0207279 0.9877139 1.0023128 1.0131396
000080 6c fa 77 3f bb 1b 80 3f c3 21 81 3f 7e 0c 83 3f
       0.9686649 1.0008463 1.0088428 1.0238187
000090 a0 95 6c 3f c7 df 6c 3f 03 57 76 3f 73 04 81 3f
       0.9241581 0.9252896 0.9622652 1.0079483
0000a0 c4 d4 7d 3f 26 5a 63 3f c1 63 7b 3f 35 fd 82 3f
       0.9915278 0.8880943 0.9819909 1.0233523
0000b0 71 cf 81 3f 09 01 72 3f 21 04 80 3f fa 7c 76 3f
       1.0141431 0.9453283 1.000126 0.9628445
0000c0 d6 18 84 3f 02 27 81 3f 14 d0 84 3f a4 cf 70 3f
       1.0320079 1.0090029 1.0376 0.94066834
0000d0 be 2a 7e 3f b2 b1 85 3f d9 04 80 3f c8 3c 81 3f
       0.9928397 1.0444853 1.0001479 1.0096674
0000e0 29 d3 77 3f df 23 80 3f 5d 0f 82 3f 08 fb 80 3f
       0.9680658 1.0010947 1.0160939 1.0076609
0000f0 53 03 82 3f 15 13 7a 3f 97 d5 85 3f c4 36 80 3f
       1.0157264 0.97685367 1.0455807 1.0016713

down2.maxpool_conv.1.conv.1.bias f4 [64]
000000 a0 9f ee 3c b5 2a 88 bc d9 22 0f 3d 56 01 42 3d
       0.02912885 -0.016621927 0.034945343 0.047364555
000010 df 12 62 3c 39 39 64 3b ac 4d a9 3c 84 55 c7 3c
       0.0137984445 0.0034824146 0.02066692 0.02433277
000020 c3 5e 87 3a c9 6b 2d bb 09 74 65 3d d0 b2 84 3d
       0.0010327924 -0.002646195 0.056018863 0.06479418
000030 6c 7c 09 3c c4 7f c7 3c a6 9d 33 3d a2 26 eb 3b
       0.008391481 0.024352916 0.043851517 0.0071762362
000040 85 82 d9 bb 1d f6 5a 3d 9c 19 d9 3c 3f c7 3a 3d
       -0.0066378736 0.05345737 0.02650147 0.045600172
000050 ea c2 d7 3c bf 20 cf 3c e2 23 62 3d cd 51 1d 3d
       0.02633806 0.02528417 0.05521 0.03840809
000060 b0 01 de 3d c0 f0 55 3a 8b bf 96 3b 9a 12 97 3c
       0.108401656 0.000816118 0.0046004704 0.018441487
000070 0e 45 1f 3d 50 27 04 bc 26 cd d8 3c d1 2e 9f 3c
       0.038884215 -0.008066013 0.02646501 0.019431503
000080 e8 0f 68 3d 2c 26 1e 3e c4 cc 05 3d 8c b8 7a 3d
       0.056655794 0.15444249 0.032665983 0.061211154
000090 ae 8a 7f bc 8c cf c5 3c b4 bf 1a bd 5e fa 28 3d
       -0.015597029 0.024146818 -0.03778048 0.041254394
0000a0 c7 8e 85 bc 57 15 8c 3d 53 d6 00 3e a0 72 3f 3d
       -0.016303433 0.06840008 0.12581758 0.046740174
0000b0 53 6d 19 3d 82 1b 85 bc 11 db 13 3d 58 13 a2 bc
       0.037457775 -0.016248468 0.03609759 -0.019784614
0000c0 8e d6 bb 3c 1a 5d 6e bd 05 24 ce 3c c6 a3 7b bd
       0.022929456 -0.058194257 0.02516366 -0.061435483
0000d0 3f 91 81 bb d8 87 67 3d b6 c2 53 3d c6 fe 42 3c
       -0.0039540823 0.056526035 0.051699363 0.011901563
0000e0 a7 8d f9 3c ec b8 8b 3d 87 89 b6 3c e5 80 e1 3c
       0.030463053 0.068223804 0.022282375 0.027527282
0000f0 67 14 d7 3c f0 14 e5 3b 32 13 56 3d ba 83 0c 3d
       0.026254846 0.0069910213 0.0522644 0.03430531

down2.maxpool_conv.1.conv.1.running_mean f4 [64]
000000 d4 5c f0 3d a2 57 4f bd 4c 5b 85 3e 0e 3d 43 3e
       0.117364556 -0.050620683 0.26046216 0.1906626
000010 1e 1d a9 3d 47 06 ab be 7b 0f 28 3e ab 2c 01 bf
       0.08257507 -0.33403227 0.16412155 -0.5045878
000020 29 10 8f be c7 42 fb 3d 06 12 c6 be 96 c9 31 3e
       -0.27942017 0.12268596 -0.38685626 0.17362055
000030 cb 3c c1 bc f7 f1 b7 bb b9 45 55 be 20 49 52 3e
       -0.023588559 -0.0056135613 -0.20827378 0.20535707
000040 3b 9d 5d bd 4a 0b 0c 3f c4 ec e9 be b7 de a3 3e
       -0.054105025 0.54704726 -0.4568845 0.32005855
000050 12 5f d7 be 6a 31 fa 3d 62 fc 0e bf 43 7c 80 be
       -0.4206472 0.12216456 -0.55853856 -0.25094804
000060 4e dd 8e be 23 5b f2 be 35 dd cf 3c 36 2b bc be
       -0.27903217 -0.47335157 0.025374034 -0.36751717
000070 62 80 ab be 4a c4 56 3e 84 87 4b be 4e 69 49 bf
       -0.33496386 0.20973316 -0.19875914 -0.7867631
000080 94 a0 8b bc 28 c6 73 3d 54 69 c0 bd 92 db bc bd
       -0.017044343 0.05951515 -0.0939509 -0.09221567
000090 12 3a 82 be 1c 9d 7f 3d 84 dc f3 be 10 d3 5e be
       -0.2543493 0.06240569 -0.47629178 -0.21760201
0000a0 43 91 74 3e fc 74 85 3d 06 f2 af be f4 34 88 bb
       0.23883538 0.065164536 -0.34364337 -0.004156703
0000b0 09 5a d0 bd 3b 96 3c 3e 4e 16 34 be 02 35 60 bd
       -0.10173423 0.18416683 -0.17586634 -0.054738052
0000c0 5e 4e ad 3e 39 53 94 be 27 71 fb be 46 3c 09 bf
       0.33848852 -0.28969744 -0.49109766 -0.53607595
0000d0 4d d9 ec bd 10 3f 11 be 00 7d 28 be 9e 62 a6 be
       -0.11564884 -0.14184213 -0.16453934 -0.32497114
0000e0 2e 39 2c bd fb 14 bf 3e db f1 d0 bd 2a 5d 9b bd
       -0.04204672 0.37320694 -0.1020238 -0.07586129
0000f0 02 96 ff be 4f 05 28 bf cc 2f 7d 3e cb d5 40 3e
       -0.49919134 -0.656331 0.24725264 0.18831556

down2.maxpool_conv.1.conv.1.running_var f4 [64]
000000 98 68 7d 3e d5 11 86 3d 94 ef c4 3e 3f 80 8b 3e
       0.2474693 0.0654637 0.38464034 0.27246282
000010 42 00 35 3f a1 a8 4c 3f 6b c1 12 3f 54 41 00 3f
       0.7070352 0.7994481 0.5732638 0.5009968
000020 64 ff 96 3d 2b df 14 3e 76 97 ac 3e 2c 22 ef 3d
       0.07372931 0.14538257 0.33709306 0.1167644
000030 f6 42 10 3f 39 90 17 3e d5 44 a9 3e 2d 7e 82 3e
       0.56352174 0.1480111 0.33060327 0.2548689
000040 70 aa 31 3e e5 cc 6e 3e df d7 c7 3e 78 fd d4 3e
       0.17350173 0.23320349 0.39031884 0.4159963
000050 95 a4 a8 3e b5 43 c4 3d cd a3 82 3e 2f 3c da 3e
       0.32938066 0.095832266 0.25515595 0.4262404
000060 e8 de f5 3e 08 0a 19 3e 8f 82 19 3e 1f aa 47 3e
       0.48021626 0.14945233 0.1499121 0.1949849
000070 58 5e 47 3e 43 36 ea 3d a8 fd c5 3e 77 2c 36 3f
       0.19469583 0.11436131 0.38670087 0.711616
000080 ff d6 46 3e d0 fd aa 3d 78 cd c3 3e 3c 0a 4a 3e
       0.19417952 0.08349192 0.38242698 0.19730467
000090 3c 49 4f 3e a3 8d 10 3e df 4d 36 3e b6 8f 0a 3f
       0.2024278 0.1411653 0.17803143 0.54125535
0000a0 05 4e 45 3e 3f a7 30 3d f6 a2 f3 3e 58 48 62 3e
       0.19268043 0.04312825 0.47585267 0.2209791
0000b0 e2 57 90 3e 68 a1 d0 3d 6c 13 a0 3e 8e 3a ad 3e
       0.2819205 0.10187036 0.31264818 0.33833736
0000c0 f7 08 03 3e dc 34 17 3e 9b ae 90 3e a0 34 29 3e
       0.12796389 0.14766258 0.28258213 0.16523981
0000d0 3f cc dc 3d 91 36 ea 3d 00 1c b2 3d 9b 3d 01 3f
       0.10781144 0.11436189 0.08696747 0.5048463
0000e0 98 5e 0d 3e 73 2c 72 3e ab 90 96 3e 16 e7 cb 3d
       0.13805616 0.23649769 0.29407248 0.099561855
0000f0 ef 54 16 3f a3 ba 6d 3e 1e 7c 79 3e 81 de e3 3d
       0.5872335 0.23215728 0.24363753 0.111264236
