CNN/best_model_net1.pth (torch, 36789 bytes, 13 tensors)

up1.up_conv.0.weight f4 [64, 32, 3]
0	0xbd7388b6	-0.05945655
1	0xbd4e4467	-0.050358202
2	0x3d8cecce	0.068811044
3	0xbd8c0cd7	-0.068383865
4	0xbcc1306f	-0.023582665
5	0xbd224fa1	-0.03962672
6	0x3d6a014b	0.05713014
7	0x3d3d52cd	0.046221543
8	0x3cce64db	0.025194576
9	0x3e0ed433	0.13948135
10	0x3d6a3aa5	0.057184834
11	0x3dd213f7	0.10257714
12	0xbdd454ee	-0.103677616
13	0xbdbc5faf	-0.09197938
14	0x3d03891e	0.032113187
15	0xbd92c512	-0.071664944
16	0x3dee651d	0.116403796
17	0x3c0c2085	0.008552675
18	0x3cdef67c	0.027217142
19	0x3dcf788e	0.10130416
20	0x3dc57acd	0.09642563
21	0xbdb79919	-0.08964748
22	0xbd7babac	-0.061443016
23	0xbc025e01	-0.007956983
24	0x3ccce9d8	0.02501385
25	0xbd3c9a6e	-0.046045713
26	0xbd7395b1	-0.05946893
27	0xbdcfcc06	-0.10146336
28	0xbd40804d	-0.046997357
29	0x3cc6edef	0.024283377
30	0xbc0c3042	-0.008556427
31	0xbb7c306a	-0.0038481005
32	0xbbaaeccb	-0.005216216
33	0xbd8c01d6	-0.06836288
34	0x3b64c06e	0.0034904736
35	0x3df6b571	0.12046326
36	0xbd4c0470	-0.04980892
37	0xbd0cfa1e	-0.034418218
38	0x3c20c75e	0.009813158
39	0xbe1693b0	-0.14704776
40	0x3b9812e1	0.0046409224
41	0x3db3db49	0.0878206
42	0xbd952a19	-0.0728342
43	0x3c3d4e08	0.011554249
44	0x3b1a184c	0.0023513017
45	0x3d784edb	0.060622077
46	0xbd0175fc	-0.03160666
47	0xbcbd38e5	-0.023098418
48	0xbd28c147	-0.04119995
49	0xbd0db24d	-0.03459387
50	0xbd38926e	-0.04506152
51	0xbc476377	-0.01216971
52	0x3ce5bbe9	0.028043704
53	0x3d65784c	0.056022927
54	0x3d8d6cac	0.06905493
55	0x3cea7eb9	0.02862488
56	0x3b256072	0.0025234488
57	0xbd394cce	-0.045239262
58	0x3d496458	0.04916796
59	0x3d91c959	0.07118482
60	0xbc439d59	-0.01193937
61	0xbd7b202b	-0.061309975
62	0x3d911b4d	0.07085285
63	0xbce8e543	-0.028429633
64	0x3d6b94d2	0.057514973
65	0x3e012056	0.12609991
66	0xbd9af1bf	-0.07565641
67	0x3dbcf275	0.092259325
68	0x3d4ab3f1	0.04948801
69	0xbe041f79	-0.12902631
70	0x3da10f4a	0.07864244
71	0xbd9b3723	-0.07578876
72	0x3d980471	0.07422722
73	0xbc12b638	-0.008954577
74	0xbd15a599	-0.03653488
75	0x3d901a57	0.07036274
76	0x3d38d079	0.04512069
77	0xbd36c98e	-0.04462581
78	0xbd65c0e9	-0.056092177
79	0x3dab19df	0.08354544
80	0xbdd77339	-0.10520024
81	0xbd858d16	-0.06521051
82	0x3d1db50d	0.03850274
83	0x3db80428	0.08985168
84	0x3d7e86e4	0.06214036
85	0xbdb753fc	-0.089515656
86	0xbd8655b8	-0.06559318
87	0xbd6b6a7d	-0.057474602
88	0xbc5066ea	-0.012719849
89	0x3da4d524	0.08048466
90	0x3d4dca39	0.050241683
91	0xbdb4f6b2	-0.08836116
92	0x3cb0054d	0.021486903
93	0x3d245913	0.04012401
94	0x3c829346	0.015939366
95	0xbbaf56c7	-0.005350921
96	0xbdcf1b0e	-0.10112582
97	0x3d633877	0.05547377
98	0xbcc8a224	-0.024491377
99	0x3caf8a1d	0.021428162
100	0xbd8a43b8	-0.067511976
101	0xbc3a07b0	-0.011354372
102	0xbd4109fe	-0.04712867
103	0xbd7a5478	-0.061115712
104	0x3aa922ba	0.0012904026
105	0xbbac08d0	-0.005250074
106	0xbd29028b	-0.04126219
107	0xbdbd8ce1	-0.09255386
108	0xbbff4d28	-0.00779118
109	0xbcaa2810	-0.020771056
110	0xbc2d2b1b	-0.010569359
111	0xbe0df864	-0.13864285
112	0xbe119075	-0.14215262
113	0xbb7f251f	-0.0038932038
114	0xbcc1fe05	-0.023680696
115	0xbc9d1917	-0.019177003
116	0x3cc8fb16	0.02453379
117	0xbdce40a1	-0.10070921
118	0xbc04ab75	-0.008097519
119	0xbc651b3d	-0.013983545
120	0xbd89a623	-0.06721141
121	0xbdd5e36f	-0.1044377
122	0x3d3ffea4	0.046873704
123	0xbc998190	-0.018738538
124	0xbdc0c4ea	-0.094125584
125	0x3da68b73	0.081320666
126	0x3d50daf0	0.050990045
127	0x3c79339e	0.01521006
128	0x3de68972	0.11256684
129	0xbd0ee299	-0.03488407
130	0xbde4cdf4	-0.11172095
131	0x3d0613fb	0.0327339
132	0x3dbd1600	0.09232712
133	0x3dab7b3b	0.08373114
134	0xbd980249	-0.07422311
135	0x3d79df0c	0.06100373
136	0x3c78ed06	0.01519323
137	0xbd50310e	-0.050828032
138	0xbc3f02e0	-0.0116584
139	0xbd7c3812	-0.06157691
140	0xbcedadf1	-0.029013606
141	0x3d86eecb	0.06588515
142	0x3cfb5337	0.030679328
143	0x3db97e68	0.09057313
144	0xbd252022	-0.040313847
145	0xbc244ca4	-0.010028038
146	0x3d21c1d1	0.03949148
147	0xbd9e2f73	-0.07723894
148	0xbb07da03	-0.002072931
149	0xbc064350	-0.0081947595
150	0xbe053e29	-0.13011993
151	0x3db46c2b	0.08809694
152	0xbc96bc8b	-0.018400451
153	0xbcdaac6a	-0.026693542
154	0x3ca614b2	0.02027354
155	0x3e1b44fc	0.15163034
156	0xbd672869	-0.056435023
157	0xbc471bbb	-0.012152608
158	0xbcb59d6e	-0.022169795
159	0xbd3c9473	-0.04604001
160	0xbd2b44fa	-0.041813828
161	0x3d7326fc	0.05936335
162	0x3da53d22	0.08068301
163	0xbd0af923	-0.033929
164	0x3d184a84	0.03718044
165	0x3cedd969	0.029034333
166	0x3d531616	0.051534735
167	0xbdecf89c	-0.11570856
168	0xbd8bde7a	-0.068295434
169	0xbdf8f6d5	-0.121564545
170	0x3cbbdb7e	0.02293181
171	0x3d209e04	0.039213195
172	0xbdfb007e	-0.12255953
173	0x3c9f7a59	0.01946752
174	0xbdb438a4	-0.08799866
175	0x3ccc3bf6	0.024930935
176	0x3e069d97	0.13146053
177	0x3d2f007e	0.04272508
178	0x3c961d14	0.018324412
179	0x3d5c4f90	0.053786814
180	0x3d4859b8	0.048913687
181	0x3c11d556	0.008900961
182	0xbd9ef988	-0.07762438
183	0xbe048e34	-0.12944871
184	0xbc64d19c	-0.01396599
185	0xbe39a0fa	-0.18127814
186	0x3dabb1be	0.08383511
187	0x3d23c764	0.039985076
188	0x3d811d97	0.06304472
189	0xbde5c667	-0.11219483
190	0x3c4f9445	0.012669628
191	0x3c45ebd8	0.012080155
192	0x3ddc45f1	0.10755528
193	0xbb09bb31	-0.0021016116
194	0x3caddc23	0.021223133
195	0xbdc14d54	-0.09438577
196	0x3dc3955e	0.09549974
197	0xbd3cfbd2	-0.046138592
198	0xbca8872e	-0.020572271
199	0x3d4607d0	0.048347294
200	0x3daf2bfd	0.08553312
201	0x3d659239	0.056047652
202	0x3d00274e	0.031287484
203	0xbba11bbd	-0.0049166367
204	0xbd384f0f	-0.04499727
205	0xbe10ced5	-0.141414
206	0xbda73d14	-0.081659466
207	0x3d8d2418	0.0689165
208	0xbe02935e	-0.12751529
209	0x3d209672	0.039205976
210	0xbdf864c8	-0.121285975
211	0x3cad9946	0.02119125
212	0x3d4dcceb	0.050244253
213	0xbd2d25b7	-0.042272296
214	0xbbfd261f	-0.0077254917
215	0xbd8fd98f	-0.07023918
216	0xbd608558	-0.054814667
217	0x3d488ce4	0.04896249
218	0x3d491b33	0.049098205
219	0x3d37b197	0.044847097
220	0x3dc0d272	0.09415139
221	0x3d2afd89	0.041745696
222	0xbdac932a	-0.08426507
223	0x3da3dbfa	0.080009416
224	0x3c9331ee	0.017968144
225	0x3d27e1ca	0.040986814
226	0xbdfa3751	-0.12217582
227	0x3db8619b	0.09002992
228	0xbd1d6671	-0.038427774
229	0xbc15487e	-0.009111522
230	0x3d167e65	0.036741633
231	0xbd285200	-0.041093826
232	0x3d13a088	0.036041766
233	0xbdb65717	-0.0890333
234	0x3d4a43f1	0.0493812
235	0xba3197b6	-0.0006774621
236	0xbd8b6433	-0.06806221
237	0x3d63f736	0.05565568
238	0xbd23caf1	-0.039988462
239	0xbd6f4f2c	-0.058425114
240	0x3c194afa	0.009356255
241	0x3cbdc7cc	0.02316656
242	0xbdcad90d	-0.099046804
243	0x3d5877ed	0.052848745
244	0x3dd64642	0.10462619
245	0x3dbc691b	0.09199735
246	0x3d17e3ff	0.03708267
247	0xbb9bd3f6	-0.0047554923
248	0x3dafd9fd	0.085865
249	0x3dc4bd34	0.096064
250	0xbe04c71f	-0.12966584
251	0xbd4f5f3d	-0.050627936
252	0x3d8be649	0.06831033
253	0xbc116699	-0.008874559
254	0x3d652498	0.0559431
255	0xbdab1f2a	-0.083555534

up1.up_conv.0.bias f4 [32]
0	0x3cc17d40	0.023619294
1	0x3d386d3b	0.045026045
2	0x3d913926	0.07090978
3	0x3cc2c4ca	0.023775477
4	0x3d599551	0.053120915
5	0x3dde32fa	0.10849567
6	0x3d43d5a9	0.047811184
7	0xbd742ffb	-0.05961607
8	0xbdabeb31	-0.083944686
9	0x3c892f96	0.016746324
10	0x3d6dca1f	0.058054086
11	0x3dc5b350	0.09653342
12	0xbd6b14a8	-0.057392746
13	0x3824f713	3.9330753e-05
14	0x3d1465b7	0.036229815
15	0xbd60f10c	-0.05491738
16	0x3df0941a	0.11746998
17	0xbdc8bed6	-0.09802024
18	0xbdc6dcb4	-0.097100645
19	0xbcf182b5	-0.029481271
20	0x3c969f84	0.01838661
21	0xbd909aea	-0.070607975
22	0x3d8922e4	0.06696108
23	0x3c4c64a8	0.01247517
24	0xbc789b50	-0.015173748
25	0x3cf17e92	0.029479299
26	0x3c68c3c0	0.014206827
27	0x3cdee6e9	0.027209716
28	0x3d715969	0.05892316
29	0xbb653ea5	-0.0034979966
30	0xbc1906fa	-0.009340042
31	0x3dc0b639	0.09409756

up1.up_conv.1.weight f4 [32]
0	0x3f805175	1.0024859
1	0x3f8372e0	1.0269432
2	0x3f7ea6ac	0.9947307
3	0x3f8263a2	1.0186656
4	0x3f80868d	1.0041062
5	0x3f81db6c	1.0145087
6	0x3f7539c2	0.95791256
7	0x3f819301	1.0122987
8	0x3f791784	0.97301507
9	0x3f8017b0	1.0007229
10	0x3f7d1974	0.98866963
11	0x3f7c6eed	0.9860676
12	0x3f86d902	1.0534976
13	0x3f823c21	1.01746
14	0x3f7a9118	0.97877645
15	0x3f81b622	1.0133708
16	0x3f7b448d	0.98151475
17	0x3f821bb5	1.0164706
18	0x3f7a5bc1	0.97796255
19	0x3f7c06b0	0.98447704
20	0x3f8191ff	1.012268
21	0x3f72982a	0.94763434
22	0x3f804661	1.0021478
23	0x3f821e37	1.0165471
24	0x3f8241cb	1.0176328
25	0x3f83c68c	1.0294967
26	0x3f80e7aa	1.0070698
27	0x3f7076fd	0.9393156
28	0x3f795a03	0.9740297
29	0x3f816e3e	1.0111768
30	0x3f839e3b	1.0282663
31	0x3f81ff1c	1.0155978

up1.up_conv.1.bias f4 [32]
0	0x3c045a01	0.008078099
1	0x3d0e4aa7	0.034739163
2	0x3bd0dcbe	0.006373971
3	0x3b4fb9a6	0.0031696348
4	0x3d79070c	0.060797736
5	0x3cc2a542	0.023760442
6	0xbc011213	-0.007877844
7	0x3cca0dd6	0.0246648
8	0x3c78dfb7	0.0151900565
9	0xbb2c0cb2	-0.0026252684
10	0xbce9a6e8	-0.02852197
11	0x3c9e457a	0.019320238
12	0x3d8f94e9	0.07010824
13	0x3c478f6f	0.012180193
14	0xbba62101	-0.0050698523
15	0x3c91b15c	0.017784767
16	0xbcea0c4d	-0.028570319
17	0x3d302314	0.043002203
18	0xbb8a2de3	-0.004216896
19	0xbc82e607	-0.015978826
20	0x3cbfcaf0	0.023412198
21	0xbce7489a	-0.028232861
22	0xbd0f6b35	-0.03501435
23	0x3d204b12	0.039134093
24	0xbb85347e	-0.0040650954
25	0x3d2c56c1	0.042074922
26	0x3c335989	0.01094664
27	0x3bf1ab9a	0.007375193
28	0xbd133369	-0.0359377
29	0x3cc31575	0.023813942
30	0x3ccd3d28	0.025053576
31	0x3c1a69e5	0.009424661

up1.up_conv.1.running_mean f4 [32]
0	0xbe145876	-0.1448687
1	0xbe8c1137	-0.27356884
2	0x3e099663	0.13436274
3	0x3bf08170	0.007339649
4	0xbeade9a5	-0.3396732
5	0x3e9751e9	0.2955468
6	0x3f192535	0.598224
7	0xbed0941a	-0.40737993
8	0xbefa957b	-0.4894217
9	0x3ec4721b	0.38368306
10	0x3e709a47	0.23496352
11	0xbe78e36a	-0.24305502
12	0xbdc9e8f9	-0.09858889
13	0xbef0b3a8	-0.47012067
14	0xbd661870	-0.05617565
15	0xbe8b6ea1	-0.2723284
16	0x3d101bbf	0.03518271
17	0x3b7d5d7f	0.0038660464
18	0xbe9d8d61	-0.30771926
19	0x3b1c169b	0.0023817185
20	0xbf167d16	-0.58784616
21	0x3a4527c5	0.000752088
22	0x3ed97ee4	0.42479622
23	0xbef8a0f8	-0.4856031
24	0x3ef78061	0.48340133
25	0xbdf6d541	-0.12052394
26	0xbe92eabc	-0.28694713
27	0xbe991962	-0.29902178
28	0xbd8a3170	-0.06747711
29	0x3e4da2e5	0.2008167
30	0xbc103877	-0.008802525
31	0x3e3928e0	0.18081999

up1.up_conv.1.running_var f4 [32]
0	0x3e62d4a2	0.22151425
1	0x3deb5af6	0.11491959
2	0x3e5aac77	0.21354853
3	0x3ea3905d	0.31946078
4	0x3ebb09e4	0.36530983
5	0x3e362e96	0.17791209
6	0x3ea49af8	0.32149482
7	0x3df80916	0.12111108
8	0x3df2f7c6	0.11863665
9	0x3f0304f4	0.5117943
10	0x3debcf37	0.115141325
11	0x3ef1681a	0.47149736
12	0x3ea2f548	0.3182776
13	0x3ec81da7	0.39085123
14	0x3ea67995	0.32514635
15	0x3ea77d26	0.32712668
16	0x3e3b7589	0.18306555
17	0x3e924018	0.28564525
18	0x3ed7efc5	0.42175117
19	0x3e3064e2	0.17225984
20	0x3e33d842	0.17562965
21	0x3e625638	0.22103202
22	0x3e6bcc80	0.2302723
23	0x3eae7e99	0.3408096
24	0x3e4e46c3	0.20144181
25	0x3efaba22	0.48970133
26	0x3e1345e1	0.14382125
27	0x3e2f1a94	0.17099983
28	0x3e1219c2	0.14267638
29	0x3ef14705	0.47124496
30	0x3e630fd4	0.22174007
31	0x3e9e9923	0.3097621

up2.up_conv.0.weight f4 [32, 16, 3]
0	0x3db6d333	0.08927002
1	0x3ddcf6c9	0.10789258
2	0xbc6bc78f	-0.01439084
3	0x3cbb82bd	0.02288949
4	0xbd99891d	-0.074968554
5	0xbc8387d0	-0.016055971
6	0xbdffa999	-0.1248352
7	0x3b759294	0.00374714
8	0xbd94a01b	-0.072571
9	0xbcee8046	-0.0291139
10	0x3d9da869	0.07698137
11	0xbc686a48	-0.014185496
12	0x3c0ecc33	0.008715677
13	0xbe591d38	-0.21202552
14	0xbdedac1d	-0.11605094
15	0x3da225d9	0.07917375
16	0xbd352008	-0.04422
17	0x3dcb0e1c	0.099148005
18	0xbcb86cc2	-0.022512797
19	0x3dcec1a8	0.10095531
20	0xbddc4238	-0.10754818
21	0xbdb95515	-0.09049431
22	0x3c925908	0.017864719
23	0x3c5d7ebd	0.013518986
24	0x3da3f173	0.08005037
25	0xbde88663	-0.11353757
26	0xbca1dc6a	-0.019758422
27	0xbb28b843	-0.0025744594
28	0x3c03216b	0.008003573
29	0x3d35c29c	0.044375047
30	0x3dd504a0	0.10401273
31	0xbdcd41ff	-0.100223534
32	0xbe0a14e5	-0.13484533
33	0xbd8ca8ff	-0.06868171
34	0x3d3bf7e6	0.04589071
35	0x3b761dd7	0.0037554407
36	0xbb3a73a3	-0.0028450273
37	0x3d3d1d32	0.04617042
38	0xbe453664	-0.1925903
39	0x3d78e8ef	0.060769018
40	0x3d64312f	0.055710968
41	0x3daae80a	0.08345039
42	0x3c8c6878	0.017139658
43	0x3da7ffd8	0.08203095
44	0xbdc2734c	-0.094946474
45	0xbc3c7184	-0.011501674
46	0xbdabda3e	-0.08391236
47	0xbdb40dfc	-0.0879173
48	0xbdc09ad3	-0.094045304
49	0xbdc4757e	-0.09592722
50	0x3d23ab4f	0.039958294
51	0x3dec254e	0.11530553
52	0xbc7ca615	-0.015420456
53	0xbdf63c7c	-0.12023255
54	0xbda57740	-0.08079386
55	0x3dc03a84	0.09386161
56	0x3dd4e88b	0.103959166
57	0xbe16bcbd	-0.14720435
58	0x3d1d8431	0.038456146
59	0xbd756646	-0.05991199
60	0xbd34c0b6	-0.044129096
61	0x3d288ece	0.041151814
62	0xbe2cb18f	-0.16864608
63	0x3c61bb26	0.01377753
64	0x3d94dbd8	0.07268494
65	0xbd32258d	-0.043492842
66	0xbe0ebb00	-0.13938522
67	0x3c3104f1	0.010804401
68	0xbdce93f0	-0.100868106
69	0x3cf6b500	0.030115604
70	0xbd6a61e5	-0.057222266
71	0x3d87cf23	0.06631305
72	0x3dc4286e	0.09578024
73	0x3d375924	0.044762745
74	0xbd58f748	-0.0529702
75	0x3d2cba0b	0.042169612
76	0x3cf6e299	0.030137347
77	0xbd7b6c99	-0.061382864
78	0x3dfce4dc	0.12348339
79	0xbd96a89e	-0.0735638
80	0x3e2456be	0.16048715
81	0xbcdf5de3	-0.027266448
82	0xbd484a59	-0.04889903
83	0x3da878c7	0.082261615
84	0x3d022766	0.031775855
85	0x3e03316c	0.12811822
86	0x3e0b7487	0.1361867
87	0x3e26573f	0.16244219
88	0x3d3a5fd7	0.045501556
89	0xbac91f8b	-0.0015344484
90	0x3c1a8220	0.009430438
91	0x3c87c5b9	0.016573774
92	0xbe040dd0	-0.12895894
93	0xbdfbac27	-0.12288695
94	0xbd75cd4e	-0.060010247
95	0x3d4d07ec	0.050056383
96	0xbdc4672d	-0.09589992
97	0xbd90ec00	-0.070762634
98	0xbd546b94	-0.051860407
99	0x3ccebead	0.025237406
100	0x3dcf613a	0.10125966
101	0xbdeb35b0	-0.114848495
102	0xbd3a6336	-0.04550477
103	0x3d1aaa00	0.03775978
104	0x3e02550e	0.12727758
105	0xbd9d4459	-0.07679052
106	0xbdda8dad	-0.10671554
107	0xbe2b8a96	-0.16752085
108	0xbce0abed	-0.02742573
109	0x3d98e733	0.07465973
110	0xbe2843d5	-0.16432126
111	0xbdd279c1	-0.10277129
112	0xbe1205d3	-0.14260034
113	0xbd71ca79	-0.059030984
114	0x3b9ac4d9	0.004723173
115	0xbdc3fcaa	-0.09569676
116	0x3dd90c10	0.10598004
117	0x3da78073	0.081787966
118	0xbdd88f86	-0.1057425
119	0x3e13afa2	0.14422467
120	0x3d88bf43	0.06677105
121	0x3bd20c39	0.0064101485
122	0xbcee0be1	-0.029058399
123	0x3d5bdcea	0.053677477
124	0x3db9d230	0.09073293
125	0x3cad15bc	0.021128528
126	0x3de6b67a	0.112652734
127	0x3ced5736	0.02897225
128	0xbb9a4ae5	-0.004708635
129	0xbdf1d237	-0.118076734
130	0xbd2e89ab	-0.04261176
131	0x3d118c2a	0.03553406
132	0xbd0c76d4	-0.03429301
133	0xbba00302	-0.004883171
134	0xbe0c3d65	-0.13695295
135	0xbcdfd6b2	-0.027324054
136	0xbdbf570a	-0.09342773
137	0xbd426afd	-0.047465313
138	0x3ce49069	0.027900891
139	0x3da9dbf8	0.08293909
140	0xbcd64cdf	-0.026159702
141	0xbdc5029c	-0.09619638
142	0x3d22465e	0.03961789
143	0xbde721da	-0.112857535
144	0x3e51c574	0.20485479
145	0x3d637554	0.055531815
146	0xbca6a787	-0.020343555
147	0xbdcef427	-0.10105162
148	0x3cbbf960	0.02294606
149	0xbe21a887	-0.15786944
150	0xbd69f093	-0.057114195
151	0xbd9057da	-0.07048006
152	0xbe0b749c	-0.13618702
153	0xbde95e2c	-0.11394915
154	0x3af62164	0.0018778262
155	0xbe339c45	-0.17540081
156	0xbe0210ce	-0.12701723
157	0x3df5f743	0.12010052
158	0x3df47b13	0.11937537
159	0x3d966b5a	0.073446944
160	0xbdb7f388	-0.08981997
161	0xbe0d1aad	-0.13779707
162	0xbc283430	-0.010266349
163	0x3da17af9	0.07884783
164	0x3d3f0fc7	0.046645906
165	0x3dd02e87	0.101651244
166	0xbdd4a316	-0.10382669
167	0xbd8bb40b	-0.0682145
168	0xbe0d6b0e	-0.1381037
169	0x3cbebb2a	0.023282606
170	0x3dad0484	0.08448127
171	0xbd898e64	-0.06716612
172	0xbd7a1a49	-0.061060224
173	0xbe28f66d	-0.16500254
174	0x3d216e7c	0.039412007
175	0x3db18cfa	0.08669467
176	0x3c2b9d2e	0.010474486
177	0xbda1cd7c	-0.07900521
178	0xbd7e039e	-0.06201517
179	0x3cba8225	0.022767136
180	0x3d46bde0	0.048520923
181	0x3dd9808d	0.10620222
182	0xbd00740e	-0.03136068
183	0xbc8c388f	-0.017116813
184	0xbd8c078a	-0.068373755
185	0x3d82d670	0.06388557
186	0x3d498cef	0.04920667
187	0xbcf53eb8	-0.029937133
188	0xbe053a5a	-0.1301054
189	0x3c149215	0.009068032
190	0xbd12d487	-0.035847213
191	0xbd212e74	-0.03935094
192	0xbc3e287e	-0.011606334
193	0x3e20478e	0.15652296
194	0x3e0ad3f4	0.13557416
195	0x3dae6fb1	0.08517397
196	0xbda4f985	-0.080554046
197	0xbe0370aa	-0.12835947
198	0xbc0d0d90	-0.008609191
199	0xbd730058	-0.0593265
200	0xbd0d9d9c	-0.034574136
201	0x3e03081c	0.12796062
202	0xbccb5b1f	-0.024823723
203	0x3d6ded46	0.05808761
204	0x3d0cc2bf	0.03436541
205	0xbe221c6e	-0.15831158
206	0xbcb5d5f7	-0.022196753
207	0xbe05cf34	-0.13067323
208	0xbd0e20b6	-0.034699164
209	0x3dbdfbc1	0.09276534
210	0xbab62b3b	-0.0013898382
211	0xbd6c75c8	-0.057729512
212	0xbe03c3e1	-0.1286769
213	0xbd196687	-0.037451293
214	0xbc260243	-0.010132375
215	0x3e0b60b7	0.13611113
216	0xbd8b56b9	-0.068036504
217	0x3da42b0e	0.080160245
218	0x3cdab53e	0.026697751
219	0xbd12e032	-0.03585834
220	0xbd80a59f	-0.0628159
221	0x3d12cba3	0.035838734
222	0x3dc5be8d	0.09655485
223	0x3d718174	0.058961347
224	0x3da629c6	0.081134364
225	0x3da9c12c	0.08288798
226	0x3c960b20	0.018315852
227	0xbc451869	-0.012029746
228	0x3dfb1879	0.12260527
229	0xbd864715	-0.065565266
230	0x3e032dbc	0.12810415
231	0x3d9a1369	0.075232334
232	0x3de92111	0.1138326
233	0x3dbdd3dc	0.092689246
234	0xbd7b7acd	-0.06139641
235	0x3c30bc3d	0.010787067
236	0xbde638c6	-0.112412974
237	0x3dbf18e7	0.093309216
238	0x3d90ba65	0.07066802
239	0x3ca2d166	0.01987524
240	0xbe3a8925	-0.18216379
241	0x3e055844	0.13021952
242	0x3b6a10d1	0.003571559
243	0x3dd1153a	0.10209127
244	0xbd2f2dd1	-0.042768303
245	0x3dd238f7	0.102647714
246	0xbdcc3ff6	-0.09973137
247	0xbdc3a18d	-0.09552298
248	0x3dae3d1a	0.08507748
249	0xbde5eb45	-0.11226515
250	0xbe27622e	-0.16346046
251	0xbd117339	-0.035510276
252	0x3db32ab5	0.0874838
253	0x3e15eb70	0.14640594
254	0x3e104e83	0.1409245
255	0xbdc2c67e	-0.09510516

up2.up_conv.0.bias f4 [16]
0	0xbd1cbb1b	-0.038264375
1	0xbdc09fad	-0.09405456
2	0x3c8bc184	0.017060049
3	0xbe003fed	-0.12524386
4	0xbb7801f9	-0.0037842973
5	0x3db6beb9	0.08923096
6	0x3d6a27a3	0.057166707
7	0xbd8aeb44	-0.067831546
8	0xbc223891	-0.009901182
9	0x3d083442	0.033252962
10	0x3d325471	0.04353756
11	0x3dc6abae	0.09700714
12	0xbdd9a035	-0.1062626
13	0xbc06974e	-0.008214785
14	0xbdd7071e	-0.10499404
15	0x3c0c2070	0.008552656

up2.up_conv.1.weight f4 [16]
0	0x3f8951e6	1.0728118
1	0x3f7cb1bf	0.9870872
2	0x3f801317	1.0005826
3	0x3f880c85	1.0628821
4	0x3f867561	1.0504571
5	0x3f88d455	1.0689799
6	0x3f86cf99	1.0532104
7	0x3f7e6c13	0.9938366
8	0x3f87243a	1.055793
9	0x3f89773f	1.0739516
10	0x3f8650c5	1.0493399
11	0x3f7f5d59	0.9975181
12	0x3f86695e	1.0500906
13	0x3f8746a9	1.0568439
14	0x3f833464	1.0250363
15	0x3f78f50a	0.972489

up2.up_conv.1.bias f4 [16]
0	0x3d9b3f6d	0.07580457
1	0xbd0cc37c	-0.034366116
2	0xbc536365	-0.0129021155
3	0x3dabb6c2	0.08384468
4	0x3d54d82d	0.051963974
5	0x3d831330	0.06400144
6	0x3d70fde7	0.05883589
7	0xbc19b0f7	-0.009380571
8	0x3d738eed	0.059462477
9	0x3daa66ae	0.08320366
10	0x3d68e2c6	0.056856893
11	0xbd80f57a	-0.06296821
12	0x3d63b1b2	0.055589385
13	0x3d710a57	0.05884775
14	0x3c7aafd4	0.01530071
15	0xbd1a4125	-0.037659783

up2.up_conv.1.running_mean f4 [16]
0	0xbea91178	-0.3302114
1	0x3e2a7477	0.1664599
2	0x3e1c7d92	0.15282276
3	0xbea6b34f	-0.32558677
4	0xbd4c9a84	-0.049952045
5	0x3d0ebd0e	0.034848265
6	0xbe2cbafc	-0.16868204
7	0xbcaf2aea	-0.021382768
8	0xbe8886c9	-0.26665333
9	0xbda22030	-0.079162955
10	0x3c2ce53e	0.0105527025
11	0xbdc2ffff	-0.09521484
12	0xbec7c5b7	-0.39018032
13	0xbe2a5d33	-0.16637115
14	0xbebea2ae	-0.3723349
15	0xbde02383	-0.10944273

up2.up_conv.1.running_var f4 [16]
0	0x3e3d46c0	0.1848402
1	0x3e37175f	0.17880009
2	0x3dfb752e	0.122782096
3	0x3e06707f	0.13128851
4	0x3e8abc66	0.27096862
5	0x3e11adb7	0.14226423
6	0x3ddc7cad	0.107659675
7	0x3dc63f7b	0.09680077
8	0x3e9c1240	0.30482674
9	0x3e241631	0.1602409
10	0x3e64abda	0.22331181
11	0x3d7041ff	0.05865669
12	0x3d996682	0.07490255
13	0x3df36aa8	0.118855774
14	0x3e7ea074	0.24865896
15	0x3defde18	0.11712283

out.outconv.0.weight f4 [1, 16, 3]
0	0x3db167a9	0.0866235
1	0x3d861b14	0.065481335
2	0xb95c0229	-0.0002098164
3	0xbd60ae52	-0.054853745
4	0xbdc60a77	-0.09669965
5	0xbda823ce	-0.08209954
6	0x3d19a8e8	0.037514597
7	0xbd0db7de	-0.034599178
8	0xbc9645d1	-0.018343838
9	0x3e2910dc	0.16510338
10	0x3e137a5f	0.1440215
11	0xbcc310d2	-0.023811731
12	0x3e29a5e8	0.16567194
13	0xbd43becf	-0.04778939
14	0x3e128f8d	0.14312573
15	0x3db6dd18	0.08928889
16	0x3e1e7f96	0.15478358
17	0xbd774cef	-0.060376104
18	0x3a61fc78	0.00086206896
19	0x3e401bb9	0.18760575
20	0x3d04f2e4	0.0324582
21	0x3e0cd53b	0.13753216
22	0xbc1d13a8	-0.009587206
23	0xbdafa43a	-0.085762456
24	0x3d328468	0.043583304
25	0x3e419f0a	0.18908325
26	0xbcd1e191	-0.025620254
27	0x3dc6d0c4	0.09707788
28	0xbcd8409a	-0.026397992
29	0x3e03619d	0.12830205
30	0x3c480a2f	0.012209459
31	0x3e275de1	0.16344406
32	0x3e195c12	0.14976528
33	0x3e1ac27b	0.15113251
34	0xbdc298a2	-0.09501769
35	0xbd6f2fd2	-0.058395214
36	0x3d9f422a	0.07776292
37	0x3c9acefd	0.018897528
38	0x3d8693c7	0.06571155
39	0x3e1b3b77	0.15159403
40	0x3de1c69e	0.11024211
41	0x3d6858de	0.056725375
42	0x3d02c104	0.031922355
43	0xbdc5bbdf	-0.09654974
44	0x3e1d22bc	0.15345281
45	0x3ce082aa	0.027406055
46	0xbd03309c	-0.03202878
47	0xbd98d165	-0.07461814
