CNN/best_model_net0.pth (torch, 40038 bytes, 18 tensors)

inc.conv.0.weight f4 [16, 1, 3]
000000 e5 80 c3 3c 51 6d 87 be 7d 41 42 be 66 eb 05 bf
       0.023865173 -0.2645059 -0.18970294 -0.52312315
000010 c1 fd 93 3b 89 72 b2 3a ff d7 00 3f b7 fc b6 be
       0.004516334 0.0013614456 0.50329584 -0.3573968
000020 fa 2f de bd af db c8 be 38 a5 35 be 5c 17 ee 3e
       -0.108489946 -0.39230105 -0.17738807 0.46502197
000030 46 b9 41 3e 0a 1d 0b be ed 4d c8 be 8c cd 83 3e
       0.18918332 -0.13585296 -0.39121953 0.25742757
000040 47 18 f4 3d 61 6b a4 be 2f a9 a0 be 3b 0e 08 bf
       0.11918693 -0.32113174 -0.31379077 -0.53146714
000050 39 77 71 be 00 da 31 3e 01 7d 38 3e c3 1f 96 bb
       -0.23580636 0.17368317 0.18016435 -0.004581423
000060 77 c9 de be b2 40 9c 3e ec d7 c8 3d ef fa aa be
       -0.4351308 0.3051811 0.09806809 -0.33394572
000070 92 58 22 3f 11 71 82 be da 28 9a be 41 ba 51 be
       0.634164 -0.25476888 -0.30109292 -0.20481206
000080 31 df 67 be 46 65 30 3e 06 b2 89 3e 8b a6 83 3d
       -0.22643735 0.17226133 0.26893634 0.0642825
000090 b8 b3 a0 bb f0 37 1b 3b 36 ed 0e bf 27 c6 00 bf
       -0.0049042366 0.0023684464 -0.55830705 -0.50302356
0000a0 fe 64 04 bd c1 c1 c1 3a 99 c2 3f 3e 7c bd dd be
       -0.032322876 0.0014782475 0.18726577 -0.43308628
0000b0 2f bc 1e 3e 3d 83 b0 3e 73 39 4e 3e fd 32 52 bd
       0.15501474 0.34475127 0.20139103 -0.051318157

inc.conv.0.bias f4 [16]
000000 7a 13 99 3e 08 50 ce 3d 34 d0 9c be fe be c9 be
       0.29897672 0.100738585 -0.30627596 -0.39403528
000010 22 6a 32 3e d0 df ef 3e 8a 99 dc 3e 87 ae ad 3d
       0.17423299 0.46850443 0.4308589 0.08480554
000020 a7 c0 7f 3e 3e 08 8c be 27 b3 8b 3e 4f 7c 87 be
       0.24975835 -0.27350038 0.2728512 -0.26462027
000030 d9 73 c3 3d 65 4a f7 3d 79 99 e8 bb de 56 c1 3c
       0.095435806 0.120747365 -0.0070983735 0.023600992

inc.conv.1.weight f4 [16]
000000 58 73 6c 3f 14 5e 86 3f eb 43 84 3f 03 22 89 3f
       0.923635 1.049746 1.0333227 1.0713505
000010 70 3b 55 3f c9 41 91 3f e0 8f 76 3f 89 6c 5f 3f
       0.8329382 1.1348201 0.96313286 0.87274987
000020 84 a7 8b 3f fc 4d 51 3f 7a fe 64 3f 4d f1 70 3f
       1.0910497 0.8175962 0.894508 0.94118196
000030 01 85 8c 3f 40 34 70 3f 9d b1 68 3f fb 1d 5b 3f
       1.097809 0.9382973 0.90896016 0.8559262

inc.conv.1.bias f4 [16]
000000 02 f2 54 bd 61 b2 3f bd fb b7 a4 3e 88 6d bd 3e
       -0.05198861 -0.046800975 0.32171616 0.36997628
000010 1c ba 0c bd d2 a1 b8 3e c1 8e 9d bd 2c 2f af 3d
       -0.034357175 0.3606096 -0.07693244 0.08553919
000020 26 1a 6e 3e af 61 06 3e 1b e0 d8 bd 08 00 40 3d
       0.23252162 0.13123201 -0.1058962 0.04687503
000030 e6 b0 6b bd 47 2e 87 bd 20 86 b5 3e e3 00 ed 3d
       -0.05754175 -0.066006236 0.35453892 0.11572435

inc.conv.1.running_mean f4 [16]
000000 5e b3 97 3e eb 6c c7 3d f3 b9 9c be 5f 32 ca be
       0.29629034 0.09737571 -0.30610618 -0.39491555
000010 b5 1e 30 3e 10 14 f0 3e d0 1a d9 3e 9d 41 b2 3d
       0.17199214 0.46890306 0.4240327 0.08703921
000020 d4 9b 7f 3e 0b ec 8b be 45 61 89 3e 0f f0 85 be
       0.24961787 -0.27328524 0.26832023 -0.26159713
000030 f9 ff bb 3d 0a e6 ef 3d 30 f8 f8 bb f2 01 db 3c
       0.09179682 0.11713798 -0.0075979456 0.026734326

inc.conv.1.running_var f4 [16]
000000 53 14 d7 34 0e 4f 35 35 c2 55 59 34 50 6b 7c 34
       4.0061659e-07 6.7542794e-07 2.0240898e-07 2.3508369e-07
000010 8c 8f b4 34 37 3b df 33 de c9 22 36 cf 10 8c 34
       3.3632057e-07 1.0395018e-07 2.4257383e-06 2.6089262e-07
000020 ed f9 21 34 a9 0e 82 34 69 e0 97 35 ba ef 0e 35
       1.5085216e-07 2.4225054e-07 1.1315689e-06 5.324797e-07
000030 42 27 55 35 ef f4 3a 35 42 6a f0 33 9b c0 13 35
       7.940581e-07 6.9646825e-07 1.1195199e-07 5.5042045e-07

down1.maxpool_conv.1.conv.0.weight f4 [32, 16, 3]
000000 2d e2 b1 3c e9 26 eb bb 4d 11 9c bc 0c 9c 4a 3b
       0.021714294 -0.0071762693 -0.019051218 0.0030915765
000010 01 b2 79 3e a0 e3 f4 bb 9a 10 02 3d 91 31 34 bd
       0.2438431 -0.007473424 0.031754114 -0.043992583
000020 db be 43 be b9 48 f9 3b ee 96 a2 bd 40 9f 65 be
       -0.19115774 0.007607546 -0.07938944 -0.2242403
000030 3c e8 2a bd 93 e6 27 bd 89 ee e4 3c 1f 57 ed bc
       -0.041725382 -0.040991377 0.027945774 -0.028972207
000040 43 ef 0d 3d e5 61 ef 3c c3 bd 9c ba 2c 71 90 3b
       0.034652006 0.029221484 -0.0011958409 0.0044080224
000050 40 d4 2e 3b 04 01 3a 3d c7 d8 73 3d b3 88 74 bd
       0.0026676804 0.045411125 0.059532907 -0.05970068
000060 7c a5 28 bd 92 95 47 3d e3 37 5d 3e 49 41 86 3d
       -0.041173443 0.048726626 0.2160335 0.06555421
000070 a5 4a bb 3c 1e 71 7a 3d 62 a6 91 3c f2 30 ce 3c
       0.022862742 0.061143033 0.017779533 0.025169823
000080 ce a8 1b 3c 79 8d 40 bc dd 9d 91 bd 1d 8b 0c 3c
       0.009500695 -0.01175248 -0.07110188 0.008578089
000090 99 0b 87 be 0e 09 0c 3d a3 6d 1e bc df a9 30 bc
       -0.26376036 0.034188323 -0.009669694 -0.010782688
0000a0 14 f6 96 3d a8 69 71 39 24 42 87 bd 14 ed e5 3b
       0.073711544 0.00023022911 -0.06604412 0.0070167873
0000b0 17 14 9c bd f3 dd 11 bd 82 81 0a bd b6 1e fc 3c
       -0.07621019 -0.035612058 -0.033814915 0.030776363
0000c0 a4 33 ec 3c b1 f8 a1 3c fc cc 1e 3e ac 02 8f bc
       0.028833218 0.019771906 0.15507883 -0.017457329
0000d0 82 c3 1c be 74 47 66 3d f8 3d c0 bd 73 47 ed bd
       -0.15308955 0.056220487 -0.093868196 -0.115858935
0000e0 49 cd 85 bd e8 6b 32 3c e1 36 45 3d 64 96 28 be
       -0.06533296 0.010889985 0.04814804 -0.1646362
0000f0 1c ef 19 3b fe 64 b5 bd 34 2c 7e 3d 54 7b 79 3c
       0.0023488468 -0.08857153 0.062053874 0.015227158
000100 fd fe 39 3c 92 dc 6e 3e 87 ca 07 3e 9f d1 c0 3d
       0.011352298 0.23326328 0.13260852 0.09414982
000110 1a 02 05 bd 04 90 53 3d 37 e9 8f bd d5 17 15 be
       -0.032472707 0.051651016 -0.07026904 -0.14559872
000120 6a 7c 6c 3d fb ce 96 3d 3d 68 c4 3d 7c 70 3c 3d
       0.057735838 0.07363697 0.095901944 0.04600571
000130 da de e2 3a 70 2d 3f 3c 06 6d 72 3d 11 58 69 3c
       0.0017308847 0.011668548 0.059186004 0.014242188
000140 fa a4 3c 3d 78 f1 64 3d ae 3b 4c 3c 0e 44 d3 bd
       0.04605577 0.055894345 0.012465401 -0.10315715
000150 3c 96 2d 3e f3 72 95 3c 8b 04 b2 3c aa a8 1b 3d
       0.16951841 0.018243289 0.021730682 0.038002647
000160 39 fa aa 3c e5 ff b0 bd 1e 93 0d bc 4e c8 63 bc
       0.020871269 -0.08642558 -0.0086410325 -0.013902737
000170 e1 77 3c bd 2e 1f 10 3c de df e0 bc 0f a2 21 be
       -0.046012763 0.008796496 -0.027450498 -0.15784477
000180 e5 79 94 bc c8 86 05 be d5 6d 47 bd bb a1 ed bc
       -0.01812453 -0.13039696 -0.04868873 -0.029007783
000190 5c ff 91 bc 52 5f 5f 3c eb 87 9f ba db 2a 93 3d
       -0.01782196 0.013633566 -0.0012171244 0.071859084
0001a0 0d ae 5f bc e6 80 f6 3c 63 7e e8 3d 56 dd 1e 3c
       -0.013652337 0.03009076 0.11352231 0.009696325
0001b0 cb a4 b0 3d e9 f5 26 3d f0 dd b1 bc a2 8f 41 be
       0.08625182 0.040761862 -0.021712273 -0.18902448
0001c0 d5 56 3a 3b 32 33 79 bb c3 bd ef bd a3 bd da bd
       0.0028433104 -0.00380249 -0.11706116 -0.106807016
0001d0 27 10 a2 bd e7 c1 88 3d b0 85 9d bc ec 1a 87 bd
       -0.07913237 0.06677609 -0.019228786 -0.06596932
0001e0 28 cf 40 3d f6 cc ed bd 85 db a5 bd 52 2c dc bc
       0.04707256 -0.11611359 -0.08098511 -0.026876602
0001f0 96 e8 6c bd 71 be 33 3d 43 d8 94 bc bc be b3 bd
       -0.057839 0.04388279 -0.018169528 -0.08776614
000200 7a 44 02 be 6e 2f 76 3d fa 75 ff bb bb 78 c0 bb
       -0.12721434 0.060103826 -0.0077960463 -0.005873767
000210 37 1b 3a bb 78 4c 95 bd 56 f0 0e bc 04 0a ff bc
       -0.002839757 -0.07289976 -0.008724293 -0.031132706
000220 41 5a 1e bc 98 ed 20 3d f4 7a c8 bd 85 1a 31 3e
       -0.009665073 0.039289087 -0.097890764 0.17295273
000230 30 d5 f2 bb d7 c2 da bc 5b d1 9b bd cd 3c b6 bd
       -0.007410668 -0.026704235 -0.07608291 -0.088983156
000240 cc f0 a3 3e 3c 74 18 3e 7b b2 4a bd 70 96 d4 3d
       0.3201965 0.1488809 -0.04948662 0.10380256
000250 1a 38 98 bd 2e 49 ea 3c a0 0c 02 be ac a1 24 3e
       -0.074325755 0.028599348 -0.12700129 0.16077298
000260 f7 f9 ad 3d ed 99 0d bc 23 c7 95 3b fa 59 83 bd
       0.08494943 -0.008642656 0.004570858 -0.06413646
000270 d4 21 ed 3d 1b 42 1a 3d 28 ef 87 3c 59 17 fc 3d
       0.11578718 0.0376607 0.01659353 0.12309141
000280 97 c5 5a be a6 61 46 bd b8 17 39 3d da e7 c4 3d
       -0.21364437 -0.04843297 0.045188636 0.09614535
000290 46 d2 c2 3d d4 c9 8c bd 69 84 b6 3c 32 11 94 bd
       0.09512763 -0.06874433 0.022279935 -0.07229842
0002a0 c3 b8 47 3d 10 25 27 be 95 07 22 be e2 bf 08 3c
       0.048760187 -0.16322732 -0.15823205 0.00834653
0002b0 2e 01 fb bd ff 2c 98 bc 29 18 98 3d c7 de 3d 3e
       -0.122560844 -0.018576143 0.07426483 0.18542014
0002c0 e1 e8 1f bd 5a da a1 bd 71 35 3a 3d d9 4b 40 bd
       -0.03904045 -0.079029754 0.045461122 -0.046947334
0002d0 64 f5 88 3d 84 ce f5 3d e7 4a 85 3d 4a 3f bf bb
       0.066874295 0.1200228 0.06508427 -0.005836402
0002e0 72 1d 98 bd 5e 82 36 be 1b 0a 77 bd 1a 71 43 3e
       -0.07427491 -0.17823169 -0.06031237 0.19086114
0002f0 6a b7 17 3d 4a 58 88 bd 38 da a8 bd 54 82 6c bb
       0.03704015 -0.06657465 -0.08244747 -0.0036088424
000300 4e 55 37 3d 4b 83 60 bd 4e 45 8b bc 4d 65 17 3d
       0.044759087 -0.05481271 -0.01700082 0.036961842
000310 b0 dc 77 bd 9c a2 85 3d b5 fa 09 bd 17 56 04 3d
       -0.0605132 0.06525156 -0.03368636 0.032308664
000320 ee d5 f6 bc 52 1d 1c 3e 55 72 89 be 52 15 b1 3d
       -0.030131306 0.1524556 -0.2684504 0.08646645
000330 e2 ce c4 3c 7e fc 5a 3c 93 55 0a bc 29 44 5a be
       0.02402443 0.013365863 -0.008443254 -0.21315064
000340 a3 9d ba 3e f6 2f 0a be a8 21 f3 3c 3a 20 e9 bc
       0.36448392 -0.13494858 0.029679134 -0.02845775
000350 7d af 60 3c 59 c1 46 bd 08 7d 84 3d 76 49 52 bd
       0.013713715 -0.048524234 0.0646916 -0.05133959
000360 a5 ec 2e 3d 5b 8b 4d bd 3a 45 e6 3c 43 3d da bc
       0.04270615 -0.050181728 0.028109182 -0.02664054
000370 ac 10 8e 3d 62 bd 1c 3c 9e 3d 41 3c b0 dd 83 bc
       0.06936774 0.009566637 0.011794476 -0.01609692
000380 e4 75 2b bd c8 c5 49 bc 09 b4 c5 3d 89 0d bf bb
       -0.041860476 -0.012315221 0.096534796 -0.005830471
000390 23 a6 7c 3b f7 c6 46 bd e5 86 73 bc a7 58 83 bc
       0.0038551174 -0.04852959 -0.014863704 -0.016033484
0003a0 0f d6 b9 3c 46 d2 f8 3c 0b 01 14 3d b3 cb ae bd
       0.022685079 0.030373704 0.036133807 -0.08534946
0003b0 84 88 8a bb 13 b6 08 3c c8 09 3c 3b 79 29 34 bc
       -0.0042276997 0.008344191 0.0028692354 -0.010996216
0003c0 ea 55 be bd 86 b3 21 bd f0 34 c4 bd 40 ab 21 3d
       -0.092937306 -0.039477848 -0.095804095 0.039469957
0003d0 62 10 8f bd 8d 62 85 3d 64 d0 f9 3c 32 f7 36 3d
       -0.06985547 0.06512938 0.030494876 0.044669338
0003e0 78 f4 a0 bd 79 b6 8f bc a2 ff 85 bd 50 94 80 bc
       -0.07859129 -0.017543064 -0.06542899 -0.01569572
0003f0 5f 19 fd 3c 63 5d 07 bd 23 ee a1 3d c2 be b5 3c
       0.030895887 -0.033048045 0.07906749 0.022185687

down1.maxpool_conv.1.conv.0.bias f4 [32]
000000 3c 5a 27 bc e5 c3 9c bd 80 aa ce 3d 45 8e 84 3d
       -0.010214385 -0.076545514 0.10091114 0.06472448
000010 1c 06 26 3d ce 9b 42 bd bd 00 38 bb cc e5 00 be
       0.04053317 -0.04751187 -0.0028076612 -0.1258766
000020 49 0b 61 3d e6 de dc bd 82 90 ec bd ff c3 8c 3d
       0.054942403 -0.10784702 -0.11551 0.06873321
000030 0e f1 96 bd c7 0f d5 bd 87 a6 06 3d a2 64 34 3d
       -0.07370196 -0.104034 0.032873657 0.044041283
000040 aa 74 51 3d 27 a2 43 bd 05 51 0c be 84 c0 01 be
       0.05113665 -0.047762062 -0.13702781 -0.12671095
000050 c4 92 3c bd b5 50 5d bd 76 4e 08 3e 35 b9 d8 3c
       -0.046038404 -0.054032046 0.1331118 0.026455501
000060 6e d5 94 bc 55 2c b4 bd ea 63 03 3c e1 8a 2f 3a
       -0.018168177 -0.08797518 0.008019427 0.0006696415
000070 f7 26 4b 3d f5 5a 25 3c 6b 8b 03 be 7b b1 b7 bc
       0.049597707 0.010092487 -0.12846152 -0.022423496

down1.maxpool_conv.1.conv.1.weight f4 [32]
000000 50 4f 87 3f 28 78 80 3f 65 8d 6f 3f a1 5f 86 3f
       1.0571079 1.0036669 0.93575126 1.0497934
000010 53 ff 62 3f 60 93 82 3f 74 c4 70 3f 21 a4 50 3f
       0.88670844 1.0201225 0.94049764 0.8150044
000020 8e b9 5b 3f d4 2f 8a 3f cd 8f 76 3f 48 99 5f 3f
       0.8583001 1.0795846 0.9631317 0.87343264
000030 4d 46 5f 3f ac 88 8b 3f ca 0d 73 3f dd 0e 4c 3f
       0.87216645 1.0901084 0.94942915 0.7971018
000040 3a 45 79 3f 8c 97 75 3f 23 64 83 3f 0f af 65 3f
       0.97371256 0.9593437 1.0264934 0.89720243
000050 5f 00 5e 3f c9 3d 92 3f bb 47 5c 3f ef 00 6e 3f
       0.86719316 1.1425105 0.8604695 0.92970175
000060 0d 6b 8c 3f c4 21 7d 3f 3d 3f 7a 3f 46 15 87 3f
       1.0970169 0.9887965 0.97752744 1.0553367
000070 f2 86 81 3f 5b 5a 81 3f 6d bc 85 3f 14 c4 62 3f
       1.0119307 1.0105699 1.0448128 0.8858044

down1.maxpool_conv.1.conv.1.bias f4 [32]
000000 3c 1c 18 be 99 f2 a8 bc da 8b 1d 3d ec 41 42 3d
       -0.1485452 -0.020623492 0.03846345 0.04742615
000010 71 7a 38 3f a3 35 91 3d 9f 33 c8 bd c7 47 a4 3e
       0.7206183 0.070903085 -0.09775471 0.32086012
000020 44 0c 75 3e 90 db 21 bd 87 67 98 3d 59 56 b5 3a
       0.2393046 -0.03951603 0.07441621 0.0013834938
000030 95 d2 79 3e 73 54 31 bc e5 0b de 3c 1f 62 d4 3e
       0.24396737 -0.010823357 0.027105281 0.4148111
000040 da 85 1a 3d a1 be 21 3e 9f 82 15 3e 54 11 3b bd
       0.037725307 0.15795375 0.14600609 -0.045670822
000050 59 1f 31 3f 57 52 0e 3d 68 6b 5e be 16 92 35 3f
       0.6918846 0.034746494 -0.2172066 0.70926034
000060 69 20 54 be 3f e2 89 3e 4e 73 a7 3d 18 0d 31 3e
       -0.20715488 0.26930425 0.081762895 0.17290151
000070 7b 80 c7 3e e2 16 e5 3d d8 fa cf 3d d2 05 44 3e
       0.3896521 0.11186005 0.101552665 0.19142845

down1.maxpool_conv.1.conv.1.running_mean f4 [32]
000000 62 07 29 be b4 2f 88 bd c2 32 f4 bc 5b c3 21 3d
       -0.16506723 -0.06649724 -0.02980936 0.039492946
000010 59 d4 a2 3c 16 a1 f7 bd d2 ed e9 bd 0c f5 1a be
       0.019876646 -0.120912716 -0.11422314 -0.1513254
000020 23 80 d6 3d bf db 1a be 1f f4 8c be 57 33 6f 3d
       0.10473659 -0.15122889 -0.2753 0.05839857
000030 bb 3f a7 bd 64 d0 18 be 55 ea 06 be 18 17 a1 bc
       -0.081664525 -0.14923245 -0.13175328 -0.019664332
000040 ac 1f e5 3d ca ba 26 be 90 68 e4 bd 49 eb 75 be
       0.111876816 -0.16282192 -0.11152756 -0.24015535
000050 a9 e4 83 be 6f 24 87 bd ba 7f 93 bd 69 d1 4c bc
       -0.2576039 -0.06598746 -0.07202096 -0.012501099
000060 b6 4f 2e bd 2e 1d 64 be a7 8e 4e bc bd e7 da bd
       -0.042556487 -0.22276756 -0.012607253 -0.10688732
000070 b9 ac ce bb d6 71 a8 be 6d 90 69 be 76 c8 8b bd
       -0.0063072112 -0.3289935 -0.22809 -0.06825344

down1.maxpool_conv.1.conv.1.running_var f4 [32]
000000 66 4e 3e 3b be 4d 88 3c 12 94 1d 3c 1d 7d 16 3d
       0.0029038428 0.016638633 0.009617822 0.03674041
000010 11 57 1f 3c 0e aa 1f 3c f0 a6 f5 3b a6 44 15 3b
       0.009725348 0.009745134 0.007496707 0.0022776513
000020 8d 64 8f 3b 0a 37 43 3d 47 70 2c 3c b0 23 32 3c
       0.0043760003 0.04765991 0.010524816 0.010872766
000030 67 ba c7 3b 21 c5 a3 3c be 6f b9 3b 47 8a 60 3b
       0.006095219 0.01999146 0.0056590727 0.0034262107
000040 b0 51 11 3c 46 d9 36 3d 16 20 8a 3b fb 6a 9a 3c
       0.0088695735 0.0446408 0.0042152507 0.01884984
000050 ad 80 1c 3c eb 34 3d 3d 25 a3 35 3b ee 76 5a 3c
       0.009552163 0.046193045 0.002771565 0.013334019
000060 65 7d e0 3b 8e 72 35 3c ad 58 4b 3c d7 0a 81 3d
       0.0068508857 0.011074675 0.012411279 0.06300896
000070 fa 01 4d 3c 7e 5c 4a 3c 61 75 2b 3c 92 f0 04 3c
       0.012512678 0.012351153 0.010464997 0.008113997

down2.maxpool_conv.1.conv.0.weight f4 [64, 32, 3]
000000 6a 88 92 bd b7 01 26 3c 3f ac f8 bb 36 be 0b 3d
       -0.07154925 0.010132245 -0.0075888927 0.034116946
000010 9c 42 de 3d eb 0f 33 bc 86 ff f7 bc 72 50 c9 3c
       0.108525485 -0.010929088 -0.03027321 0.024574492
000020 68 46 f1 3c 66 d2 63 bc 47 a8 85 3d 6a fa c6 3d
       0.029452518 -0.013905143 0.06526237 0.097157314
000030 5e 10 8d 3d 99 79 42 3d cb 6e 04 bd 4f 1f 8a bc
       0.068878874 0.047479246 -0.032332223 -0.016860632
000040 fc 70 75 bd 58 84 8e 3c 95 cb b0 bd 14 6a 89 bb
       -0.059922203 0.01739709 -0.0863258 -0.0041935537
000050 c8 99 37 3d dc bd 9f bd 34 95 23 bd 80 b2 3c bc
       0.04482439 -0.07799885 -0.039937213 -0.011517167
000060 19 b3 a6 ba 7d 27 eb bc d4 93 bd bc 15 70 df 3c
       -0.001271817 -0.028705353 -0.023141779 0.027275125
000070 5a c6 31 3e ac b6 82 3d da 2c 14 bd e0 b4 c3 bd
       0.17360821 0.06382498 -0.036175586 -0.095559835
000080 ee 5f 15 3d a3 6a 37 bb 52 eb eb 3c 68 c1 31 3d
       0.03646844 -0.0027987144 0.028798733 0.043397337
000090 7f a7 08 bd d3 5c 92 bd 6f ea 9a bd 02 84 6a bc
       -0.03336286 -0.07146611 -0.07564246 -0.0143137
0000a0 58 d1 34 bd 37 f1 43 bd 30 4f b3 bc bf 82 ff 3d
       -0.04414496 -0.047837462 -0.021888345 0.1247611
0000b0 a6 20 b9 bd ff 4f 9b bc c9 a7 2a 3a 16 d5 9b 3a
       -0.0903943 -0.018959044 0.0006509987 0.0011889066
0000c0 6f b2 cd 3c da c2 a2 3d be 9b 82 3d b0 b7 86 3d
       0.025109498 0.07947321 0.06377362 0.06578004
0000d0 ef 29 2f 3d 85 df cd 3d f1 59 75 bd 54 22 83 bd
       0.0427646 0.100523986 -0.059900228 -0.06403032
0000e0 a3 7b 1c bc b8 53 1a bc 72 7b f9 3c dd b0 5e bb
       -0.009550962 -0.009419374 0.030454371 -0.003397993
0000f0 cd b1 30 3c ed 53 9e 3c b7 a6 25 3b 9d 9c c7 3d
       0.0107845785 0.019327128 0.0025276372 0.097466685
000100 83 3e 9f 3d f9 b1 a5 3d e4 44 0a 3d 94 02 8d 3d
       0.07775595 0.08090586 0.033757105 0.06885257
000110 d9 eb 0b bc ea 15 54 bd fd 81 e2 bd 93 bc 0d 3c
       -0.008540117 -0.05177871 -0.110599495 0.008650917
000120 14 6c 65 3d 54 fb f3 bc 19 44 26 bd 2e 08 e6 bd
       0.056011274 -0.029782929 -0.040592287 -0.11232029
000130 be 06 cb 3a 97 02 9c bc c4 b9 76 bd f9 aa 08 3d
       0.001548968 -0.019044204 -0.060235754 0.033366177
000140 d6 91 da bb 1f 31 ac bd 62 75 8e bd 5b be 7a 3c
       -0.006670217 -0.084078066 -0.06955983 0.015304173
000150 96 8f 9c 3b d0 4a de 3c 63 f5 f2 3c 6f 29 99 bc
       0.004777859 0.027135283 0.029658025 -0.018696515
000160 ff 2d 4c bc 46 2a b4 bd 14 08 c6 3c 27 94 30 be
       -0.012462138 -0.087971255 0.024173774 -0.17244016
000170 4a 57 bd 3c a9 db 9f 3b 6d 64 bd bb 5c cf 4e bd
       0.023112912 0.0048784805 -0.005779794 -0.050490722
000180 62 11 6f bd de 90 f2 bc 67 1f 35 bd c8 84 0d be
       -0.058366187 -0.029610094 -0.0442194 -0.13820183
000190 82 76 9f bd a0 9d 71 bd 00 57 74 bd e8 c4 7b bc
       -0.077862754 -0.058988214 -0.059653282 -0.01536677
0001a0 8c 74 8c 3c d5 ba d4 bd e2 f6 90 bc 05 68 36 bc
       0.017145418 -0.10387198 -0.017695848 -0.011133199
0001b0 49 47 ea 3c 54 3f af bc fc d6 b6 bc 98 1b 14 3d
       0.028598445 -0.021392502 -0.02231931 0.036159128
0001c0 df dd 1c 3d a9 1e dc 3c d7 98 22 be 6a d0 c1 bd
       0.03829753 0.026870089 -0.15878616 -0.0946358
0001d0 c1 07 0e bd 1a 08 97 bc c6 ce 1c 3e 37 fc ad 3c
       -0.034675363 -0.01843648 0.15313253 0.02123843
0001e0 52 d1 f9 bc 1a b5 46 3c 51 d1 86 3c 50 50 b3 3c
       -0.03049532 0.012128139 0.016457232 0.021888882
0001f0 f6 02 a0 3d 88 30 6d 3d ab 77 e3 bd 8a 05 84 bd
       0.07813065 0.05790761 -0.11106809 -0.06446369
000200 a9 89 9e 3c c3 d8 89 3c 30 b2 8e bb 14 d2 00 bb
       0.01935275 0.016826993 -0.0043547377 -0.0019656466
000210 f6 4c f0 bc 80 bf 3d bd 77 fd 91 bd fa c2 08 3a
       -0.029333573 -0.046325207 -0.07128423 0.0005217042
000220 5a a2 81 bd 03 b6 01 be 04 63 57 bb 19 9f 50 3d
       -0.06329794 -0.12667088 -0.0032865414 0.050932977
000230 a1 0d 71 3d 87 f7 3d 3d 60 c6 8a bd d0 b1 94 bc
       0.05885089 0.04637864 -0.06776118 -0.018151194
000240 96 e1 1b 3d 5a 1e a7 38 f4 14 aa 3b d3 64 41 3c
       0.038056932 7.968834e-05 0.005190486 0.0118038235
000250 2f 36 e7 bd 70 f7 f2 bc c6 2c 56 3d f9 00 5c bd
       -0.112896316 -0.029659003 0.052288793 -0.053711865
000260 cb f5 ee bc 85 c9 b7 3c db 01 d0 bc af ab f7 bc
       -0.029169938 0.02243496 -0.02539151 -0.030233232
000270 d8 96 8c bd 32 52 fc 3c 5e ee 5d bc 54 4a 91 bd
       -0.06864709 0.030800913 -0.013545601 -0.07094255
000280 6a fd 83 3d 2b 04 39 3d a2 f7 a1 bd 07 8b 3c 3c
       0.06444819 0.04516999 -0.0790856 0.011507756
000290 fa bb 18 bb 31 e5 9a bd 33 ba 89 3d a4 74 2f 3d
       -0.0023305402 -0.07563246 0.06724968 0.042835847
0002a0 5a c5 be bb 6e b4 ae bd 01 c6 a8 bc b3 27 91 bc
       -0.005821866 -0.08530508 -0.020602228 -0.017719125
0002b0 c2 86 22 3d df fb 85 bb 70 23 2b be c3 27 56 3d
       0.039679296 -0.0040888633 -0.16712737 0.052284013
0002c0 ae f1 0b 3c 80 cf df bc ac b8 e2 bd ec b0 26 bd
       0.008541508 -0.027320623 -0.110703796 -0.04069607
0002d0 73 98 10 3d 70 d1 80 bd ef c1 fc 3a c7 0a e4 3d
       0.035301637 -0.06289947 0.0019283871 0.11134868
0002e0 b2 c2 30 bc 8b cd cd 3c cf c6 0e bd 9f 1d c9 bb
       -0.0107886065 0.025122425 -0.034857567 -0.0061375643
0002f0 1b 5d 0d bb e5 cd a3 bb 44 4d 2f 3d 35 c5 23 3d
       -0.0021570388 -0.00499891 0.042798296 0.039982993
000300 0b f1 ca 3d 33 62 2c bd 17 b5 c3 bc 6c 94 47 3d
       0.099092565 -0.042085838 -0.023890061 0.04872553
000310 40 12 e4 bd 72 e7 5a bd 35 15 ff 3d bb ef e6 3c
       -0.111362934 -0.05344338 0.12455217 0.028190484
000320 24 61 c2 3b c9 6d 84 bd 1d 83 0c 3e 18 28 d0 3b
       0.00593199 -0.06466252 0.13721891 0.006352436
000330 60 ee 4b 3d 22 b5 d7 bc e6 e3 ef 3c d3 70 f1 3d
       0.04978788 -0.026331488 0.029283475 0.11789098
000340 47 0e 94 3d dc 15 c3 bd 82 c3 fd bc e4 6a cb 3c
       0.07229286 -0.09525654 -0.030977014 0.024831243
000350 a5 d7 a7 bb 1b 49 a3 bc 28 ea 2b 3c 29 e9 4b 3d
       -0.0051221424 -0.01993232 0.010492839 0.049782906
000360 6a 0e 44 bd aa 8c e9 3d b7 61 a8 3d 66 82 0f bd
       -0.04786531 0.11403783 0.082217626 -0.035036467
000370 65 2d 03 bd ea 21 7e 3d d6 54 15 3d 2c 98 ef 3d
       -0.032025713 0.06204406 0.03645786 0.11698946
000380 f5 75 b9 3d cc 46 c6 bc 93 dd e1 3d 2b 27 15 3d
       0.09055702 -0.02420368 0.1102859 0.036414307
000390 84 67 ba 3c 10 d3 90 bc 28 e1 e6 bb e5 0c 9f bd
       0.022754438 -0.017678767 -0.0070458837 -0.07766131
0003a0 e5 25 ba 3d a8 15 59 bd fb 24 ab 3d 73 04 86 3d
       0.09089259 -0.05299917 0.08356663 0.06543817
0003b0 1b c7 31 3d a3 89 79 3c 5c 4d 04 bd 66 7b 45 bd
       0.043402772 0.015230569 -0.03230034 -0.048213385
0003c0 cf be 9e bc be 67 ca 3d 72 63 6e bd 0d 50 82 3d
       -0.019378094 0.098830685 -0.058200307 0.06362925
0003d0 37 54 3f 3e 38 fd 52 3b bb 6f f6 3c 45 b1 bf bc
       0.18684469 0.0032194387 0.030082574 -0.023399958
0003e0 c1 8e fa bb 07 a4 84 bd 3c bd 2d bd c1 cd e0 3b
       -0.007646412 -0.06476598 -0.042416796 0.0068604653
0003f0 91 8d 5d bc d7 1d bb bc b7 3a 03 bd 9a 49 55 3d
       -0.013522522 -0.022841377 -0.032038417 0.052072145

down2.maxpool_conv.1.conv.0.bias f4 [64]
000000 07 28 28 3d 22 2e 43 bd ba d8 09 3d 21 e6 b6 bd
       0.041053798 -0.047651418 0.033653952 -0.08930612
000010 4b 09 78 bc ac a1 45 3d 88 20 81 bc d4 dc 6d 3d
       -0.015138934 0.048249885 -0.015762582 0.058071926
000020 75 9e 8a bd 72 7f 38 bc f1 c5 42 bd a6 f6 16 3c
       -0.067685045 -0.011260854 -0.047552053 0.009214079
000030 20 be 9f 3d 59 93 bc bd d8 0b 5b bd 69 d4 94 3d
       0.07799935 -0.09207792 -0.053478092 0.072670765
000040 aa 52 9e 3d f0 56 85 3d e8 5e c1 bc c7 2a 0a 3c
       0.07730611 0.06510723 -0.023604825 0.0084330505
000050 36 83 9d 3d cf 3c 7c 3c 05 0d 24 bd 13 d5 9d bd
       0.07691042 0.015395357 -0.04005148 -0.07706656
000060 f4 57 df bc 89 00 af 3d cf 68 aa bc b7 6b 9b bd
       -0.027263619 0.08545024 -0.02080193 -0.07588904
000070 66 bb a9 bd 98 ea 05 bd 29 09 19 bc 70 7c 28 3c
       -0.082876965 -0.03269443 -0.009340563 0.010283574
000080 78 9c 60 bd 77 af 8f bd 9d 37 60 bd f9 19 b3 3d
       -0.05483672 -0.07015889 -0.054740537 0.08745188
000090 6b 2d a3 bd 9b a7 9d bd 63 f7 8d 3d 5b ff aa 3c
       -0.07967647 -0.07697984 0.06931951 0.020873716
0000a0 22 7c 8f 3c f5 3e 83 bc 20 da 32 3d 43 8d 29 3c
       0.017515246 -0.016021231 0.04366505 0.010348621
0000b0 ed 3d 49 bd 73 66 86 3b 03 5e a2 bc d5 42 37 bd
       -0.049131323 0.0041015684 -0.019820219 -0.04474147
0000c0 9a ba a4 3d 05 0c a5 3d 92 f1 b9 bd 2e dd 66 bd
       0.08043404 0.08058933 -0.09079279 -0.056363277
0000d0 64 72 7d 3d ed 3e ef bc d9 6a 15 bb 70 42 a1 3c
       0.06187667 -0.02920481 -0.0022799282 0.019685
0000e0 30 a5 a5 bd c4 60 de 3d 05 e7 4b 3d ad 16 95 3c
       -0.08088148 0.108583 0.049780864 0.01819929
0000f0 82 c5 2d bd aa 67 be 3d ce 85 15 bd af 43 f4 bc
       -0.042424686 0.09297116 -0.03650456 -0.02981743

down2.maxpool_conv.1.conv.1.weight f4 [64]
000000 eb d7 78 3f e9 ad 80 3f 18 95 83 3f 66 fe 81 3f
       0.97204465 1.0053073 1.0279875 1.0155761
000010 48 0c 73 3f 4e 5f 7c 3f 69 83 86 3f 40 87 80 3f
       0.94940615 0.98582923 1.0508853 1.0041275
000020 55 63 77 3f 61 a9 7e 3f 30 b6 7d 3f 3c 97 66 3f
       0.96635944 0.994772 0.9910612 0.90074515
000030 97 ad 7f 3f e3 ad 7c 3f ac 22 85 3f 6b 9a 85 3f
       0.9987425 0.9870283 1.0401206 1.043775
000040 ca 81 7b 3f 51 82 74 3f ed 15 80 3f 39 e4 83 3f
       0.9824492 0.9551135 1.0006691 1.0304023
000050 3f 73 81 3f 8e 4d 88 3f 2f 11 81 3f 5c 50 7b 3f
       1.0113295 1.0648668 1.0083369 0.98169494
000060 44 33 81 3f ce 27 82 3f b9 60 85 3f 69 4a 7e 3f
       1.009377 1.0168397 1.0420142 0.9933229
000070 b4 b6 7c 3f 77 28 7e 3f d0 e3 83 3f ab c4 80 3f
       0.9871628 0.99280494 1.0303898 1.0060018
000080 44 41 77 3f 59 8d 82 3f f9 fa 80 3f 1d 3b 7f 3f
       0.9658396 1.0199386 1.0076591 0.99699575
000090 e8 32 6f 3f 74 9c 87 3f bd aa 84 3f bb aa 86 3f
       0.9343705 1.0594621 1.0364605 1.0520853
0000a0 86 bd 7a 3f 01 34 6d 3f 38 69 77 3f 8b ec 79 3f
       0.9794544 0.92657477 0.96644926 0.9762656
0000b0 29 1f 7d 3f e1 53 81 3f 51 0a 82 3f b8 f1 84 3f
       0.9887567 1.0103723 1.0159398 1.0386267
0000c0 4d 47 7b 3f 50 b7 78 3f 13 68 84 3f 42 f4 80 3f
       0.9815567 0.9715471 1.0344261 1.0074542
0000d0 e3 32 80 3f 7d 3c 7d 3f 90 28 79 3f 6e cf 80 3f
       1.0015529 0.9892042 0.9732752 1.0063303
0000e0 4f 89 71 3f 7c db 74 3f 21 cc 83 3f 6a e5 7f 3f
       0.9435014 0.95647407 1.029667 0.99959433
0000f0 7c b2 7d 3f 9a 23 80 3f c9 39 83 3f 0f 2f 80 3f
       0.9910047 1.0010865 1.025201 1.0014361

down2.maxpool_conv.1.conv.1.bias f4 [64]
000000 d8 b0 14 3d 40 49 1d 3d 84 59 1c 3d cc 10 f1 3c
       0.036301464 0.038399935 0.038171306 0.029426955
000010 85 94 e4 bc 43 b3 3f 3b 4f fe af 3d 6c a7 13 3b
       -0.02790285 0.0029251135 0.085934274 0.002253021
000020 90 98 3d 3c 03 47 35 3b b9 1f 39 bd 34 32 3f 3d
       0.011572018 0.0027660734 -0.04519627 0.046678737
000030 93 1d 99 bc cf a4 c2 b9 7c 85 7f 3d 7c 5e 7c 3d
       -0.01869086 -0.00037125355 0.06238316 0.061613545
000040 cb cb 62 bc f3 1d 45 3d 6f df 2e 3d fd 72 42 3c
       -0.013842533 0.048124265 0.04269355 0.011868236
000050 a7 98 d0 3c 40 0c 7b 3d ff 92 b1 3d e9 81 96 b9
       0.025463415 0.06129098 0.086706154 -0.0002870702
000060 4e f2 85 3c 9b 05 21 3d 52 6c 4c 3d 00 be dc bc
       0.016350891 0.039311986 0.04990799 -0.026946068
000070 71 7b 02 bb b8 ba 61 bc d4 f9 48 3d 95 c8 38 bb
       -0.0019910003 -0.013777427 0.04906638 -0.0028195728
000080 c7 b7 cd 3c af a5 5a 3d ec e7 89 3d c7 a3 8b 3d
       0.025112046 0.053380664 0.06733689 0.068183474
000090 bd f5 c3 bc ed cc 8c 3d ee ab 74 3d 7c 7b f3 3c
       -0.023920888 0.06875024 0.059734277 0.029721968
0000a0 b0 7d 87 3c f2 e1 4c 3c 46 24 81 3d 51 64 aa 3d
       0.016539425 0.012505041 0.06305747 0.08319915
0000b0 a9 21 50 bd 3c 8f 0b 3c a9 de a3 3b f8 31 83 3d
       -0.05081335 0.008518036 0.0050009084 0.06406015
0000c0 a2 2e b3 3d 95 8d 85 3d 5c a4 50 3d 23 18 b6 bc
       0.08749129 0.06521145 0.050937995 -0.022228306
0000d0 50 21 f9 3c 3e 01 77 3c b3 5b e7 bc b5 bb 63 bb
       0.030411392 0.01507598 -0.028241968 -0.0034749333
0000e0 96 21 64 3d 23 c2 6a bd a5 a6 47 3d 3c 8a 29 bd
       0.055696093 -0.05731405 0.04874291 -0.041391596
0000f0 2b 06 ec 3b 28 d7 bb bc 3b 5e 61 3d fe a4 5f 3d
       0.0072028837 -0.022929743 0.055021506 0.05460071

down2.maxpool_conv.1.conv.1.running_mean f4 [64]
000000 3f c3 21 be 79 ec 2c bf 55 08 bb 3d c5 5a c8 be
       -0.15797137 -0.6754833 0.091324486 -0.39131752
000010 5b 2b 3f 3e b5 e3 80 bd a2 46 a2 bd e8 02 98 bd
       0.18668883 -0.06293432 -0.079236284 -0.07422429
000020 f0 7e be 3e bb 96 a4 bc a8 20 e1 3e b9 fd af 3d
       0.3720622 -0.020091405 0.43970227 0.08593316
000030 b1 0c f9 be e8 49 3c bf 67 d7 44 bf ba 91 14 bf
       -0.48642495 -0.7355027 -0.7689118 -0.5803486
000040 d6 72 58 be 15 9d 82 be d4 a3 3a bf 06 12 f6 bc
       -0.21137556 -0.2551047 -0.7290623 -0.030037891
000050 5f ce a7 bb bd c0 9d be d0 16 27 bf 66 5d 3a be
       -0.005121037 -0.3081111 -0.65269184 -0.18199691
000060 5a 9d 1d bf c3 b2 09 bf c2 70 a6 be 4a d7 88 3e
       -0.61568224 -0.53788394 -0.32507902 0.26726753
000070 09 96 d1 be 76 5e d4 be e7 16 20 bf f6 35 02 3d
       -0.4093478 -0.41478318 -0.62534946 0.031789742
000080 65 53 24 bf cd 14 0b bf d5 ed e3 3b 7e c4 1e be
       -0.6418975 -0.54328614 0.006955842 -0.15504643
000090 bb 04 c3 3d c9 95 90 be c0 7b 17 bf 38 8b 0d bf
       0.09522387 -0.28239277 -0.591732 -0.55290556
0000a0 fa e1 c5 bd 29 9f 24 3e 85 6b 81 bf cc 77 05 be
       -0.09662242 0.1607634 -1.0110937 -0.1303398
0000b0 40 69 37 3e e0 20 53 bf d7 66 ef 3d 4e 49 a3 be
       0.17911243 -0.8247204 0.11689537 -0.31891865
0000c0 53 ef 9c 3d fc 7e 10 bf 3e 2d dc bd e9 22 df b9
       0.07662835 -0.5644376 -0.10750817 -0.00042559885
0000d0 c9 fe e9 bd aa 40 31 3c cb 44 ad 3e bc 84 a6 be
       -0.114255495 0.01081864 0.33841547 -0.32523143
0000e0 07 c2 5d 3d e4 49 3c be 4e d9 ae be ae 06 ef bd
       0.054140117 -0.18387562 -0.34150165 -0.11671196
0000f0 01 04 cb be 2a 1c 72 be d5 3e f0 be b1 d2 8a 3e
       -0.39651492 -0.23643556 -0.46922937 0.2711387

down2.maxpool_conv.1.conv.1.running_var f4 [64]
000000 c2 ba ad 3f 66 fc eb 3e 46 05 14 3f 64 c2 b2 3f
       1.3572619 0.46091002 0.57820547 1.3965573
000010 c0 32 93 3f 31 50 e4 3e 4c 82 80 3f 15 21 96 3e
       1.1499863 0.4459243 1.0039763 0.29322115
000020 48 9e 02 3f dd 95 58 3f b2 0b 05 3f 88 dd be 3e
       0.5102277 0.84603673 0.5197097 0.3727839
000030 e0 e8 61 3f 97 09 0e 3f 43 5f a6 3f 20 00 15 40
       0.88245964 0.5548338 1.2997822 2.3281326
000040 70 4a 84 3f ed 02 08 3f be 61 f1 3e 9b cf 5e 3f
       1.0335217 0.53129464 0.47144884 0.8703553
000050 bc 74 a8 3e 97 12 83 3f 15 a8 18 3f 5c 9a ba 3f
       0.3290156 1.0240048 0.5963147 1.4578357
000060 de 8c 64 3f eb 6c a9 3f 80 4d 4b 3f 81 68 bb 3d
       0.89277446 1.3236364 0.7941513 0.09150792
000070 8f f1 e4 3e b4 b1 60 3f 34 38 b4 3f 2e e5 f5 3e
       0.44715545 0.87771153 1.4079652 0.48026413
000080 59 56 e3 3e fc ba be 3f 61 de da 3f d8 84 98 3f
       0.44401816 1.4900813 1.7099115 1.1915541
000090 44 30 59 3e 7b 99 bd 3f ef 9f 00 40 72 7f 21 3f
       0.21209818 1.4812464 2.0097616 0.6308509
0000a0 4d b8 16 3e aa 0a 2c 3e f3 f6 1c 3f e4 8b 28 3f
       0.14718743 0.16800943 0.61314315 0.65838456
0000b0 4b c7 80 3f d2 f4 f0 3e 7b d6 1b 3f 71 63 3e 3f
       1.0060819 0.47061783 0.60874146 0.74370486
0000c0 f7 4b c5 3e aa 0d 90 3e 69 f6 6a 3f 6f b9 93 3e
       0.3853452 0.28135425 0.9178224 0.28852412
0000d0 f9 66 a1 3f 91 f3 3c 3f 3b 0e 02 3f 5b ca f4 3e
       1.260955 0.7380915 0.50802964 0.47810635
0000e0 4e 86 e6 3e de 6c c3 3e a6 51 bd 3f 14 3b e4 3e
       0.4502434 0.38168997 1.4790542 0.44576323
0000f0 12 86 a2 3e a2 dc 7f 3f a4 96 b1 3f cc 0d bf 3e
       0.31742913 0.99946034 1.3874097 0.37315214
