CNN/best_model_net1.pth (torch, 36789 bytes, 13 tensors)

up1.up_conv.0.weight f4 [64, 32, 3]
00000000: 260a 1e3d 5f23 a5bd e323 0b3d b30c d3bd
00000010: 98fe cebd 30bf b7bd 06c9 b9bc a5c4 f33c
00000020: 043e 7a3c 79f5 603b ccff 8c3d b47f f4bc
00000030: 201c c83d 7dac 2cbd ee62 b0bc 523f f8bc
00000040: 0272 eebc affe 03be 9b50 713a 2f91 37bc
00000050: 1b51 00bd 8f16 f9bd be7e fe3c fe3c 18bd
00000060: 6772 abbc 471c d93c f026 133d ab3c e93d
00000070: d675 1b3c dc15 1ebd 01a4 87bd 22b7 0dbe
00000080: 7ed7 e33d eb20 c03c 3b97 0f3d 3199 113b
00000090: 6c60 423d a47c dfbc 7f92 b33c 5872 1a3b
000000a0: f1d8 dcbc 0699 6bbc fc70 0dbd 3e1b 2c3b
000000b0: 9a83 aebd 2344 83bd 033d 523d 9550 92bc
000000c0: bd1f b93d 1c75 2cbd 6dd0 9e3d 7e88 e03d
000000d0: 928c ce3c 73b2 b0bd 5186 823d af30 db3c
000000e0: 1376 a7bd 6b44 db3d 38ea 4b3c 5d77 b33c
000000f0: 2679 c23d dc8b 8f3d 2a1a 3abc a293 4abc
00000100: b69e 313d 9f2a 4bbd 359e 80bd 4ffe fa3d
00000110: 9cff efbc ad29 cebc ce3a 11be 3a3c e2bb
00000120: 4ef0 f7bd 6aa4 13bd 047c 36bc 79ee 9f3d
00000130: 17ac 5a3b b2f3 243a 5ed3 0d3d f4b0 5fbc
00000140: 747a 8abd ace4 6fbd 8049 aebd f4e2 93bd
00000150: 34e8 26be b8d0 1f3b 2a7a afbc 7e75 b9bc
00000160: 5f45 1cbd 1720 a93c 1cd4 38bb ac84 1f3d
00000170: 7041 963c 454a 643c 71a6 113e 594e 12bd
00000180: d011 c5bc b554 a83d 2d4a 09bd ff0f c23c
00000190: 1f9c 4ebe 411d 993d 64fc 963d 2c07 c5bd
000001a0: 5564 03be 3f5a 88bd 04fe a7bd 1a6a 84bd
000001b0: 71e5 df3c d25c b73d 1722 02be 65fa e0bd
000001c0: 90c2 e9bc 4e6f 84bd 2f40 b6bc 6a76 1b3d
000001d0: 873d fb3d f1d9 9a3d bcfb 7f3d 228e 2fbd
000001e0: 99e9 b13d 1e06 ad3b 6b6c 2f3d 1977 c4bc
000001f0: 54ef 0ebd f58e 31bd 4b58 b13d 9f42 2dbb
00000200: 3837 17bb aea7 bdbc 21fc 8abd b3e3 8dbd
00000210: a45e 9ebd bf8e 4b3d 5500 9a3d 25d5 363c
00000220: 2667 0c3e ef82 1cbd 88cd 123c 124e c73c
00000230: 0401 da3c 26d7 963c f7d7 a7bd e46f 05be
00000240: d056 463d 2cff 94bd ef74 70bd 8aa6 66bd
00000250: 23e6 e2bc 8003 38bd 4e3e 53bd 5998 8abc
00000260: aebd bbbd 49b0 c3bd c0e6 b4bd 68c7 9c3d
00000270: 073c 9abd 90da 313b 34f5 b6bd fbf6 b9bc
00000280: 9b6b a8bc bbda 113d 9a2e 9a3c 30f1 9ebd
00000290: 1588 cc3c 1f25 b5bc 84d7 edbd b170 11bd
000002a0: 5022 c9bd b0c7 c6bd e646 9ebc b782 293d
000002b0: eafa aa3b 74a8 bd3d 60f4 25be e0db a73d
000002c0: d7a4 e8bd acdb d5bd 8780 84bd 44e0 2fbd
000002d0: 15f4 64bd 78df 84bc b8b7 c63c ef10 a4bd
000002e0: e149 ad3d 2a57 dbbd 5482 113d 912b 8a3d
000002f0: 5b1d 6dbd 18a9 e7bc 5603 21be 46db db3c
00000300: dc92 153d 9695 323e d162 273d 98ea 44bb
00000310: 8bd9 acbd d69e e5bd bad7 f4bd 10b7 b7bd
00000320: 954d 27be dce9 83bc ec55 083d 600c 63bd
00000330: 82c3 e73d 97a3 8a3c 7091 af3d e3a3 0d3d
00000340: 1c67 41bd 9e90 fcbb a942 003b 80ac 51bd
00000350: 5270 3b3c 16b3 edbc ab69 c93c b042 83bb
00000360: 67c4 0cbc fdfc b9bd 28cd c03c 4cec 62bd
00000370: 4388 6c3d 581e 65bd e6ad abbd 876a b33c
00000380: a306 8cbd 1651 9fbb 1e6d 95bd 4851 21bc
00000390: fa3d 0fbd 2fad 87bd cc7c 50bd 6072 f0bd
000003a0: 1bdc 183d 8969 e7bc 2daf e63c 59ff 883c
000003b0: 8369 2ebd 0258 18bd e218 b7bd d177 413d
000003c0: d6df 85bd 4eb4 5cbd 1882 a33d bf07 32bd
000003d0: 07f2 f0bd d3df 453d 7558 debc ac8a 02bd
000003e0: cb7e 86bd e205 a53d 69e3 f2bd f268 f03d
000003f0: 91d5 5a3d eb64 8abd 0b2f 58bc 01c8 19bd
0.038583897 -0.08063387 0.03396977 -0.103051566 -0.10107154 -0.08972013 -0.022678863 0.029756853
0.015273575 0.0034326 0.06884727 -0.02984605 0.097709894 -0.042156685 -0.021531548 -0.030303631
-0.029107098 -0.12890123 0.00092054316 -0.011204048 -0.03132735 -0.12162506 0.031066295 -0.03716754
-0.020928575 0.026502742 0.035925806 0.113885246 0.0094885435 -0.038595065 -0.06623078 -0.13839391
0.11125086 0.023453197 0.035056334 0.0022216553 0.047455236 -0.027281113 0.02192044 0.002356669
-0.026958914 -0.014379745 -0.03453158 0.0026261355 -0.08521195 -0.064094804 0.051327717 -0.01786069
0.09039257 -0.04210387 0.07754598 0.10963534 0.025213514 -0.086277865 0.06373275 0.026756613
-0.08176818 0.10706409 0.012445979 0.021907503 0.094957635 0.07009098 -0.011358777 -0.0123643
0.04336425 -0.049601194 -0.062801756 0.12255537 -0.029296689 -0.025166357 -0.14182588 -0.006904152
-0.12106381 -0.03604547 -0.011137966 0.07809157 0.0033366734 0.0006292417 0.034625404 -0.013653029
-0.06761637 -0.058567688 -0.08510113 -0.07221022 -0.16299516 0.002438588 -0.021420557 -0.022639032
-0.038152095 0.020645184 -0.00282026 0.038944885 0.01834175 0.013933723 0.14223649 -0.03571925
-0.024056345 0.082192816 -0.033518005 0.023689268 -0.20176743 0.07476283 0.073723584 -0.096205086
-0.12831242 -0.06657838 -0.082027465 -0.0646555 0.027331086 0.08953251 -0.12708317 -0.10985259
-0.028535157 -0.06466542 -0.022247402 0.037954725 0.12267595 0.075611 0.062495932 -0.042860158
0.08687133 0.0052802702 0.042828005 -0.023982571 -0.03489621 -0.043349225 0.08659419 -0.0026437414
-0.0023073684 -0.023151245 -0.06786371 -0.06928196 -0.07732895 0.04969668 0.075195946 0.011159216
0.13711223 -0.038210806 0.008960135 0.024329219 0.026611812 0.018413138 -0.08195489 -0.13030964
0.048422635 -0.07275233 -0.058705267 -0.056311168 -0.027697628 -0.044925213 -0.05157309 -0.016918348
-0.09167038 -0.09555108 -0.088330746 0.07655221 -0.075309806 0.002713833 -0.089334875 -0.022700777
-0.020559123 0.03560899 0.01882105 -0.077608466 0.024967233 -0.022112427 -0.11613372 -0.03550786
-0.09820998 -0.09706056 -0.019320916 0.041384425 0.0052178996 0.092606455 -0.16206503 0.08196235
-0.11359566 -0.1044229 -0.06469827 -0.042938486 -0.055896837 -0.01621984 0.024257526 -0.08011042
0.08461357 -0.107099846 0.03552468 0.06746591 -0.057889324 -0.028278872 -0.15723929 0.026837956
0.03651701 0.17439875 0.040865723 -0.0030047055 -0.084399305 -0.11211936 -0.11955209 -0.08970463
-0.16338189 -0.016102724 0.033285066 -0.055431724 0.11316587 0.016923709 0.08572662 0.034580123
-0.047217473 -0.0077076694 0.0019570983 -0.0511899 0.0114403535 -0.029016059 0.02458652 -0.0040057525
-0.008591748 -0.09081457 0.023535326 -0.05540113 0.057747137 -0.05593714 -0.08382778 0.021901382
-0.06837203 -0.004861961 -0.07296203 -0.009846039 -0.034971215 -0.06624829 -0.050900266 -0.11740565
0.037319284 -0.028248565 0.028159702 0.016723322 -0.042581093 -0.037193306 -0.08940293 0.047233406
-0.06536834 -0.05388289 0.07983798 -0.04346442 -0.11764913 0.04830916 -0.027141789 -0.03187053
-0.065671526 0.08057763 -0.11859781 0.11738767 0.05342633 -0.0675753 -0.01319481 -0.037544254

up1.up_conv.0.bias f4 [32]
00000000: 3788 66bd d454 31bc a3ed a6bc eab9 f7bd
00000010: 8ef8 6e3d 7d67 c4bd 4c19 973d 378e 543d
00000020: 4c45 833c f980 173d 7810 053d 70af 62bd
00000030: 80c8 ac3b 024c a7bb 6aa1 03be a478 d1bd
00000040: b7bc a23d 85ff a73d dfa2 c6bb 6d32 273b
00000050: b7e0 afbd 23de db3d e47a ea3c a00f 4fbd
00000060: 48da d73b 6b5b 8f3d 00dc 963d 67b1 6ebd
00000070: 8ad5 2a3d 5249 91bd e6c6 263c fad0 163d
-0.05628225 -0.010823447 -0.020376986 -0.12096007 0.05834251 -0.09590051 0.07377872 0.05189344
0.016024254 0.036988232 0.03248641 -0.05534309 0.005272925 -0.0051054964 -0.12854543 -0.102280885
0.07946151 0.08203033 -0.006061896 0.0025512234 -0.08587783 0.107357286 0.028623052 -0.05055201
0.0065873004 0.069998585 0.073661804 -0.058274653 0.041707553 -0.07094063 0.010179257 0.03682039

up1.up_conv.1.weight f4 [32]
00000000: b3c3 583f 9929 8b3f ae9c 633f fa92 7f3f
00000010: 24c3 6f3f b8db 833f 0309 893f b2d3 6e3f
00000020: 89f2 853f ea1d 753f c85c 733f 46cb 833f
00000030: 31dc 853f 6470 833f 7768 7f3f cf62 803f
00000040: fc50 6d3f 04c0 7b3f ef94 803f bead 703f
00000050: 2162 813f a38a 753f ed90 843f 442b 813f
00000060: c243 843f e588 883f 2a5c 7e3f b87e 843f
00000070: 5b7d 813f a7d4 833f b2ef 793f a203 6c3f
0.84673613 1.087207 0.8891095 0.99833643 0.93657136 1.0301428 1.0705875 0.9329177
1.0464641 0.9574877 0.9506345 1.0296409 1.0457822 1.0268674 0.99768776 1.0030154
0.927017 0.9833987 1.0045451 0.9401511 1.0108072 0.9591467 1.0356728 1.0091329
1.0333178 1.0666777 0.9935938 1.0351171 1.011638 1.0299271 0.9763137 0.92193043

up1.up_conv.1.bias f4 [32]
00000000: c908 fbbd 9cb1 db3d 5f13 08bd e0a2 843d
00000010: 8837 1cbd 8179 8e3d 1cb0 413d 5052 113e
00000020: f8a7 593d b124 9f3d 1b6b bc3c be6b 1ebb
00000030: 1026 d73d 91e8 823d ce37 233e eeb8 8a3d
00000040: 13ba 14bd 6390 2a3c 5c79 ef3c dc21 0a3d
00000050: 3455 173d 65a2 dcbd b003 173d 30fc 0d3e
00000060: 4509 033e 64bb 3abd 9981 fd3c ba69 363d
00000070: 0b91 2e3d 83c4 553d 6ed1 4b3c 870d 903d
-0.12257535 0.10727236 -0.0332216 0.064763784 -0.038138896 0.06956769 0.04728709 0.14191556
0.053138703 0.0777067 0.02300029 -0.0024173106 0.10505307 0.06392015 0.15939257 0.06773554
-0.036310267 0.010410401 0.029232673 0.033723697 0.03694649 -0.10773162 0.03686875 0.13865733
0.12796505 -0.045588866 0.030945586 0.044534422 0.042618793 0.05218936 0.012440069 0.0703383

up1.up_conv.1.running_mean f4 [32]
00000000: d047 1dbe ad76 43bf 640c 4cbd 2d5c 2abe
00000010: f21b a03e 73dc 91bf d8d2 43bc 3763 d6be
00000020: 4cd0 90bd 9aea b5bb 1be6 debe bdf6 13be
00000030: 8003 39bf cd18 1fbf f718 573d 40a2 65bf
00000040: f266 4abe 4573 823e 6388 acbe f2c9 7cbd
00000050: d988 59bf 6696 9a3d 0d42 a43d 89a9 85bf
00000060: 0989 5ebf c0d2 ad3c 2d9d 35bf ee2f c8bf
00000070: 94af 60bf 752b 423c fb8d 69be 2475 00bf
-0.15359426 -0.7635296 -0.049816504 -0.16636725 0.3127132 -1.1395401 -0.011952125 -0.4187257
-0.070709795 -0.0055516483 -0.43534932 -0.14449592 -0.72270966 -0.6214722 0.052514043 -0.897007
-0.19765833 0.2547857 -0.33697805 -0.061716028 -0.8497444 0.075482175 0.08020411 -1.0442363
-0.8692785 0.021218657 -0.70942956 -1.5639627 -0.8776791 0.011851181 -0.22808068 -0.5017874

up1.up_conv.1.running_var f4 [32]
00000000: e844 6f3e 42d2 3b3f 6968 283e 018c 303e
00000010: 02cd d63e b2b3 523f 7b9f c43d 9dc3 443e
00000020: f855 113e 4daf dd3d 5862 203f 49c1 bc3d
00000030: d961 fc3e 34e3 693f 9ed4 133f 9a17 e73e
00000040: 61c2 ce3e 9534 b93d 978d 5e3e 71c1 133f
00000050: c1bd 963e 005c a63d f69c 903e bc38 1a3f
00000060: b07c 133f d6f3 ed3d 7f00 bb3f de83 0840
00000070: adc8 753f 63cc 3a3f 3307 383f df90 903e
0.2336613 0.733677 0.1644608 0.17240907 0.41953284 0.82305443 0.09600731 0.19215246
0.1419295 0.108244516 0.6265006 0.09216554 0.49293402 0.9136231 0.57746303 0.45135194
0.40382674 0.09043232 0.217337 0.57717043 0.29441646 0.08123016 0.28244752 0.6024282
0.57612133 0.11618774 1.4609526 2.1330485 0.9600933 0.7296812 0.71885985 0.28235528

up2.up_conv.0.weight f4 [32, 16, 3]
00000000: d4fc 3c3d 1dd9 5e3d d7cd 73bc 4901 593d
00000010: 4901 f4bd 7791 c0ba 11ac ba3d c66c 903d
00000020: 8fec 4f3c 90a2 69bd 4a80 c4bd f5db 20bd
00000030: d2db b83d 49ce 1fbe e79c 283d e6d0 b93d
00000040: b7d7 70bd 0ddc 483d ce60 18be c710 983b
00000050: 3e98 dc3d dfec 5b3d df9d dcbd 06d7 12be
00000060: 1ebe 493b 9324 dcbd e300 64bc d7e9 4cbd
00000070: ce96 213e 0e3b fbbd 0b2f 33bd 627d c4bd
00000080: 36cc 65bc f0b0 19bd 7a87 13be 6b28 903c
00000090: 1d0b 0a3d ffb1 8d3d ec2c c63d 7573 97bd
000000a0: 73f5 a63d d1d2 843d 743e 963c e356 df3d
000000b0: 21e7 cabc cbfb edba 45e9 a2bd 285f d03d
000000c0: fbda 703d b86b f93d 20d2 0e3e 6ebe febc
000000d0: f3bc 163b d3e3 c8bd a172 b2bd 136b 143e
000000e0: 3744 19bd 7795 f6bc e0fc 21be cf40 503d
000000f0: e0c6 8dbc 14f7 b4bd 1d8b 103e e48c 953d
00000100: d79d 7abe f989 02be b8d9 b73d 164a 93bc
00000110: bce5 e53c 2437 5bbe b2e3 9f3a e2d9 073d
00000120: f6de 88bd 1289 39bd 13c8 ccbd 2e71 433d
00000130: ceff b0bd a5ea 6dbd 30af b2bc 7f4f bdbd
00000140: 174b 0f3e 4205 60bd 73bc fabd 9b6a df3d
00000150: 43ec 833d 8d5e 323e e36e b83c 4c47 0abe
00000160: 7c79 51bd 5d1e 673d c793 e5bd b659 1cbe
00000170: 04eb 333d 1ae5 d63d 006e 17bd 7bf4 103d
00000180: 9e93 a23d 1b01 17be e48b b23d d750 efbc
00000190: fe94 19bd 9616 fc3c 384d f83c 8350 d0bc
000001a0: 85ce 97bd ccc7 2d3e 1d0e e5bd 16ec 1b3d
000001b0: e977 a3bc ccaf 2c3d 9449 1dbd 6cd0 393d
000001c0: 8136 fdbd 7e30 b03c 6cd0 7abc 19f6 fabd
000001d0: 5f22 773d c98c 893d 4485 36bd 4275 123e
000001e0: 9725 933c 7d40 efbb eb33 f03b eb2f 993d
000001f0: 27c6 903c 4e9b 66ba 609e 923d d2e0 e53c
00000200: 2a3b e3bd 052c 163e 338f 18bc ebd0 42bc
00000210: c286 203d 475c c2bb a210 46bd 964e 89bd
00000220: 2422 87bc 8aa3 fdbd 39ac 4f3d 501c 40be
00000230: 23bf f4bb 6f70 fbbd 3003 a1bd d7fb 333e
00000240: 9567 923d 0c18 503d 39e9 993d 4de9 87bd
00000250: acc8 5fbe a9d4 f93d ed99 d6bc d75e 663d
00000260: efeb 0e3e 2098 b83d 1181 afbd 9f74 e33c
00000270: e4f2 efbc 2243 46be 0e84 e93d 6df5 d8bb
00000280: d7d8 23bd 0b86 c03d 2289 cc3d 5e8c 0e3b
00000290: 8af8 c4bd 8092 b9bd 6d66 2bbd 503d 29bd
000002a0: bde7 81bd 7309 b73c b698 a33d be1a b53d
000002b0: 5e79 4cbd 4f4b 0abd 6b68 09be eaca e3bd
000002c0: e11d 963d 1c9a 9d3d 3a50 84be cf89 5cbd
000002d0: e84d cfbd 1011 77bd 82ad 94bd 2081 0fbe
000002e0: 4cf1 10bd 76b6 8f3d 7f9d 223d d778 f7bd
000002f0: 7f94 d5bd 1311 2a3d 9835 e8bd 3336 e63c
00000300: 8125 893c 5ce0 603d 7069 c4bd c885 51bd
00000310: ce7b a13c 6223 e0bc da55 b5bd 6320 d9bd
00000320: d626 aa3d 6124 3cbd 9c86 c8bd bb4c d8bd
00000330: eef6 b33d b8aa e73b 0124 a6bd e6ef 6abc
00000340: 68bd 1dbd 8f6a de3d 6ef2 67bd ad97 9c3d
00000350: 383e 273d 3ff7 1c3d 11b8 053d 6cd4 8a3b
00000360: 9ba8 ffbd 8537 8fbd 20ef 003e aa89 9cbb
00000370: 6ec6 a23b 022b 41bd 68a6 be3d 7280 2bbd
00000380: e87a 65bd 26de cdbd cd06 dbbb 684b 91bd
00000390: 8199 f2bd 0c3d 2b3d c2a6 01be bc72 dabc
000003a0: 4c02 91bd 974c 123d 4286 6abd 7b1a 573d
000003b0: 7f65 efbd f0b9 e33d 5bc8 a63d 2159 52be
000003c0: c609 0dbe 5a7e 68bb d8c1 15bd 7086 8a3c
000003d0: 38d2 173d e364 fa3d 2928 3f3c 87b0 c2bc
000003e0: 9a3e 2c3d 4f2a 733c 0913 953c 47de 253e
000003f0: 9a2a 473d f965 b33d ac64 4d3d a141 123d
0.046139553 0.054406274 -0.014880619 0.05297974 -0.119143076 -0.0014691789 0.0911485 0.07051997
0.012690677 -0.057039797 -0.09594782 -0.039272267 0.090263024 -0.15606035 0.04116526 0.09073047
-0.05879947 0.04903798 -0.14880678 0.004640672 0.107712254 0.053692695 -0.10772299 -0.14339837
0.0030783485 -0.107491635 -0.013916227 -0.050027695 0.15780184 -0.12267123 -0.043746036 -0.095942274
-0.014025738 -0.037522256 -0.14407149 0.017597398 0.033702005 0.06918716 0.09676537 -0.073950686
0.081522845 0.064855225 0.018340327 0.10905244 -0.024768414 -0.0018156705 -0.07954649 0.101743996
0.058802586 0.12178749 0.13947344 -0.031096663 0.0023000806 -0.09809079 -0.0871327 0.1449397
-0.03741857 -0.030100567 -0.1581912 0.050843056 -0.017306745 -0.08836189 0.14115568 0.073022634
-0.24474274 -0.12747945 0.089770734 -0.017979663 0.028063647 -0.21407753 0.0012198596 0.033166774
-0.066831514 -0.045296736 -0.09999099 0.04771536 -0.08642541 -0.058085103 -0.021812052 -0.09243678
0.13993488 -0.054692514 -0.12242975 0.10909005 0.06441548 0.17418881 0.022513812 -0.1350376
-0.051141247 0.05642544 -0.11209827 -0.15268597 0.0439253 0.104929164 -0.03697014 0.035389405
0.07938312 -0.14746515 0.08718088 -0.029213352 -0.037495606 0.030772489 0.030310258 -0.025429016
-0.07412437 0.16970748 -0.111843325 0.038066946 -0.019954639 0.04215984 -0.038400248 0.045364782
-0.123639114 0.021507498 -0.015308481 -0.12253971 0.060335513 0.06716306 -0.044560686 0.14302543
0.01796226 -0.007301389 0.007330408 0.07479843 0.017672611 -0.0008796946 0.07159114 0.028061304
-0.11095269 0.1466523 -0.009311485 -0.01189063 0.039191015 -0.0059314105 -0.048355706 -0.06704442
-0.016495772 -0.12384708 0.050701354 -0.187608 -0.0074690743 -0.122773044 -0.07861936 0.17576538
0.07148663 0.050804183 0.07515187 -0.066362955 -0.21853894 0.12198765 -0.026196444 0.05624279
0.13957189 0.090133905 -0.08569539 0.02776557 -0.029290624 -0.19361547 0.114021406 -0.006621054
-0.040001716 0.09400567 0.099870935 0.0021751146 -0.096177176 -0.09061146 -0.041845728 -0.041318238
-0.06343029 0.022343373 0.07988112 0.08842991 -0.049920432 -0.033763226 -0.13418739 -0.11122687
0.07329918 0.0769541 -0.25842458 -0.053842362 -0.10122281 -0.060319006 -0.072596565 -0.14014101
-0.03538637 0.070172235 0.03970098 -0.12083595 -0.10428714 0.04152019 -0.11338347 0.028102016
0.016741516 0.054901466 -0.09590423 -0.051152974 0.019712355 -0.027360622 -0.088542655 -0.106018804
0.083081886 -0.04593313 -0.097913 -0.1056151 0.087873325 0.007069912 -0.08112336 -0.014339423
-0.03851071 0.10860168 -0.056627683 0.07646117 0.04083082 0.03832173 0.032646243 0.0042367484
-0.12483331 -0.069930114 0.12591219 -0.004777153 0.0049675023 -0.047160156 0.09309083 -0.041870542
-0.056025416 -0.10052137 -0.0066841603 -0.07094461 -0.11845685 0.041806266 -0.1266127 -0.026666038
-0.07080516 0.035717573 -0.057256944 0.052515488 -0.11689281 0.11119449 0.081436835 -0.20541812
-0.1377326 -0.0035475702 -0.036561817 0.016909808 0.037065715 0.12226274 0.01166729 -0.023765815
0.04205189 0.01484163 0.018197553 0.16198073 0.048624612 0.08759684 0.050144836 0.03570712

up2.up_conv.0.bias f4 [16]
00000000: 57de 513d 8e8f cc3c e92a f13b 821e 833d
00000010: d1f9 783d 8a29 0a3d 4e51 a73d 93a5 d7bc
00000020: ec17 d2bb eda0 303d 12b7 60be 0ed5 6f3d
00000030: 24a1 48bc d348 553d a8cc 013e f1d3 13bd
0.05123743 0.024970796 0.0073598516 0.06402303 0.06078512 0.03373102 0.081698045 -0.02632407
-0.006411543 0.04312222 -0.21944836 0.058552794 -0.01224545 0.052071404 0.12675726 -0.036090795

up2.up_conv.1.weight f4 [16]
00000000: f8a0 863f 8e55 863f d7ff 8b3f bcfb 893f
00000010: 2a5e 8a3f 6cbf 893f 1306 853f 4434 8d3f
00000020: 82c4 933f 4488 7f3f 2774 8a3f 9585 893f
00000030: ef8b 893f 3ce2 713f 2bf1 8a3f 6287 893f
1.0517874 1.0494859 1.0937451 1.0779948 1.0809987 1.0761542 1.0392479 1.1031575
1.1544344 0.998173 1.0816697 1.0743891 1.0745829 0.9448583 1.0854849 1.074444

up2.up_conv.1.bias f4 [16]
00000000: 6372 503d a4c8 d53c 02cf a93d 44b1 a23d
00000010: 0d35 aa3d f3a1 b23d 2cba db3c c044 bb3d
00000020: c56d 8d3d 1961 8dbd 3418 9e3d e921 a03d
00000030: 69bf a73d c1fe bfbd 9b3b b13d df29 953d
0.050890338 0.02609665 0.08291437 0.07943967 0.083109 0.087222956 0.026822172 0.091439724
0.069057025 -0.069032855 0.0771946 0.07818968 0.081908055 -0.09374762 0.08653947 0.07283377

up2.up_conv.1.running_mean f4 [16]
00000000: a16c 9bbc 54a1 35bd b8fb ea3b 6dea 663c
00000010: 0709 63bd d226 89bd 89d5 2fbd aa8c 3dbe
00000020: 4dcc 273e 6508 493e ec73 2bbe 3339 8abe
00000030: f096 b9be 1d3c 373e cb08 bb3b 444c 7ebe
-0.018972697 -0.044343308 0.0071711205 0.014093977 -0.05542853 -0.066968575 -0.042928252 -0.1851069
0.16386528 0.19632109 -0.1674344 -0.26996765 -0.3624797 0.17894025 0.0057078353 -0.2483378

up2.up_conv.1.running_var f4 [16]
00000000: 0b6d 0b3e 69a5 d43d b0d4 093e 64eb 0b3f
00000010: c404 343e 7915 073f c711 ad3d 1168 573e
00000020: 1093 523d 4c12 af3d 2120 c93e be85 883f
00000030: 59f4 a53e 3575 ee3d e0a1 0e3f 9d7e 253f
0.13615815 0.10383112 0.1346004 0.5465605 0.17579943 0.5276714 0.084506564 0.21035792
0.05140978 0.08548412 0.39282325 1.0665815 0.32412985 0.11643449 0.5571575 0.6464632

out.outconv.0.weight f4 [1, 16, 3]
00000000: 2e34 82bd 8be9 c43d 7af2 a83d 196d 99bc
00000010: f451 2c3e f2d1 53bc 2f7e 8bbd d019 1c3e
00000020: 9fcf 9d3d 81cd 373e 2496 553c 8df3 0b3e
00000030: 60f2 9dbd 5289 fc3d e44d e33d 85a6 173e
00000040: 2170 75bd 88f5 383e 03a5 b03d d231 163c
00000050: e629 1cbc e306 973d 29cf 473e 3fc2 99bc
00000060: ecc2 253d 1ed3 873e 9d87 16bd 9ee7 113d
00000070: b73a 8ebd 3628 efbd fe3f ccbc fcdb 1f3e
00000080: 2c72 433e 93a6 4f3e 366d f33d 8fef 393e
00000090: 979e 573e 98eb 5cbd 636b 313e 443b aabc
000000a0: f523 1a3e a91c 5abd 18b5 ce3d 8ea7 2a3e
000000b0: d7df 053c 8b2c 223e de73 c23d 8583 0d3e
-0.06357609 0.09614857 0.08249374 -0.01872878 0.16828138 -0.012928473 -0.06811177 0.15244222
0.07705616 0.17949487 0.013036285 0.13667126 -0.07712245 0.12330879 0.11098841 0.14809616
-0.059921388 0.18062413 0.086252235 0.0091671515 -0.009531474 0.073743604 0.19512619 -0.018769382
0.040469095 0.26528257 -0.036750425 0.035621278 -0.06944793 -0.116775915 -0.024932858 0.15611261
0.19086522 0.20278387 0.11886065 0.1815779 0.21056591 -0.053935617 0.17326121 -0.020780213
0.15052779 -0.05324999 0.10093135 0.1666548 0.008171043 0.15837304 0.09494756 0.13819702
