CNN/best_model_net2.pth (torch, 36789 bytes, 13 tensors)

up1.up_conv.0.weight f4 [64, 32, 3]
00000000: 8a7e b3ba a922 adbd d86c 883d 4998 063d
00000010: 3161 8a3d b939 e13c 66b4 673d 168b ab3c
00000020: 3e96 22ba c4ce 183d e7bb 90bd 1d89 81bd
00000030: 5827 753d 0b0c acbd 3ce7 31bd 8c0b a0bd
00000040: cc33 9f3d eaac 31bd d59e 51bd 73d4 d2bb
00000050: 59c7 0ebe 5415 b23d 5b3f 363d 6eca 14be
00000060: 7396 d43d 60fe 3dbd e81a 2e3d dc9d 9a3d
00000070: 55f1 703d 0223 cbbd 71b5 9a3d 1b5d 443c
00000080: eea6 ffbc 30a2 86bd fa5a 363d aeb1 d03c
00000090: e138 a9bc 30e9 11bd 18fd bb3d 82a0 4a3c
000000a0: fcc3 9bbd a7da b03c 5323 4a3c f15d c33a
000000b0: 9b7a 4dbd 6157 1bbc 04fc 1cbd f86e c2bd
000000c0: 0614 bc3d 19a7 fa3c 895e bdbc 6931 c53d
000000d0: 1c0d ccbd bfca 5e3d 13d5 373d 011e 43bd
000000e0: 5ab9 7d3c ea11 04bd c863 903d 7f4e 3dbd
000000f0: 4254 cb3c a27c bdbd 53b4 a9bd 1a81 9fbd
00000100: d145 253c 72b9 9c3d d4b6 95bd a8fa 843d
00000110: 6f48 f13c 3e56 5f3d ce51 8dbd 3398 a43d
00000120: 5b77 a8bc 34ad 0fbd a838 b6bd 4905 3c3d
00000130: d7f7 66bd 2189 f6bd 398d 073e ca4d c43d
00000140: 7def 13bd 929f c33c d67f f0bd b045 de3d
00000150: 954a c63b 8dc1 173d de52 bfbc b4bf ac3c
00000160: c108 0cbe 399d 353d da26 863c 893b 403c
00000170: 9317 0a3c 3b75 d7bd 3466 8fbd 16c4 8ebc
00000180: 7bc9 acbd a262 cdbd b6f9 aabd ad78 c5bb
00000190: b6ff 073c 05b0 d5bd 5fbc 453d 8dab c3bd
000001a0: 079a c4bd 9468 243d 817f 6dbd e255 0abe
000001b0: 49c6 133d 3fc2 6f3c 8e08 00be ee9c aabd
000001c0: 5898 c33d 54ff e2bc 61ec 0c3d 8776 573d
000001d0: fda2 073d b962 a13d f3a7 cebd 8162 33bd
000001e0: a558 50bd b095 d9bd 2c02 543d ac2c d23c
000001f0: 0f5e c6bc a3bc dbbc 71fc c43d 81ec 403b
00000200: b7c1 963d 0768 9ebd ce5e 79bd 315c 7c3d
00000210: b7fa 913c 399f aa3d 0b61 04bc 6c18 4dbc
00000220: 0514 12bd c586 15be 22bf 1a3d f652 2bbb
00000230: 8689 cd3c b90d 02be eec4 8fbd adab fa3c
00000240: 6ab8 933d b704 ecba 4b9e 49bc 28d9 f3bb
00000250: 6c4c 8fbd 8093 323c db48 a53b fc46 c43c
00000260: 524c 573c a08f 89bd ec4a c5bd 23e0 eebd
00000270: 0700 193c 29e8 9abd cc0f 82bc 0b3a f5bb
00000280: ae74 553d 4244 75bd 77af 53bd 12fb 253c
00000290: 1014 cdbd caa7 8bbd a672 953d 83f6 30bd
000002a0: 21f4 263d 16d4 e0bd 6a3e f63c 5abb b53c
000002b0: c8c6 36be 2108 f3bb c1c8 c7ba 9612 dbbd
000002c0: 68b6 b2bd a6c8 253d 9a63 e7bd 3677 64ba
000002d0: 4bc6 9cbd 9405 053e 61c2 1cbd 0728 0b3d
000002e0: 298a 99bd d680 e03d 3dea dbbd 55a5 fcbd
000002f0: d262 2b3d 04aa 3c3d 8f71 0d3d 7e5b 263d
00000300: 5a2d 3b3d df83 f63d ca7a d6ba b0d4 2bbd
00000310: fa2a 953d 4f7c 553d 838a 9f3d 1184 2abd
00000320: 2b25 16bd c6bf 95bd 65c5 86bd fa89 dc3c
00000330: 7f86 543d 0fa6 e3bd 937a 753d 7395 a53d
00000340: 3cea d13d a614 123d 96b2 81bd 6ead efbc
00000350: d679 a73d 3268 89bc b815 a4bd 48bf c0bc
00000360: 0872 843d 22e1 87bd 9d68 a6bc 5417 68bc
00000370: e116 513d a750 e0bd 1a4d 943c 6980 f0bb
00000380: 6d11 153d 659c c4bb 539e 0b3c bbe6 80bd
00000390: 7db3 09bd 38c1 033e bc14 f83a 5210 a73d
000003a0: bb54 9a3d 7c2d 973b ca53 053d 42c6 9c3d
000003b0: 9c3c 113d a032 603d fea2 95bd ad30 613c
000003c0: baed bfbd 4d91 b83d 463a 383d 5e63 e6ba
000003d0: b8b5 5bbd e78e a73d e504 ab3d ec17 8abd
000003e0: cb77 d1bd fb3b ad3c bbd0 563d cdc7 0fbc
000003f0: 2d80 debb a4d4 bdbd 2405 b73d 5ad9 89bd
-0.0013694328 -0.084538765 0.06661385 0.032860074 0.06756819 0.027493345 0.056568526 0.020940345
-0.00062021974 0.037306562 -0.070670895 -0.063249804 0.059851974 -0.084007345 -0.043433413 -0.078147024
0.07773551 -0.043377794 -0.051176865 -0.0064340173 -0.13943233 0.08695474 0.044494014 -0.14530346
0.103802584 -0.04638517 0.04250613 0.075496405 0.058823902 -0.099187866 0.075541385 0.011985089
-0.031207528 -0.065739036 0.044520356 0.02547535 -0.020657005 -0.035622776 0.09179133 0.01236737
-0.076057404 0.021588637 0.0123375235 0.0014905316 -0.050165754 -0.009481282 -0.03832628 -0.09493822
0.09183507 0.030597256 -0.023116367 0.09628565 -0.09963438 0.054392572 0.044880938 -0.047636036
0.015486086 -0.032243647 0.07050282 -0.046217438 0.02482045 -0.092522874 -0.08286347 -0.07788296
0.010087446 0.076525584 -0.07310262 0.064931214 0.029453484 0.054525606 -0.06900369 0.08036842
-0.020564726 -0.03507729 -0.08897525 0.045903478 -0.056388702 -0.12037874 0.13237466 0.095851496
-0.036117066 0.0238798 -0.11743133 0.108531356 0.0060513713 0.03704982 -0.023354944 0.021087505
-0.13675214 0.044339392 0.016375948 0.011732944 0.008428472 -0.10520407 -0.070019156 -0.017427485
-0.08436867 -0.10028578 -0.0834841 -0.0060263486 0.008300712 -0.10433964 0.048275348 -0.09554205
-0.09599691 0.040138796 -0.057982925 -0.13509324 0.03607777 0.014633714 -0.12503263 -0.08330713
0.09550542 -0.02770964 0.034405116 0.05260327 0.033114422 0.07880158 -0.100906275 -0.043795113
-0.050865788 -0.10624254 0.051759884 0.025656067 -0.024214773 -0.026823347 0.09618462 0.0029437842
0.07361167 -0.077346854 -0.06088143 0.061611358 0.017819745 0.083311506 -0.0080797775 -0.01251803
-0.035663623 -0.14602192 0.037779935 -0.0026141978 0.02508999 -0.12700547 -0.07019983 0.03059944
0.072129086 -0.0018006776 -0.012305806 -0.0074416585 -0.06996998 0.010899425 0.0050440854 0.02395963
0.013140755 -0.067168474 -0.09633431 -0.116638444 0.009338385 -0.07563812 -0.015876673 -0.007483726
0.052113228 -0.05987955 -0.05168101 0.010130661 -0.10013592 -0.068191126 0.07297258 -0.043203842
0.040760163 -0.10977952 0.030059058 0.022184063 -0.17849267 -0.0074167405 -0.0015242324 -0.10696904
-0.087261975 0.040474556 -0.11298294 -0.00087152736 -0.07655009 0.12990409 -0.03827131 0.03397372
-0.07497055 0.109620735 -0.10738037 -0.12336222 0.04184229 0.046060577 0.034532126 0.040614597
0.045697547 0.12036871 -0.0016363498 -0.04195088 0.07283588 0.052120503 0.07790091 -0.041629855
-0.03665654 -0.073119685 -0.06580619 0.026921261 0.051886078 -0.111156575 0.05993135 0.08085146
0.10249755 0.035664223 -0.06332891 -0.029257502 0.08177535 -0.016773317 -0.08011955 -0.02352871
0.06467062 -0.066347376 -0.020313555 -0.014165718 0.05104721 -0.10952883 0.018103171 -0.0073395264
0.03639357 -0.006000089 0.008521634 -0.06294008 -0.03361844 0.12866676 0.0018927078 0.0815741
0.07535692 0.0046135765 0.03255061 0.07655002 0.035458192 0.05473578 -0.07306479 0.013744515
-0.093715146 0.09012089 0.04497745 -0.0017577221 -0.053640097 0.08181553 0.08350543 -0.06742844
-0.10227927 0.021146765 0.052445155 -0.008775664 -0.006790182 -0.092690736 0.08936527 -0.0673091

up1.up_conv.0.bias f4 [32]
00000000: d2b6 0f3c c2ef 453d 5a4d 0dbd 56d4 663d
00000010: 414c cdbc dff1 cfbd b269 b4bd c785 abbd
00000020: c811 9c3d d2a3 03be acca 81bd f97c 6ebd
00000030: 187f 5e3d cafa 0f3c 7b2a f2bd db91 81bd
00000040: ff3e 813c 6f7d 9d3b 0ade 5cbd af03 0fbd
00000050: cdbc 1bbd b56f 8ebd b74e 83bc 967c 8a3c
00000060: b222 f23c 3828 87bd 9318 b3bc a25a 98bd
00000070: d184 f3bc c3ca 283d 5800 c33d b81e 05be
0.008771615 0.048324354 -0.034497596 0.056354843 -0.025060775 -0.10153555 -0.08809222 -0.083751254
0.07620579 -0.12855461 -0.06337485 -0.058224652 0.054320425 0.00878782 -0.11824509 -0.06326648
0.01577711 0.0048062126 -0.05392269 -0.034915622 -0.03802185 -0.069549 -0.016028745 0.01690511
0.02955756 -0.06599468 -0.021862304 -0.07439162 -0.029726418 0.041208994 0.0952155 -0.13

up1.up_conv.1.weight f4 [32]
00000000: 4a2a 843f 0ba9 793f 8e54 753f ab29 793f
00000010: 49e3 843f d0ad 803f e713 803f 4687 703f
00000020: 5975 733f 8c7b 833f 2ebe 763f c7e9 803f
00000030: 6ce9 833f 90bb 7f3f 16c7 863f 1136 7e3f
00000040: dcb5 753f 7573 853f 0db4 723f 2f8c 823f
00000050: 6395 7d3f 4c28 7f3f a24b 7a3f 2b38 843f
00000060: 49e1 833f 0285 793f eb38 763f 8331 893f
00000070: bd44 7e3f a9f8 853f 0d70 823f 96d9 883f
1.0325406 0.97523564 0.95832145 0.97329205 1.0381862 1.0053043 1.0006074 0.9395641
0.95100933 1.0272079 0.9638394 1.0071343 1.030561 0.9989557 1.0529506 0.9930125
0.9598062 1.042586 0.94805986 1.0199031 0.9905607 0.99670863 0.97771657 1.0329641
1.0303127 0.9746858 0.961806 1.0718235 0.99323636 1.046651 1.0190445 1.0691402

up1.up_conv.1.bias f4 [32]
00000000: 2838 8c3c d86c cabc 71fa c73c 00fd 963c
00000010: f023 383d 48fa 703c 5b55 003d fd3f df3c
00000020: 0184 0cbd b7a5 2f3d 64e4 e5bc 06cf 343d
00000030: efdd b1bc 07ab 703b 3c42 ce3d 9503 4c3d
00000040: 8edb c2bc 20e6 1f3d ba94 793b 9a32 0e3d
00000050: f7f4 baba 5917 733c 147d e4bc 5b56 6a3d
00000060: 6acc f93c 5ad7 c53c 9de6 3bbd 941b 013e
00000070: 7fc5 50bc 0953 a43d 0408 d83c 9f62 8a3d
0.017116621 -0.024710104 0.024411412 0.018431187 0.044956148 0.014708109 0.0313314 0.027252192
-0.034305576 0.042882647 -0.028063007 0.044142745 -0.021712271 0.0036723034 0.10071227 0.049808104
-0.023786332 0.039037824 0.0038083033 0.034716226 -0.0014263679 0.0148371095 -0.027891673 0.05721126
0.03049298 0.02415054 -0.045874227 0.12608176 -0.012742399 0.0802365 0.02637101 0.06757092

up1.up_conv.1.running_mean f4 [32]
00000000: e163 e63d 11c5 1e3e 7542 b6be bbe7 78be
00000010: a7db 22bf fde6 febe 0702 11bf c438 06bf
00000020: e2f0 5abe 8a81 d2be fde3 71be 9658 26bf
00000030: 0bad 89bc 6386 92be f115 b9be 0a49 42bf
00000040: cc19 923e e1cd 383e ce2c 9bbe aa38 a0be
00000050: 1dea c8be e771 38be e891 38be 9f84 393d
00000060: e576 4f3e 5400 a8be 5272 2abe 3ea8 22be
00000070: 1167 833d 6f45 a7be 929f 893c 8461 bbbe
0.11249519 0.15504862 -0.35597578 -0.24307148 -0.6361641 -0.49785605 -0.5664372 -0.5243037
-0.21380952 -0.41114455 -0.23622127 -0.6497892 -0.016806146 -0.28618154 -0.36149552 -0.758927
0.28535306 0.18047287 -0.3030762 -0.3129323 -0.39241114 -0.180122 -0.18024409 0.045292493
0.20260198 -0.3281275 -0.16645172 -0.15884492 0.06416143 -0.3267016 0.016799722 -0.36597836

up1.up_conv.1.running_var f4 [32]
00000000: 45dd c93e a4d6 873e f512 ec3e d18a 213f
00000010: 426b 583f 3481 133f 65af a13e 3148 aa3e
00000020: 2996 db3e c24c 283f e681 963e a842 603f
00000030: e816 ff3e 5cc8 163f 78c0 cc3e 1cf7 eb3e
00000040: f953 bd3e 3c93 233f b3bf 093f 382b 293f
00000050: bc9a 993e 2f73 803f db77 b83e 377c d33e
00000060: 67ad fa3e 440a 293e 9d6f d93e 31b1 3a3f
00000070: b230 d23e 6c92 ad3f f9be 083f 8805 043f
0.39426628 0.26530945 0.46108213 0.6310244 0.8453866 0.57619023 0.31579128 0.33258203
0.42888 0.65742123 0.2939598 0.8760171 0.49822164 0.58899474 0.39990592 0.46086967
0.3697813 0.63896537 0.53808135 0.6608157 0.30000865 1.0035151 0.36028942 0.41305706
0.4896042 0.16507822 0.42467967 0.7292662 0.41052777 1.356031 0.534164 0.5157094

up2.up_conv.0.weight f4 [32, 16, 3]
00000000: 6a9c 673d 5c20 50bd 49e4 d3bd 1f7f a4bc
00000010: 1857 603d 6f7d bb3d b4b5 1e3e 3cb5 efbd
00000020: b8d2 123d 15a1 11be f8a1 e63d 7e8a f63d
00000030: 11df 5bbd aafc d03d 6f41 ff3c 07c7 8a3d
00000040: 126d b93d 6f89 903d 70f3 8bbc 689a 47bd
00000050: efe5 98bd 4485 4bbd e3f7 7d3c bba4 273e
00000060: 923f d4bd adf8 84bd 82c4 21bd 8f77 3ebc
00000070: 9876 d93d 18d2 d63d 1ee0 d43d 0437 ee3d
00000080: 20cf ae3c 6de7 c23a 12d5 a23d bc8c e43c
00000090: 3249 c33d cdf5 b8b9 13a1 5bbe 6dae 67bd
000000a0: b8db 4e3d c393 7fbc cfa5 bc3d b3bd d8bd
000000b0: e625 e9bd 01d2 103d 5df3 7dbd 6fd0 d73b
000000c0: 164c 08bd a0c2 87bc e3c6 403d a09a 51be
000000d0: 7867 83bd b2f2 6f3d 2c31 00bc 9ea2 c8bd
000000e0: a17c b53c 22c5 563c 9798 703d 27c7 893d
000000f0: 066c 3ebd 370f f63d 8f19 e1bc 79cc 323e
00000100: 9d2f b6bd 094c eb3d 2972 98bc 3eca b33d
00000110: f95f 18be d749 fa3d 6048 163d ece5 a0bd
00000120: c72f a33d 75ae 503e 8dee 60bc 8c5d b33d
00000130: 2cc4 003d 1bb2 ba3c 1043 c83d a1fd fcbd
00000140: 93b4 6abd 2499 67bd 9178 433d c5eb d13d
00000150: 4bb7 9ebb 4009 b5bd e295 b03c d78a b73d
00000160: 637d 55bb 0f81 d33d 8201 88bc 1828 49bd
00000170: 3282 c7bb 8c0c c03d 4b78 8dbd 0d3d 0fbc
00000180: 28a4 c1bd a097 203d 08bd 4abd fdee 983d
00000190: 4c88 583d 9ab4 4fbc 21b4 363d ef80 7dbd
000001a0: 283d f0bc 6afd e9bd bd07 6e3d 097c 283d
000001b0: e72c 4bbd 2519 af3d 7fdc b8bd 72a5 35be
000001c0: 1c83 c4bd c885 683d 1a4b cdbd 5def b23d
000001d0: c04e c0bd bb51 553d 2337 f43d 2949 b2bc
000001e0: d3fa c0bc 8595 8fba 5481 bf3d b5c9 b83d
000001f0: fe94 263d 1ea5 9d3c ea3e e8bd 65b9 873d
00000200: e562 653d 258e 6dbd b41e ce3d 378e 8ebd
00000210: 7572 023e cef7 59bc 0c67 8f3d a770 3f3d
00000220: 44ae c43d 3907 c2bd 1a1a e5bd f4b3 1a3d
00000230: 9c9c 4abb 7700 8bbc 3ec4 f0bb 5e3c a63d
00000240: d37e 253d 8c30 033d 8023 edbd efa8 dd3d
00000250: a022 cabd e625 e2bd 9525 c83d 447d 623d
00000260: 94df bcbd 9c32 a43d 7235 ddbd 0b70 113c
00000270: e77a d73d 8f23 2cbe 73d7 c53d 5c61 98bd
00000280: e933 df3d b7c1 8cbc 8d36 85bd 77dd dbbd
00000290: 1ca6 0c3e a49c 7bbd a406 5d3d 5732 4abd
000002a0: 0ce8 c4bd 78f7 20be a8b9 1abd 65f9 533d
000002b0: 3a8c f43b cca7 f5bd ac68 4cbd 0395 d83d
000002c0: 4155 21be 5a4b bd3d 90e4 6dbd 7022 11be
000002d0: 6558 f7bd 443e dd3d 93a1 a4bd 4dcd d23d
000002e0: 33bb e33c 328b 403d ba23 72ba b6e6 97bd
000002f0: 8f2d 933d 7d06 b33d 451d 0bbe c763 613d
00000300: 82a9 5cbd e4ac efbc 4976 e7bc c7f9 8dbd
00000310: 3c28 ddbd 2147 a83d f6e5 783d eed7 c9bd
00000320: 6eee d4bd d67f 23be 357a 583d dcb4 a73c
00000330: c48b db3d e27d 853d bfe8 6ebd 559d c73d
00000340: 77c2 d1bc 8c45 46bd 1518 9e3d 930f 2dbe
00000350: 94c0 f0bc c5e2 d73b 7711 35be df13 d2bc
00000360: e19b 01be 933d 06be 776a cb3b cc9a bfbd
00000370: ed7f d83d 5d64 edbd b5c0 10be e4a3 b73d
00000380: 0d1a 63bd 4849 c13d ae2d 89bd 9345 5abd
00000390: ad78 ed3c 9198 703c 3bea 18bc 77c5 cabd
000003a0: 2387 063e 3203 ddbd fe94 1abe d162 edbd
000003b0: f0fc 0a3d 42f6 c7bb 2f30 a8bd 0c5c de3b
000003c0: 9aa7 993d c0e5 eb3d 0638 5abd edd6 353d
000003d0: 3d9d b8bc 0934 fc3d 6a9b b0bc d452 9d3d
000003e0: 82b3 e3bd 73b3 b8bc f4bc 00be 6cf8 7abd
000003f0: 5876 8d3d 337c c0bd 2694 2a3d 81de b33c
0.056545652 -0.05081211 -0.10346276 -0.020080147 0.05477056 0.09154784 0.15499002 -0.117044896
0.03584549 -0.14221604 0.11261362 0.12038134 -0.05367953 0.10204442 0.03115913 0.06776243
0.09054007 0.070574634 -0.017083853 -0.048731238 -0.07465731 -0.04968764 0.015500995 0.16371433
-0.103636876 -0.06492744 -0.039494045 -0.011625185 0.10618323 0.10489291 0.103943095 0.11631587
0.021339 0.0014869996 0.07950796 0.027899139 0.09535445 -0.0003527835 -0.21448164 -0.05656283
0.05050251 -0.015599194 0.09211313 -0.10583057 -0.11384182 0.035356525 -0.061999667 0.0065861265
-0.033275686 -0.016572297 0.047064673 -0.20469141 -0.064162195 0.05858106 -0.0078242235 -0.09796642
0.022154154 0.013108524 0.05873927 0.067274384 -0.046489738 0.12014621 -0.027478008 0.17460813
-0.088958 0.11489112 -0.018609123 0.08778809 -0.1488036 0.12221115 0.036690116 -0.07856354
0.07968097 0.2037905 -0.01372875 0.08758077 0.031437084 0.022790005 0.09778416 -0.123530634
-0.057301115 -0.05654253 0.047722403 0.102500476 -0.0048436276 -0.08839655 0.021555845 0.089620285
-0.0032575957 0.1032735 -0.016602281 -0.049110502 -0.0060885185 0.09377393 -0.0690771 -0.008742583
-0.094551384 0.0392071 -0.04949668 0.074674584 0.052864358 -0.012677336 0.044605378 -0.06189054
-0.029326037 -0.11425288 0.05811285 0.041133914 -0.04960337 0.08549718 -0.09026431 -0.17738894
-0.0959532 0.05676821 -0.1002409 0.08737061 -0.0939002 0.052079897 0.11924579 -0.021763401
-0.023557102 -0.0010954594 0.09350839 0.090228476 0.040669434 0.019243773 -0.11340125 0.06627158
0.056002516 -0.057996888 0.1006445 -0.06960719 0.12738974 -0.01330371 0.070020765 0.046738293
0.09603551 -0.09474034 -0.11186619 0.037769273 -0.00309161 -0.016967995 -0.0073476126 0.08116983
0.040404152 0.03202872 -0.11579037 0.10823237 -0.098698854 -0.11042385 0.09772793 0.055295244
-0.09222332 0.080174655 -0.108012095 0.008876811 0.10521489 -0.1681044 0.09660234 -0.07440445
0.10898573 -0.017182214 -0.06504545 -0.107356004 0.1373524 -0.06142868 0.05396141 -0.049364414
-0.09614572 -0.15719402 -0.03777471 0.051751513 0.0074630054 -0.11994895 -0.04990451 0.10575297
-0.15755178 0.09242888 -0.058079302 -0.14173293 -0.12077407 0.10802892 -0.0803863 0.10293064
0.027799224 0.047007747 -0.0009236891 -0.074170515 0.07186424 0.08741472 -0.13585384 0.055026796
-0.053872593 -0.029257245 -0.028254645 -0.06932407 -0.1079869 0.08216692 0.060766183 -0.098556384
-0.10397039 -0.15966734 0.05285092 0.020471983 0.107200176 0.06518151 -0.058327433 0.097468056
-0.025605423 -0.04840617 0.07719437 -0.16900472 -0.029388703 0.0065883123 -0.17682444 -0.02564424
-0.1265712 -0.13109426 0.00620776 -0.09355697 0.10571275 -0.115914084 -0.14136012 0.089668065
-0.055444766 0.094378054 -0.06698166 -0.053289007 0.028988207 0.014684812 -0.009333189 -0.09900945
0.13137488 -0.10791625 -0.15095899 -0.11591113 0.033932626 -0.0061023543 -0.08212315 0.006785875
0.075026706 0.11518431 -0.053276084 0.044394422 -0.022535915 0.123146124 -0.021558482 0.07681814
-0.11118223 -0.022546506 -0.1257208 -0.06127207 0.06907338 -0.09398689 0.04164519 0.021956684

up2.up_conv.0.bias f4 [16]
00000000: 56a2 673d 9001 f13c faed 9dbb 0c58 9d3d
00000010: f5c6 1dbe 11ae 983d fb8e 82bd 40bc a139
00000020: e07e 8cbd e4fd cbbd 0c54 04be 7def 51bd
00000030: a5d0 96bd 62dc 85bd 8d62 c63c b0b8 37bd
0.0565513 0.02941969 -0.004819629 0.07682809 -0.15407927 0.074550755 -0.063749276 0.0003084857
-0.06860137 -0.09960535 -0.12922686 -0.051253784 -0.073640145 -0.06536175 0.024216915 -0.044853866

up2.up_conv.1.weight f4 [16]
00000000: 3760 883f 4346 713f f441 873f a1fd 863f
00000010: 4438 863f ee2b 733f e71c 683f 9f9a 873f
00000020: 5adf 893f 1d7e 873f 71d5 843f 7520 813f
00000030: f658 863f bb6b 873f 9ac2 863f 0b83 873f
1.0654362 0.94247836 1.0567002 1.0546151 1.0485921 0.94988906 0.906691 1.0594062
1.0771286 1.0585362 1.0377637 1.008803 1.0495899 1.0579752 1.0528138 1.0586866

up2.up_conv.1.bias f4 [16]
00000000: 426c 873d 137c 65bd 15ae 713d 8a0b 803d
00000010: 0d22 433d cc38 49bd c411 0ebd 3e4c 903d
00000020: 6140 a43d 5d51 a83d e53b 3c3d 2ba4 9b3c
00000030: d801 6b3d 78f1 7f3d 2084 793d 9bdf 8f3d
0.066124454 -0.05602653 0.05900391 0.06252201 0.047639895 -0.04912643 -0.03468491 0.07045792
0.08020092 0.08218644 0.045955557 0.01899918 0.057374805 0.062486142 0.06091702 0.07025071

up2.up_conv.1.running_mean f4 [16]
00000000: b495 43be 9d9d 0e3d 29f9 c6be b318 4ebd
00000010: 49da 7bbe 53ab e53d 89a4 f6bc e3bb b2be
00000020: d77c 82be b5aa 63be a90a dfbe fc4b 4abc
00000030: b1c2 70be 843d bebd 74a7 c8be b29c 3abe
-0.19100076 0.03481828 -0.3886197 -0.050316524 -0.24594988 0.11214318 -0.030107753 -0.3490897
-0.2548587 -0.22233088 -0.4356282 -0.012347218 -0.23511769 -0.09289077 -0.39190257 -0.18223837

up2.up_conv.1.running_var f4 [16]
00000000: 8065 0e3f 1cbc c03d 21ab 963e 86c2 893e
00000010: 2a6e 5d3e 9432 bc3d 6d93 c23d 9f10 6f3e
00000020: 718e ca3e 0a5b ce3e 8923 cc3e 41ea ae3e
00000030: 551b c33e 0cdb 9e3e 4f19 9b3e 8660 c13e
0.55623627 0.09410879 0.29427436 0.26906222 0.21624056 0.091893345 0.095007755 0.23346184
0.395618 0.40303832 0.3987086 0.34163097 0.3810679 0.31026495 0.30292746 0.37768954

out.outconv.0.weight f4 [1, 16, 3]
00000000: 4903 9cbd 45f2 98bd 855f 4abe eea4 643d
00000010: a674 a13d 4740 c73b af39 05be d3ac 11be
00000020: c99d 0bbe 0c13 273d 571e 23be 922e 1cbe
00000030: e812 f3bd 2476 5bbc f680 1b3b ba2c f13a
00000040: a94a 883c 1008 7d3d b89b b93d 5ed6 e23c
00000050: c755 a9bd 405f e2bd d3ad b5bd 76db 3e3d
00000060: 0667 7b3d 3920 b9bd d25b 1ebe e59d 9cbd
00000070: 98ef 413d 5a9a 1abe 10fd 863d 12d3 19be
00000080: 5a65 5bbd 01e6 993d a1e8 a9bc 4d26 1bbe
00000090: 5c93 d2bc 3698 493c f82b 03be 2d73 88bc
000000a0: 13f3 02be 229e 20be 45ae 99bc 0adc f5bd
000000b0: c190 39be a685 24be 33f9 17be b1f1 ba3c
-0.07617814 -0.07468084 -0.19763 0.05582135 0.07883577 0.0060806605 -0.13010286 -0.14226083
-0.13634409 0.04078965 -0.15929542 -0.1525214 -0.118688405 -0.013394866 0.002372799 0.001840017
0.016637163 0.061775267 0.09062904 0.027690109 -0.08268314 -0.11053324 -0.08871045 0.046596013
0.061377548 -0.09039349 -0.15464714 -0.076473035 0.047347635 -0.15097943 0.065912366 -0.15021923
-0.053563453 0.07514573 -0.020740809 -0.1515133 -0.025705032 0.012304356 -0.12809741 -0.016656483
-0.12788038 -0.15685323 -0.018759856 -0.1200486 -0.18121625 -0.16066608 -0.14841156 0.022820326
